…
I0801 15:07:35.053664  3326 net.cpp:339] The NetState phase (0) differed from the phase (1) specified by a rule in layer accuracy
I0801 15:07:35.053841  3326 net.cpp:50] Initializing net from parameters: 
name: "s2vt"
state {
  phase: TRAIN
  stage: "factored"
  stage: "2-layer"
}
layer {
  name: "data"
  type: "HDF5Data"
  top: "cont_sentence"
  top: "input_sentence"
  top: "target_sentence"
  top: "stage_indicator"
  top: "frame_fc7"
  include {
    phase: TRAIN
  }
  hdf5_data_param {
    source: "/data/gengshan/pose_s2vt/hdf5/buffer_32_s2vt_160/HAHAHAHA_batches/hdf5_chunk_list.txt"
    batch_size: 80
  }
}
layer {
  name: "reshape_stg_indicator"
  type: "Reshape"
  bottom: "stage_indicator"
  top: "stage_indicator_3axis"
  reshape_param {
    shape {
      dim: 80
      dim: 32
      dim: 1
    }
  }
}
layer {
  name: "embed_encoder"
  type: "InnerProduct"
  bottom: "frame_fc7"
  top: "embedded_input_frames"
  param {
    lr_mult: 1
    decay_mult: 1
  }
  param {
    lr_mult: 2
    decay_mult: 0
  }
  inner_product_param {
    num_output: 500
    weight_filler {
      type: "xavier"
    }
    bias_filler {
      type: "constant"
      value: 0.2
    }
    axis: -1
  }
}
layer {
  name: "embedding"
  type: "Embed"
  bottom: "input_sentence"
  top: "embedded_input_sentence"
  param {
    lr_mult: 1
  }
  embed_param {
    num_output: 500
    input_dim: 6068
    bias_term: false
    weight_filler {
      type: "uniform"
      min: -0.08
      max: 0.08
    }
  }
}
layer {
  name: "lstm1"
  type: "LSTM"
  bottom: "embedded_input_frames"
  bottom: "cont_sentence"
  top: "lstm1"
  include {
    stage: "factored"
  }
  recurrent_param {
    num_output: 1000
    weight_filler {
      type: "uniform"
      min: -0.08
      max: 0.08
    }
    bias_filler {
      type: "constant"
      value: 0
    }
  }
}
layer {
  name: "concat"
  type: "Concat"
  bottom: "lstm1"
  bottom: "embedded_input_sentence"
  bottom: "stage_indicator_3axis"
  top: "lstm1_video_sequence"
  include {
    stage: "factored"
  }
  concat_param {
    concat_dim: 2
  }
}
layer {
  name: "lstm2"
  type: "LSTM"
  bottom: "lstm1_video_sequence"
  bottom: "cont_sentence"
  top: "lstm2"
  include {
    stage: "factored"
  }
  recurrent_param {
    num_output: 1000
    weight_filler {
      type: "uniform"
      min: -0.08
      max: 0.08
    }
    bias_filler {
      type: "constant"
      value: 0
    }
  }
}
layer {
  name: "predict"
  type: "InnerProduct"
  bottom: "lstm2"
  top: "predict"
  param {
    lr_mult: 1
    decay_mult: 1
  }
  param {
    lr_mult: 2
    decay_mult: 0
  }
  include {
    stage: "2-layer"
  }
  inner_product_param {
    num_output: 6068
    weight_filler {
      type: "uniform"
      min: -0.08
      max: 0.08
    }
    bias_filler {
      type: "constant"
      value: 0
    }
    axis: 2
  }
}
layer {
  name: "cross_entropy_loss"
  type: "SoftmaxWithLoss"
  bottom: "predict"
  bottom: "target_sentence"
  top: "cross_entropy_loss"
  loss_weight: 20
  loss_param {
    ignore_label: -1
  }
  softmax_param {
    axis: 2
  }
}
I0801 15:07:35.054044  3326 layer_factory.hpp:76] Creating layer data
I0801 15:07:35.054085  3326 net.cpp:110] Creating Layer data
I0801 15:07:35.054100  3326 net.cpp:433] data -> cont_sentence
I0801 15:07:35.054132  3326 net.cpp:433] data -> input_sentence
I0801 15:07:35.054148  3326 net.cpp:433] data -> target_sentence
I0801 15:07:35.054162  3326 net.cpp:433] data -> stage_indicator
I0801 15:07:35.054172  3326 net.cpp:433] data -> frame_fc7
I0801 15:07:35.054190  3326 hdf5_data_layer.cpp:80] Loading list of HDF5 filenames from: /data/gengshan/pose_s2vt/hdf5/buffer_32_s2vt_160/HAHAHAHA_batches/hdf5_chunk_list.txt
I0801 15:07:35.055508  3326 hdf5_data_layer.cpp:94] Number of HDF5 files: 3
I0801 15:07:35.159167  3326 net.cpp:155] Setting up data
I0801 15:07:35.159231  3326 net.cpp:163] Top shape: 80 32 (2560)
I0801 15:07:35.159243  3326 net.cpp:163] Top shape: 80 32 (2560)
I0801 15:07:35.159250  3326 net.cpp:163] Top shape: 80 32 (2560)
I0801 15:07:35.159258  3326 net.cpp:163] Top shape: 80 32 (2560)
I0801 15:07:35.159266  3326 net.cpp:163] Top shape: 80 32 32 (81920)
I0801 15:07:35.159279  3326 layer_factory.hpp:76] Creating layer cont_sentence_data_0_split
I0801 15:07:35.159302  3326 net.cpp:110] Creating Layer cont_sentence_data_0_split
I0801 15:07:35.159312  3326 net.cpp:477] cont_sentence_data_0_split <- cont_sentence
I0801 15:07:35.159330  3326 net.cpp:433] cont_sentence_data_0_split -> cont_sentence_data_0_split_0
I0801 15:07:35.159348  3326 net.cpp:433] cont_sentence_data_0_split -> cont_sentence_data_0_split_1
I0801 15:07:35.159364  3326 net.cpp:155] Setting up cont_sentence_data_0_split
I0801 15:07:35.159373  3326 net.cpp:163] Top shape: 80 32 (2560)
I0801 15:07:35.159381  3326 net.cpp:163] Top shape: 80 32 (2560)
I0801 15:07:35.159387  3326 layer_factory.hpp:76] Creating layer reshape_stg_indicator
I0801 15:07:35.159401  3326 net.cpp:110] Creating Layer reshape_stg_indicator
I0801 15:07:35.159409  3326 net.cpp:477] reshape_stg_indicator <- stage_indicator
I0801 15:07:35.159417  3326 net.cpp:433] reshape_stg_indicator -> stage_indicator_3axis
I0801 15:07:35.159446  3326 net.cpp:155] Setting up reshape_stg_indicator
I0801 15:07:35.159454  3326 net.cpp:163] Top shape: 80 32 1 (2560)
I0801 15:07:35.159461  3326 layer_factory.hpp:76] Creating layer embed_encoder
I0801 15:07:35.159490  3326 net.cpp:110] Creating Layer embed_encoder
I0801 15:07:35.159497  3326 net.cpp:477] embed_encoder <- frame_fc7
I0801 15:07:35.159507  3326 net.cpp:433] embed_encoder -> embedded_input_frames
I0801 15:07:35.162264  3326 net.cpp:155] Setting up embed_encoder
I0801 15:07:35.162283  3326 net.cpp:163] Top shape: 80 32 500 (1280000)
I0801 15:07:35.162315  3326 layer_factory.hpp:76] Creating layer embedding
I0801 15:07:35.162333  3326 net.cpp:110] Creating Layer embedding
I0801 15:07:35.162340  3326 net.cpp:477] embedding <- input_sentence
I0801 15:07:35.162351  3326 net.cpp:433] embedding -> embedded_input_sentence
I0801 15:07:35.195672  3326 net.cpp:155] Setting up embedding
I0801 15:07:35.195709  3326 net.cpp:163] Top shape: 80 32 500 (1280000)
I0801 15:07:35.195727  3326 layer_factory.hpp:76] Creating layer lstm1
I0801 15:07:35.195750  3326 net.cpp:110] Creating Layer lstm1
I0801 15:07:35.195768  3326 net.cpp:477] lstm1 <- embedded_input_frames
I0801 15:07:35.195811  3326 net.cpp:477] lstm1 <- cont_sentence_data_0_split_0
I0801 15:07:35.195823  3326 net.cpp:433] lstm1 -> lstm1
I0801 15:07:35.195847  3326 recurrent_layer.cpp:27] Initializing recurrent layer: assuming input batch contains 80 timesteps of 32 independent streams.
I0801 15:07:35.199873  3326 net.cpp:50] Initializing net from parameters: 
input: "x"
input: "cont"
input: "c_0"
input: "h_0"
force_backward: true
input_shape {
  dim: 80
  dim: 32
  dim: 500
}
input_shape {
  dim: 80
  dim: 32
}
input_shape {
  dim: 1
  dim: 32
  dim: 1000
}
input_shape {
  dim: 1
  dim: 32
  dim: 1000
}
layer {
  name: "lstm1_cont_slice"
  type: "Slice"
  bottom: "cont"
  top: "cont_1"
  top: "cont_2"
  top: "cont_3"
  top: "cont_4"
  top: "cont_5"
  top: "cont_6"
  top: "cont_7"
  top: "cont_8"
  top: "cont_9"
  top: "cont_10"
  top: "cont_11"
  top: "cont_12"
  top: "cont_13"
  top: "cont_14"
  top: "cont_15"
  top: "cont_16"
  top: "cont_17"
  top: "cont_18"
  top: "cont_19"
  top: "cont_20"
  top: "cont_21"
  top: "cont_22"
  top: "cont_23"
  top: "cont_24"
  top: "cont_25"
  top: "cont_26"
  top: "cont_27"
  top: "cont_28"
  top: "cont_29"
  top: "cont_30"
  top: "cont_31"
  top: "cont_32"
  top: "cont_33"
  top: "cont_34"
  top: "cont_35"
  top: "cont_36"
  top: "cont_37"
  top: "cont_38"
  top: "cont_39"
  top: "cont_40"
  top: "cont_41"
  top: "cont_42"
  top: "cont_43"
  top: "cont_44"
  top: "cont_45"
  top: "cont_46"
  top: "cont_47"
  top: "cont_48"
  top: "cont_49"
  top: "cont_50"
  top: "cont_51"
  top: "cont_52"
  top: "cont_53"
  top: "cont_54"
  top: "cont_55"
  top: "cont_56"
  top: "cont_57"
  top: "cont_58"
  top: "cont_59"
  top: "cont_60"
  top: "cont_61"
  top: "cont_62"
  top: "cont_63"
  top: "cont_64"
  top: "cont_65"
  top: "cont_66"
  top: "cont_67"
  top: "cont_68"
  top: "cont_69"
  top: "cont_70"
  top: "cont_71"
  top: "cont_72"
  top: "cont_73"
  top: "cont_74"
  top: "cont_75"
  top: "cont_76"
  top: "cont_77"
  top: "cont_78"
  top: "cont_79"
  top: "cont_80"
  slice_param {
    axis: 0
  }
}
layer {
  name: "lstm1_x_transform"
  type: "InnerProduct"
  bottom: "x"
  top: "W_xc_x"
  param {
    name: "W_xc"
  }
  param {
    name: "b_c"
  }
  inner_product_param {
    num_output: 4000
    bias_term: true
    weight_filler {
      type: "uniform"
      min: -0.08
      max: 0.08
    }
    bias_filler {
      type: "constant"
      value: 0
    }
    axis: 2
  }
}
layer {
  name: "lstm1_W_xc_x_slice"
  type: "Slice"
  bottom: "W_xc_x"
  top: "W_xc_x_1"
  top: "W_xc_x_2"
  top: "W_xc_x_3"
  top: "W_xc_x_4"
  top: "W_xc_x_5"
  top: "W_xc_x_6"
  top: "W_xc_x_7"
  top: "W_xc_x_8"
  top: "W_xc_x_9"
  top: "W_xc_x_10"
  top: "W_xc_x_11"
  top: "W_xc_x_12"
  top: "W_xc_x_13"
  top: "W_xc_x_14"
  top: "W_xc_x_15"
  top: "W_xc_x_16"
  top: "W_xc_x_17"
  top: "W_xc_x_18"
  top: "W_xc_x_19"
  top: "W_xc_x_20"
  top: "W_xc_x_21"
  top: "W_xc_x_22"
…
  top: "W_xc_x_53"
  top: "W_xc_x_54"
  top: "W_xc_x_55"
  top: "W_xc_x_56"
  top: "W_xc_x_57"
  top: "W_xc_x_58"
  top: "W_xc_x_59"
  top: "W_xc_x_60"
  top: "W_xc_x_61"
  top: "W_xc_x_62"
  top: "W_xc_x_63"
  top: "W_xc_x_64"
  top: "W_xc_x_65"
  top: "W_xc_x_66"
  top: "W_xc_x_67"
  top: "W_xc_x_68"
  top: "W_xc_x_69"
  top: "W_xc_x_70"
  top: "W_xc_x_71"
  top: "W_xc_x_72"
  top: "W_xc_x_73"
  top: "W_xc_x_74"
  top: "W_xc_x_75"
  top: "W_xc_x_76"
  top: "W_xc_x_77"
  top: "W_xc_x_78"
  top: "W_xc_x_79"
  top: "W_xc_x_80"
  slice_param {
    axis: 0
  }
}
layer {
  name: "lstm1_h_conted_0"
  type: "Scalar"
  bottom: "h_0"
  bottom: "cont_1"
  top: "h_conted_0"
  scalar_param {
    axis: 0
  }
}
layer {
  name: "lstm1_transform_1"
  type: "InnerProduct"
  bottom: "h_conted_0"
  top: "W_hc_h_0"
  param {
    name: "W_hc"
  }
  inner_product_param {
    num_output: 4000
    bias_term: false
    weight_filler {
      type: "uniform"
      min: -0.08
      max: 0.08
    }
    axis: 2
  }
}
layer {
  name: "lstm1_gate_input_1"
  type: "Eltwise"
  bottom: "W_hc_h_0"
  bottom: "W_xc_x_1"
  top: "gate_input_1"
  eltwise_param {
    operation: SUM
  }
}
layer {
  name: "lstm1_unit_1"
  type: "LSTMUnit"
  bottom: "c_0"
  bottom: "gate_input_1"
  bottom: "cont_1"
  top: "c_1"
  top: "h_1"
}
layer {
  name: "lstm1_h_conted_1"
  type: "Scalar"
  bottom: "h_1"
  bottom: "cont_2"
  top: "h_conted_1"
  scalar_param {
    axis: 0
  }
}
layer {
  name: "lstm1_transform_2"
  type: "InnerProduct"
  bottom: "h_conted_1"
  top: "W_hc_h_1"
  param {
    name: "W_hc"
  }
  inner_product_param {
    num_output: 4000
    bias_term: false
    weight_filler {
      type: "uniform"
      min: -0.08
      max: 0.08
    }
    axis: 2
  }
}
layer {
  name: "lstm1_gate_input_2"
  type: "Eltwise"
  bottom: "W_hc_h_1"
  bottom: "W_xc_x_2"
  top: "gate_input_2"
  eltwise_param {
    operation: SUM
  }
}
layer {
  name: "lstm1_unit_2"
  type: "LSTMUnit"
  bottom: "c_1"
  bottom: "gate_input_2"
  bottom: "cont_2"
  top: "c_2"
  top: "h_2"
}
layer {
  name: "lstm1_h_conted_2"
  type: "Scalar"
  bottom: "h_2"
  bottom: "cont_3"
  top: "h_conted_2"
  scalar_param {
    axis: 0
  }
}
layer {
  name: "lstm1_transform_3"
  type: "InnerProduct"
  bottom: "h_conted_2"
  top: "W_hc_h_2"
  param {
    name: "W_hc"
  }
  inner_product_param {
    num_output: 4000
    bias_term: false
    weight_filler {
      type: "uniform"
      min: -0.08
      max: 0.08
    }
    axis: 2
  }
}
layer {
  name: "lstm1_gate_input_3"
  type: "Eltwise"
  bottom: "W_hc_h_2"
  bottom: "W_xc_x_3"
  top: "gate_input_3"
  eltwise_param {
    operation: SUM
  }
}
layer {
  name: "lstm1_unit_3"
  type: "LSTMUnit"
  bottom: "c_2"
  bottom: "gate_input_3"
  bottom: "cont_3"
  top: "c_3"
  top: "h_3"
}
layer {
  name: "lstm1_h_conted_3"
  type: "Scalar"
  bottom: "h_3"
  bottom: "cont_4"
  top: "h_conted_3"
  scalar_param {
    axis: 0
  }
}
layer {
  name: "lstm1_transform_4"
  type: "InnerProduct"
  bottom: "h_conted_3"
  top: "W_hc_h_3"
  param {
    name: "W_hc"
  }
  inner_product_param {
    num_output: 4000
    bias_term: false
    weight_filler {
      type: "uniform"
      min: -0.08
      max: 0.08
    }
    axis: 2
  }
}
layer {
  name: "lstm1_gate_input_4"
  type: "Eltwise"
  bottom: "W_hc_h_3"
  bottom: "W_xc_x_4"
  top: "gate_input_4"
  eltwise_param {
    operation: SUM
  }
}
layer {
  name: "lstm1_unit_4"
  type: "LSTMUnit"
  bottom: "c_3"
  bottom: "gate_input_4"
  bottom: "cont_4"
  top: "c_4"
  top: "h_4"
}
layer {
  name: "lstm1_h_conted_4"
  type: "Scalar"
  bottom: "h_4"
  bottom: "cont_5"
  top: "h_conted_4"
  scalar_param {
    axis: 0
  }
}
layer {
  name: "lstm1_transform_5"
  type: "InnerProduct"
  bottom: "h_conted_4"
  top: "W_hc_h_4"
  param {
    name: "W_hc"
  }
  inner_product_param {
    num_output: 4000
    bias_term: false
    weight_filler {
      type: "uniform"
      min: -0.08
      max: 0.08
    }
    axis: 2
  }
}
layer {
  name: "lstm1_gate_input_5"
  type: "Eltwise"
  bottom: "W_hc_h_4"
  bottom: "W_xc_x_5"
  top: "gate_input_5"
  eltwise_param {
    operation: SUM
  }
}
layer {
  name: "lstm1_unit_5"
  type: "LSTMUnit"
  bottom: "c_4"
  bottom: "gate_input_5"
  bottom: "cont_5"
  top: "c_5"
  top: "h_5"
}
layer {
  name: "lstm1_h_conted_5"
  type: "Scalar"
  bottom: "h_5"
  bottom: "cont_6"
  top: "h_conted_5"
  scalar_param {
    axis: 0
  }
}
layer {
  name: "lstm1_transform_6"
  type: "InnerProduct"
  bottom: "h_conted_5"
  top: "W_hc_h_5"
  param {
    name: "W_hc"
  }
  inner_product_param {
    num_output: 4000
    bias_term: false
    weight_filler {
      type: "uniform"
      min: -0.08
      max: 0.08
    }
    axis: 2
  }
}
layer {
  name: "lstm1_gate_input_6"
  type: "Eltwise"
  bottom: "W_hc_h_5"
  bottom: "W_xc_x_6"
  top: "gate_input_6"
  eltwise_param {
    operation: SUM
  }
}
layer {
  name: "lstm1_unit_6"
  type: "LSTMUnit"
  bottom: "c_5"
  bottom: "gate_input_6"
  bottom: "cont_6"
  top: "c_6"
  top: "h_6"
}
layer {
  name: "lstm1_h_conted_6"
  type: "Scalar"
  bottom: "h_6"
  bottom: "cont_7"
  top: "h_conted_6"
  scalar_param {
    axis: 0
  }
}
layer {
  name: "lstm1_transform_7"
  type: "InnerProduct"
  bottom: "h_conted_6"
  top: "W_hc_h_6"
  param {
    name: "W_hc"
  }
  inner_product_param {
    num_output: 4000
    bias_term: false
    weight_filler {
      type: "uniform"
      min: -0.08
      max: 0.08
    }
    axis: 2
  }
}
layer {
  name: "lstm1_gate_input_7"
  type: "Eltwise"
  bottom: "W_hc_h_6"
  bottom: "W_xc_x_7"
  top: "gate_input_7"
  eltwise_param {
    operation: SUM
  }
}
layer {
  name: "lstm1_unit_7"
  type: "LSTMUnit"
  bottom: "c_6"
  bottom: "gate_input_7"
  bottom: "cont_7"
  top: "c_7"
  top: "h_7"
}
layer {
  name: "lstm1_h_conted_7"
  type: "Scalar"
  bottom: "h_7"
  bottom: "cont_8"
  top: "h_conted_7"
  scalar_param {
    axis: 0
  }
}
layer {
  name: "lstm1_transform_8"
  type: "InnerProduct"
  bottom: "h_conted_7"
  top: "W_hc_h_7"
  param {
    name: "W_hc"
  }
  inner_product_param {
    num_output: 4000
    bias_term: false
    weight_filler {
      type: "uniform"
      min: -0.08
      max: 0.08
    }
    axis: 2
  }
}
layer {
  name: "lstm1_gate_input_8"
  type: "Eltwise"
  bottom: "W_hc_h_7"
  bottom: "W_xc_x_8"
  top: "gate_input_8"
  eltwise_param {
    operation: SUM
  }
}
layer {
  name: "lstm1_unit_8"
  type: "LSTMUnit"
  bottom: "c_7"
  bottom: "gate_input_8"
  bottom: "cont_8"
  top: "c_8"
  top: "h_8"
}
layer {
  name: "lstm1_h_conted_8"
  type: "Scalar"
  bottom: "h_8"
  bottom: "cont_9"
  top: "h_conted_8"
  scalar_param {
    axis: 0
  }
}
layer {
  name: "lstm1_transform_9"
  type: "InnerProduct"
  bottom: "h_conted_8"
  top: "W_hc_h_8"
  param {
    name: "W_hc"
  }
  inner_product_param {
    num_output: 4000
    bias_term: false
    weight_filler {
      type: "uniform"
      min: -0.08
      max: 0.08
    }
    axis: 2
  }
}
layer {
  name: "lstm1_gate_input_9"
  type: "Eltwise"
  bottom: "W_hc_h_8"
  bottom: "W_xc_x_9"
  top: "gate_input_9"
  eltwise_param {
    operation: SUM
  }
}
layer {
  name: "lstm1_unit_9"
  type: "LSTMUnit"
  bottom: "c_8"
  bottom: "gate_input_9"
  bottom: "cont_9"
  top: "c_9"
  top: "h_9"
}
layer {
  name: "lstm1_h_conted_9"
  type: "Scalar"
  bottom: "h_9"
  bottom: "cont_10"
  top: "h_conted_9"
  scalar_param {
    axis: 0
  }
}
layer {
  name: "lstm1_transform_10"
  type: "InnerProduct"
  bottom: "h_conted_9"
  top: "W_hc_h_9"
  param {
    name: "W_hc"
  }
  inner_product_param {
    num_output: 4000
    bias_term: false
    weight_filler {
      type: "uniform"
      min: -0.08
      max: 0.08
    }
    axis: 2
  }
}
layer {
  name: "lstm1_gate_input_10"
  type: "Eltwise"
  bottom: "W_hc_h_9"
  bottom: "W_xc_x_10"
  top: "gate_input_10"
  eltwise_param {
    operation: SUM
  }
}
layer {
  name: "lstm1_unit_10"
  type: "LSTMUnit"
  bottom: "c_9"
  bottom: "gate_input_10"
  bottom: "cont_10"
  top: "c_10"
  top: "h_10"
}
layer {
  name: "lstm1_h_conted_10"
  type: "Scalar"
  bottom: "h_10"
  bottom: "cont_11"
  top: "h_conted_10"
  scalar_param {
    axis: 0
  }
}
layer {
  name: "lstm1_transform_11"
  type: "InnerProduct"
  bottom: "h_conted_10"
  top: "W_hc_h_10"
  param {
    name: "W_hc"
  }
  inner_product_param {
    num_output: 4000
    bias_term: false
    weight_filler {
      type: "uniform"
      min: -0.08
      max: 0.08
    }
    axis: 2
  }
}
layer {
  name: "lstm1_gate_input_11"
  type: "Eltwise"
  bottom: "W_hc_h_10"
  bottom: "W_xc_x_11"
  top: "gate_input_11"
  eltwise_param {
    operation: SUM
  }
}
layer {
  name: "lstm1_unit_11"
  type: "LSTMUnit"
  bottom: "c_10"
  bottom: "gate_input_11"
  bottom: "cont_11"
  top: "c_11"
  top: "h_11"
}
layer {
  name: "lstm1_h_conted_11"
  type: "Scalar"
  bottom: "h_11"
  bottom: "cont_12"
  top: "h_conted_11"
  scalar_param {
    axis: 0
  }
}
layer {
  name: "lstm1_transform_12"
  type: "InnerProduct"
  bottom: "h_conted_11"
  top: "W_hc_h_11"
  param {
    name: "W_hc"
  }
  inner_product_param {
    num_output: 4000
    bias_term: false
    weight_filler {
      type: "uniform"
      min: -0.08
      max: 0.08
    }
    axis: 2
  }
}
layer {
  name: "lstm1_gate_input_12"
  type: "Eltwise"
  bottom: "W_hc_h_11"
  bottom: "W_xc_x_12"
  top: "gate_input_12"
  eltwise_param {
    operation: SUM
  }
}
layer {
  name: "lstm1_unit_12"
  type: "LSTMUnit"
  bottom: "c_11"
  bottom: "gate_input_12"
  bottom: "cont_12"
  top: "c_12"
  top: "h_12"
}
layer {
  name: "lstm1_h_conted_12"
  type: "Scalar"
  bottom: "h_12"
  bottom: "cont_13"
  top: "h_conted_12"
  scalar_param {
    axis: 0
  }
}
layer {
  name: "lstm1_transform_13"
  type: "InnerProduct"
  bottom: "h_conted_12"
  top: "W_hc_h_12"
  param {
    name: "W_hc"
  }
  inner_product_param {
    num_output: 4000
    bias_term: false
    weight_filler {
      type: "uniform"
      min: -0.08
      max: 0.08
    }
    axis: 2
  }
}
layer {
  name: "lstm1_gate_input_13"
  type: "Eltwise"
  bottom: "W_hc_h_12"
  bottom: "W_xc_x_13"
  top: "gate_input_13"
  eltwise_param {
    operation: SUM
  }
}
layer {
  name: "lstm1_unit_13"
  type: "LSTMUnit"
  bottom: "c_12"
  bottom: "gate_input_13"
  bottom: "cont_13"
  top: "c_13"
  top: "h_13"
}
layer {
  name: "lstm1_h_conted_13"
  type: "Scalar"
  bottom: "h_13"
  bottom: "cont_14"
  top: "h_conted_13"
  scalar_param {
    axis: 0
  }
}
layer {
  name: "lstm1_transform_14"
  type: "InnerProduct"
  bottom: "h_conted_13"
  top: "W_hc_h_13"
  param {
    name: "W_hc"
  }
  inner_product_param {
    num_output: 4000
    bias_term: false
    weight_filler {
      type: "uniform"
      min: -0.08
      max: 0.08
    }
    axis: 2
  }
}
layer {
  name: "lstm1_gate_input_14"
  type: "Eltwise"
  bottom: "W_hc_h_13"
  bottom: "W_xc_x_14"
  top: "gate_input_14"
  eltwise_param {
    operation: SUM
  }
}
layer {
  name: "lstm1_unit_14"
  type: "LSTMUnit"
  bottom: "c_13"
  bottom: "gate_input_14"
  bottom: "cont_14"
  top: "c_14"
  top: "h_14"
}
layer {
  name: "lstm1_h_conted_14"
  type: "Scalar"
  bottom: "h_14"
  bottom: "cont_15"
  top: "h_conted_14"
  scalar_param {
    axis: 0
  }
}
layer {
  name: "lstm1_transform_15"
  type: "InnerProduct"
  bottom: "h_conted_14"
  top: "W_hc_h_14"
  param {
    name: "W_hc"
  }
  inner_product_param {
    num_output: 4000
    bias_term: false
    weight_filler {
      type: "uniform"
      min: -0.08
      max: 0.08
    }
    axis: 2
  }
}
layer {
  name: "lstm1_gate_input_15"
  type: "Eltwise"
  bottom: "W_hc_h_14"
  bottom: "W_xc_x_15"
  top: "gate_input_15"
  eltwise_param {
    operation: SUM
  }
}
layer {
  name: "lstm1_unit_15"
  type: "LSTMUnit"
  bottom: "c_14"
  bottom: "gate_input_15"
  bottom: "cont_15"
  top: "c_15"
  top: "h_15"
}
layer {
  name: "lstm1_h_conted_15"
  type: "Scalar"
  bottom: "h_15"
  bottom: "cont_16"
  top: "h_conted_15"
  scalar_param {
    axis: 0
  }
}
layer {
  name: "lstm1_transform_16"
  type: "InnerProduct"
  bottom: "h_conted_15"
  top: "W_hc_h_15"
  param {
    name: "W_hc"
  }
  inner_product_param {
    num_output: 4000
    bias_term: false
    weight_filler {
      type: "uniform"
      min: -0.08
      max: 0.08
    }
    axis: 2
  }
}
layer {
  name: "lstm1_gate_input_16"
  type: "Eltwise"
  bottom: "W_hc_h_15"
  bottom: "W_xc_x_16"
  top: "gate_input_16"
  eltwise_param {
    operation: SUM
  }
}
layer {
  name: "lstm1_unit_16"
  type: "LSTMUnit"
  bottom: "c_15"
  bottom: "gate_input_16"
  bottom: "cont_16"
  top: "c_16"
  top: "h_16"
}
layer {
  name: "lstm1_h_conted_16"
  type: "Scalar"
  bottom: "h_16"
  bottom: "cont_17"
  top: "h_conted_16"
  scalar_param {
    axis: 0
  }
}
layer {
  name: "lstm1_transform_17"
  type: "InnerProduct"
  bottom: "h_conted_16"
  top: "W_hc_h_16"
  param {
    name: "W_hc"
  }
  inner_product_param {
    num_output: 4000
    bias_term: false
    weight_filler {
      type: "uniform"
      min: -0.08
      max: 0.08
    }
    axis: 2
  }
}
layer {
  name: "lstm1_gate_input_17"
  type: "Eltwise"
  bottom: "W_hc_h_16"
  bottom: "W_xc_x_17"
  top: "gate_input_17"
  eltwise_param {
    operation: SUM
  }
}
layer {
  name: "lstm1_unit_17"
  type: "LSTMUnit"
  bottom: "c_16"
  bottom: "gate_input_17"
  bottom: "cont_17"
  top: "c_17"
  top: "h_17"
}
layer {
  name: "lstm1_h_conted_17"
  type: "Scalar"
  bottom: "h_17"
  bottom: "cont_18"
  top: "h_conted_17"
  scalar_param {
    axis: 0
  }
}
layer {
  name: "lstm1_transform_18"
  type: "InnerProduct"
  bottom: "h_conted_17"
  top: "W_hc_h_17"
  param {
    name: "W_hc"
  }
  inner_product_param {
    num_output: 4000
    bias_term: false
    weight_filler {
      type: "uniform"
      min: -0.08
      max: 0.08
    }
    axis: 2
  }
}
layer {
  name: "lstm1_gate_input_18"
  type: "Eltwise"
  bottom: "W_hc_h_17"
  bottom: "W_xc_x_18"
  top: "gate_input_18"
  eltwise_param {
    operation: SUM
  }
}
layer {
  name: "lstm1_unit_18"
  type: "LSTMUnit"
  bottom: "c_17"
  bottom: "gate_input_18"
  bottom: "cont_18"
  top: "c_18"
  top: "h_18"
}
layer {
  name: "lstm1_h_conted_18"
  type: "Scalar"
  bottom: "h_18"
  bottom: "cont_19"
  top: "h_conted_18"
  scalar_param {
    axis: 0
  }
}
layer {
  name: "lstm1_transform_19"
  type: "InnerProduct"
  bottom: "h_conted_18"
  top: "W_hc_h_18"
  param {
    name: "W_hc"
  }
  inner_product_param {
    num_output: 4000
    bias_term: false
    weight_filler {
      type: "uniform"
      min: -0.08
      max: 0.08
    }
    axis: 2
  }
}
layer {
  name: "lstm1_gate_input_19"
  type: "Eltwise"
  bottom: "W_hc_h_18"
  bottom: "W_xc_x_19"
  top: "gate_input_19"
  eltwise_param {
    operation: SUM
  }
}
layer {
  name: "lstm1_unit_19"
  type: "LSTMUnit"
  bottom: "c_18"
  bottom: "gate_input_19"
  bottom: "cont_19"
  top: "c_19"
  top: "h_19"
}
layer {
  name: "lstm1_h_conted_19"
  type: "Scalar"
  bottom: "h_19"
  bottom: "cont_20"
  top: "h_conted_19"
  scalar_param {
    axis: 0
  }
}
layer {
  name: "lstm1_transform_20"
  type: "InnerProduct"
  bottom: "h_conted_19"
  top: "W_hc_h_19"
  param {
    name: "W_hc"
  }
  inner_product_param {
    num_output: 4000
    bias_term: false
    weight_filler {
      type: "uniform"
      min: -0.08
      max: 0.08
    }
    axis: 2
  }
}
layer {
  name: "lstm1_gate_input_20"
  type: "Eltwise"
  bottom: "W_hc_h_19"
  bottom: "W_xc_x_20"
  top: "gate_input_20"
  eltwise_param {
    operation: SUM
  }
}
layer {
  name: "lstm1_unit_20"
  type: "LSTMUnit"
  bottom: "c_19"
  bottom: "gate_input_20"
  bottom: "cont_20"
  top: "c_20"
  top: "h_20"
}
layer {
  name: "lstm1_h_conted_20"
  type: "Scalar"
  bottom: "h_20"
  bottom: "cont_21"
  top: "h_conted_20"
  scalar_param {
    axis: 0
  }
}
layer {
  name: "lstm1_transform_21"
  type: "InnerProduct"
  bottom: "h_conted_20"
  top: "W_hc_h_20"
  param {
    name: "W_hc"
  }
  inner_product_param {
    num_output: 4000
    bias_term: false
    weight_filler {
      type: "uniform"
      min: -0.08
      max: 0.08
    }
    axis: 2
  }
}
layer {
  name: "lstm1_gate_input_21"
  type: "Eltwise"
  bottom: "W_hc_h_20"
  bottom: "W_xc_x_21"
  top: "gate_input_21"
  eltwise_param {
    operation: SUM
  }
}
layer {
  name: "lstm1_unit_21"
  type: "LSTMUnit"
  bottom: "c_20"
  bottom: "gate_input_21"
  bottom: "cont_21"
  top: "c_21"
  top: "h_21"
}
layer {
  name: "lstm1_h_conted_21"
  type: "Scalar"
  bottom: "h_21"
  bottom: "cont_22"
  top: "h_conted_21"
  scalar_param {
    axis: 0
  }
}
layer {
  name: "lstm1_transform_22"
  type: "InnerProduct"
  bottom: "h_conted_21"
  top: "W_hc_h_21"
  param {
    name: "W_hc"
  }
  inner_product_param {
    num_output: 4000
    bias_term: false
    weight_filler {
      type: "uniform"
      min: -0.08
      max: 0.08
    }
    axis: 2
  }
}
layer {
  name: "lstm1_gate_input_22"
  type: "Eltwise"
  bottom: "W_hc_h_21"
  bottom: "W_xc_x_22"
  top: "gate_input_22"
  eltwise_param {
    operation: SUM
  }
}
layer {
  name: "lstm1_unit_22"
  type: "LSTMUnit"
  bottom: "c_21"
  bottom: "gate_input_22"
  bottom: "cont_22"
  top: "c_22"
  top: "h_22"
}
layer {
  name: "lstm1_h_conted_22"
  type: "Scalar"
  bottom: "h_22"
  bottom: "cont_23"
  top: "h_conted_22"
  scalar_param {
    axis: 0
  }
}
layer {
  name: "lstm1_transform_23"
  type: "InnerProduct"
  bottom: "h_conted_22"
  top: "W_hc_h_22"
  param {
    name: "W_hc"
  }
  inner_product_param {
    num_output: 4000
    bias_term: false
    weight_filler {
      type: "uniform"
      min: -0.08
      max: 0.08
    }
    axis: 2
  }
}
layer {
  name: "lstm1_gate_input_23"
  type: "Eltwise"
  bottom: "W_hc_h_22"
  bottom: "W_xc_x_23"
  top: "gate_input_23"
  eltwise_param {
    operation: SUM
  }
}
layer {
  name: "lstm1_unit_23"
  type: "LSTMUnit"
  bottom: "c_22"
  bottom: "gate_input_23"
  bottom: "cont_23"
  top: "c_23"
  top: "h_23"
}
layer {
  name: "lstm1_h_conted_23"
  type: "Scalar"
  bottom: "h_23"
  bottom: "cont_24"
  top: "h_conted_23"
  scalar_param {
    axis: 0
  }
}
layer {
  name: "lstm1_transform_24"
  type: "InnerProduct"
  bottom: "h_conted_23"
  top: "W_hc_h_23"
  param {
    name: "W_hc"
  }
  inner_product_param {
    num_output: 4000
    bias_term: false
    weight_filler {
      type: "uniform"
      min: -0.08
      max: 0.08
    }
    axis: 2
  }
}
layer {
  name: "lstm1_gate_input_24"
  type: "Eltwise"
  bottom: "W_hc_h_23"
  bottom: "W_xc_x_24"
  top: "gate_input_24"
  eltwise_param {
    operation: SUM
  }
}
layer {
  name: "lstm1_unit_24"
  type: "LSTMUnit"
  bottom: "c_23"
  bottom: "gate_input_24"
  bottom: "cont_24"
  top: "c_24"
  top: "h_24"
}
layer {
  name: "lstm1_h_conted_24"
  type: "Scalar"
  bottom: "h_24"
  bottom: "cont_25"
  top: "h_conted_24"
  scalar_param {
    axis: 0
  }
}
layer {
  name: "lstm1_transform_25"
  type: "InnerProduct"
  bottom: "h_conted_24"
  top: "W_hc_h_24"
  param {
    name: "W_hc"
  }
  inner_product_param {
    num_output: 4000
    bias_term: false
    weight_filler {
      type: "uniform"
      min: -0.08
      max: 0.08
    }
    axis: 2
  }
}
layer {
  name: "lstm1_gate_input_25"
  type: "Eltwise"
  bottom: "W_hc_h_24"
  bottom: "W_xc_x_25"
  top: "gate_input_25"
  eltwise_param {
    operation: SUM
  }
}
layer {
  name: "lstm1_unit_25"
  type: "LSTMUnit"
  bottom: "c_24"
  bottom: "gate_input_25"
  bottom: "cont_25"
  top: "c_25"
  top: "h_25"
}
layer {
  name: "lstm1_h_conted_25"
  type: "Scalar"
  bottom: "h_25"
  bottom: "cont_26"
  top: "h_conted_25"
  scalar_param {
    axis: 0
  }
}
layer {
  name: "lstm1_transform_26"
  type: "InnerProduct"
  bottom: "h_conted_25"
  top: "W_hc_h_25"
  param {
    name: "W_hc"
  }
  inner_product_param {
    num_output: 4000
    bias_term: false
    weight_filler {
      type: "uniform"
      min: -0.08
      max: 0.08
    }
    axis: 2
  }
}
layer {
  name: "lstm1_gate_input_26"
  type: "Eltwise"
  bottom: "W_hc_h_25"
  bottom: "W_xc_x_26"
  top: "gate_input_26"
  eltwise_param {
    operation: SUM
  }
}
layer {
  name: "lstm1_unit_26"
  type: "LSTMUnit"
  bottom: "c_25"
  bottom: "gate_input_26"
  bottom: "cont_26"
  top: "c_26"
  top: "h_26"
}
layer {
  name: "lstm1_h_conted_26"
  type: "Scalar"
  bottom: "h_26"
  bottom: "cont_27"
  top: "h_conted_26"
  scalar_param {
    axis: 0
  }
}
layer {
  name: "lstm1_transform_27"
  type: "InnerProduct"
  bottom: "h_conted_26"
  top: "W_hc_h_26"
  param {
    name: "W_hc"
  }
  inner_product_param {
    num_output: 4000
    bias_term: false
    weight_filler {
      type: "uniform"
      min: -0.08
      max: 0.08
    }
    axis: 2
  }
}
layer {
  name: "lstm1_gate_input_27"
  type: "Eltwise"
  bottom: "W_hc_h_26"
  bottom: "W_xc_x_27"
  top: "gate_input_27"
  eltwise_param {
    operation: SUM
  }
}
layer {
  name: "lstm1_unit_27"
  type: "LSTMUnit"
  bottom: "c_26"
  bottom: "gate_input_27"
  bottom: "cont_27"
  top: "c_27"
  top: "h_27"
}
layer {
  name: "lstm1_h_conted_27"
  type: "Scalar"
  bottom: "h_27"
  bottom: "cont_28"
  top: "h_conted_27"
  scalar_param {
    axis: 0
  }
}
layer {
  name: "lstm1_transform_28"
  type: "InnerProduct"
  bottom: "h_conted_27"
  top: "W_hc_h_27"
  param {
    name: "W_hc"
  }
  inner_product_param {
    num_output: 4000
    bias_term: false
    weight_filler {
      type: "uniform"
      min: -0.08
      max: 0.08
    }
    axis: 2
  }
}
layer {
  name: "lstm1_gate_input_28"
  type: "Eltwise"
  bottom: "W_hc_h_27"
  bottom: "W_xc_x_28"
  top: "gate_input_28"
  eltwise_param {
    operation: SUM
  }
}
layer {
  name: "lstm1_unit_28"
  type: "LSTMUnit"
  bottom: "c_27"
  bottom: "gate_input_28"
  bottom: "cont_28"
  top: "c_28"
  top: "h_28"
}
layer {
  name: "lstm1_h_conted_28"
  type: "Scalar"
  bottom: "h_28"
  bottom: "cont_29"
  top: "h_conted_28"
  scalar_param {
    axis: 0
  }
}
layer {
  name: "lstm1_transform_29"
  type: "InnerProduct"
  bottom: "h_conted_28"
  top: "W_hc_h_28"
  param {
    name: "W_hc"
  }
  inner_product_param {
    num_output: 4000
    bias_term: false
    weight_filler {
      type: "uniform"
      min: -0.08
      max: 0.08
    }
    axis: 2
  }
}
layer {
  name: "lstm1_gate_input_29"
  type: "Eltwise"
  bottom: "W_hc_h_28"
  bottom: "W_xc_x_29"
  top: "gate_input_29"
  eltwise_param {
    operation: SUM
  }
}
layer {
  name: "lstm1_unit_29"
  type: "LSTMUnit"
  bottom: "c_28"
  bottom: "gate_input_29"
  bottom: "cont_29"
  top: "c_29"
  top: "h_29"
}
layer {
  name: "lstm1_h_conted_29"
  type: "Scalar"
  bottom: "h_29"
  bottom: "cont_30"
  top: "h_conted_29"
  scalar_param {
    axis: 0
  }
}
layer {
  name: "lstm1_transform_30"
  type: "InnerProduct"
  bottom: "h_conted_29"
  top: "W_hc_h_29"
  param {
    name: "W_hc"
  }
  inner_product_param {
    num_output: 4000
    bias_term: false
    weight_filler {
      type: "uniform"
      min: -0.08
      max: 0.08
    }
    axis: 2
  }
}
layer {
  name: "lstm1_gate_input_30"
  type: "Eltwise"
  bottom: "W_hc_h_29"
  bottom: "W_xc_x_30"
  top: "gate_input_30"
  eltwise_param {
    operation: SUM
  }
}
layer {
  name: "lstm1_unit_30"
  type: "LSTMUnit"
  bottom: "c_29"
  bottom: "gate_input_30"
  bottom: "cont_30"
  top: "c_30"
  top: "h_30"
}
layer {
  name: "lstm1_h_conted_30"
  type: "Scalar"
  bottom: "h_30"
  bottom: "cont_31"
  top: "h_conted_30"
  scalar_param {
    axis: 0
  }
}
layer {
  name: "lstm1_transform_31"
  type: "InnerProduct"
  bottom: "h_conted_30"
  top: "W_hc_h_30"
  param {
    name: "W_hc"
  }
  inner_product_param {
    num_output: 4000
    bias_term: false
    weight_filler {
      type: "uniform"
      min: -0.08
      max: 0.08
    }
    axis: 2
  }
}
layer {
  name: "lstm1_gate_input_31"
  type: "Eltwise"
  bottom: "W_hc_h_30"
  bottom: "W_xc_x_31"
  top: "gate_input_31"
  eltwise_param {
    operation: SUM
  }
}
layer {
  name: "lstm1_unit_31"
  type: "LSTMUnit"
  bottom: "c_30"
  bottom: "gate_input_31"
  bottom: "cont_31"
  top: "c_31"
  top: "h_31"
}
layer {
  name: "lstm1_h_conted_31"
  type: "Scalar"
  bottom: "h_31"
  bottom: "cont_32"
  top: "h_conted_31"
  scalar_param {
    axis: 0
  }
}
layer {
  name: "lstm1_transform_32"
  type: "InnerProduct"
  bottom: "h_conted_31"
  top: "W_hc_h_31"
  param {
    name: "W_hc"
  }
  inner_product_param {
    num_output: 4000
    bias_term: false
    weight_filler {
      type: "uniform"
      min: -0.08
      max: 0.08
    }
    axis: 2
  }
}
layer {
  name: "lstm1_gate_input_32"
  type: "Eltwise"
  bottom: "W_hc_h_31"
  bottom: "W_xc_x_32"
  top: "gate_input_32"
  eltwise_param {
    operation: SUM
  }
}
layer {
  name: "lstm1_unit_32"
  type: "LSTMUnit"
  bottom: "c_31"
  bottom: "gate_input_32"
  bottom: "cont_32"
  top: "c_32"
  top: "h_32"
}
layer {
  name: "lstm1_h_conted_32"
  type: "Scalar"
  bottom: "h_32"
  bottom: "cont_33"
  top: "h_conted_32"
  scalar_param {
    axis: 0
  }
}
layer {
  name: "lstm1_transform_33"
  type: "InnerProduct"
  bottom: "h_conted_32"
  top: "W_hc_h_32"
  param {
    name: "W_hc"
  }
  inner_product_param {
    num_output: 4000
    bias_term: false
    weight_filler {
      type: "uniform"
      min: -0.08
      max: 0.08
    }
    axis: 2
  }
}
layer {
  name: "lstm1_gate_input_33"
  type: "Eltwise"
  bottom: "W_hc_h_32"
  bottom: "W_xc_x_33"
  top: "gate_input_33"
  eltwise_param {
    operation: SUM
  }
}
layer {
  name: "lstm1_unit_33"
  type: "LSTMUnit"
  bottom: "c_32"
  bottom: "gate_input_33"
  bottom: "cont_33"
  top: "c_33"
  top: "h_33"
}
layer {
  name: "lstm1_h_conted_33"
  type: "Scalar"
  bottom: "h_33"
  bottom: "cont_34"
  top: "h_conted_33"
  scalar_param {
    axis: 0
  }
}
layer {
  name: "lstm1_transform_34"
  type: "InnerProduct"
  bottom: "h_conted_33"
  top: "W_hc_h_33"
  param {
    name: "W_hc"
  }
  inner_product_param {
    num_output: 4000
    bias_term: false
    weight_filler {
      type: "uniform"
      min: -0.08
      max: 0.08
    }
    axis: 2
  }
}
layer {
  name: "lstm1_gate_input_34"
  type: "Eltwise"
  bottom: "W_hc_h_33"
  bottom: "W_xc_x_34"
  top: "gate_input_34"
  eltwise_param {
    operation: SUM
  }
}
layer {
  name: "lstm1_unit_34"
  type: "LSTMUnit"
  bottom: "c_33"
  bottom: "gate_input_34"
  bottom: "cont_34"
  top: "c_34"
  top: "h_34"
}
layer {
  name: "lstm1_h_conted_34"
  type: "Scalar"
  bottom: "h_34"
  bottom: "cont_35"
  top: "h_conted_34"
  scalar_param {
    axis: 0
  }
}
layer {
  name: "lstm1_transform_35"
  type: "InnerProduct"
  bottom: "h_conted_34"
  top: "W_hc_h_34"
  param {
    name: "W_hc"
  }
  inner_product_param {
    num_output: 4000
    bias_term: false
    weight_filler {
      type: "uniform"
      min: -0.08
      max: 0.08
    }
    axis: 2
  }
}
layer {
  name: "lstm1_gate_input_35"
  type: "Eltwise"
  bottom: "W_hc_h_34"
  bottom: "W_xc_x_35"
  top: "gate_input_35"
  eltwise_param {
    operation: SUM
  }
}
layer {
  name: "lstm1_unit_35"
  type: "LSTMUnit"
  bottom: "c_34"
  bottom: "gate_input_35"
  bottom: "co
I0801 15:07:35.203508  3326 net.cpp:435] Input 0 -> x
I0801 15:07:35.203531  3326 net.cpp:435] Input 1 -> cont
I0801 15:07:35.203554  3326 net.cpp:435] Input 2 -> c_0
I0801 15:07:35.203565  3326 net.cpp:435] Input 3 -> h_0
I0801 15:07:35.203624  3326 layer_factory.hpp:76] Creating layer lstm1_cont_slice
I0801 15:07:35.203647  3326 net.cpp:110] Creating Layer lstm1_cont_slice
I0801 15:07:35.203655  3326 net.cpp:477] lstm1_cont_slice <- cont
…
I0801 15:07:35.205135  3326 net.cpp:433] lstm1_cont_slice -> cont_73
I0801 15:07:35.205153  3326 net.cpp:433] lstm1_cont_slice -> cont_74
I0801 15:07:35.205171  3326 net.cpp:433] lstm1_cont_slice -> cont_75
I0801 15:07:35.205189  3326 net.cpp:433] lstm1_cont_slice -> cont_76
I0801 15:07:35.205207  3326 net.cpp:433] lstm1_cont_slice -> cont_77
I0801 15:07:35.205226  3326 net.cpp:433] lstm1_cont_slice -> cont_78
I0801 15:07:35.205243  3326 net.cpp:433] lstm1_cont_slice -> cont_79
I0801 15:07:35.205262  3326 net.cpp:433] lstm1_cont_slice -> cont_80
I0801 15:07:35.205312  3326 net.cpp:155] Setting up lstm1_cont_slice
I0801 15:07:35.205335  3326 net.cpp:163] Top shape: 1 32 (32)
I0801 15:07:35.205344  3326 net.cpp:163] Top shape: 1 32 (32)
I0801 15:07:35.205351  3326 net.cpp:163] Top shape: 1 32 (32)
I0801 15:07:35.205358  3326 net.cpp:163] Top shape: 1 32 (32)
I0801 15:07:35.205365  3326 net.cpp:163] Top shape: 1 32 (32)
I0801 15:07:35.205373  3326 net.cpp:163] Top shape: 1 32 (32)
I0801 15:07:35.205380  3326 net.cpp:163] Top shape: 1 32 (32)
I0801 15:07:35.205387  3326 net.cpp:163] Top shape: 1 32 (32)
I0801 15:07:35.205399  3326 net.cpp:163] Top shape: 1 32 (32)
I0801 15:07:35.205417  3326 net.cpp:163] Top shape: 1 32 (32)
I0801 15:07:35.205425  3326 net.cpp:163] Top shape: 1 32 (32)
I0801 15:07:35.205431  3326 net.cpp:163] Top shape: 1 32 (32)
I0801 15:07:35.205438  3326 net.cpp:163] Top shape: 1 32 (32)
I0801 15:07:35.205446  3326 net.cpp:163] Top shape: 1 32 (32)
I0801 15:07:35.205452  3326 net.cpp:163] Top shape: 1 32 (32)
I0801 15:07:35.205459  3326 net.cpp:163] Top shape: 1 32 (32)
I0801 15:07:35.205466  3326 net.cpp:163] Top shape: 1 32 (32)
I0801 15:07:35.205473  3326 net.cpp:163] Top shape: 1 32 (32)
I0801 15:07:35.205481  3326 net.cpp:163] Top shape: 1 32 (32)
I0801 15:07:35.205487  3326 net.cpp:163] Top shape: 1 32 (32)
I0801 15:07:35.205494  3326 net.cpp:163] Top shape: 1 32 (32)
I0801 15:07:35.205502  3326 net.cpp:163] Top shape: 1 32 (32)
I0801 15:07:35.205508  3326 net.cpp:163] Top shape: 1 32 (32)
I0801 15:07:35.205515  3326 net.cpp:163] Top shape: 1 32 (32)
I0801 15:07:35.205523  3326 net.cpp:163] Top shape: 1 32 (32)
I0801 15:07:35.205529  3326 net.cpp:163] Top shape: 1 32 (32)
I0801 15:07:35.205536  3326 net.cpp:163] Top shape: 1 32 (32)
I0801 15:07:35.205543  3326 net.cpp:163] Top shape: 1 32 (32)
I0801 15:07:35.205550  3326 net.cpp:163] Top shape: 1 32 (32)
I0801 15:07:35.205557  3326 net.cpp:163] Top shape: 1 32 (32)
I0801 15:07:35.205564  3326 net.cpp:163] Top shape: 1 32 (32)
I0801 15:07:35.205571  3326 net.cpp:163] Top shape: 1 32 (32)
I0801 15:07:35.205579  3326 net.cpp:163] Top shape: 1 32 (32)
I0801 15:07:35.205585  3326 net.cpp:163] Top shape: 1 32 (32)
I0801 15:07:35.205592  3326 net.cpp:163] Top shape: 1 32 (32)
I0801 15:07:35.205600  3326 net.cpp:163] Top shape: 1 32 (32)
I0801 15:07:35.205606  3326 net.cpp:163] Top shape: 1 32 (32)
I0801 15:07:35.205613  3326 net.cpp:163] Top shape: 1 32 (32)
I0801 15:07:35.205621  3326 net.cpp:163] Top shape: 1 32 (32)
I0801 15:07:35.205627  3326 net.cpp:163] Top shape: 1 32 (32)
I0801 15:07:35.205633  3326 net.cpp:163] Top shape: 1 32 (32)
I0801 15:07:35.205641  3326 net.cpp:163] Top shape: 1 32 (32)
I0801 15:07:35.205647  3326 net.cpp:163] Top shape: 1 32 (32)
I0801 15:07:35.205668  3326 net.cpp:163] Top shape: 1 32 (32)
I0801 15:07:35.205674  3326 net.cpp:163] Top shape: 1 32 (32)
I0801 15:07:35.205682  3326 net.cpp:163] Top shape: 1 32 (32)
I0801 15:07:35.205687  3326 net.cpp:163] Top shape: 1 32 (32)
I0801 15:07:35.205694  3326 net.cpp:163] Top shape: 1 32 (32)
I0801 15:07:35.205701  3326 net.cpp:163] Top shape: 1 32 (32)
I0801 15:07:35.205708  3326 net.cpp:163] Top shape: 1 32 (32)
I0801 15:07:35.205726  3326 net.cpp:163] Top shape: 1 32 (32)
I0801 15:07:35.205734  3326 net.cpp:163] Top shape: 1 32 (32)
I0801 15:07:35.205740  3326 net.cpp:163] Top shape: 1 32 (32)
I0801 15:07:35.205747  3326 net.cpp:163] Top shape: 1 32 (32)
I0801 15:07:35.205754  3326 net.cpp:163] Top shape: 1 32 (32)
I0801 15:07:35.205760  3326 net.cpp:163] Top shape: 1 32 (32)
I0801 15:07:35.205767  3326 net.cpp:163] Top shape: 1 32 (32)
I0801 15:07:35.205773  3326 net.cpp:163] Top shape: 1 32 (32)
I0801 15:07:35.205780  3326 net.cpp:163] Top shape: 1 32 (32)
I0801 15:07:35.205787  3326 net.cpp:163] Top shape: 1 32 (32)
I0801 15:07:35.205795  3326 net.cpp:163] Top shape: 1 32 (32)
I0801 15:07:35.205801  3326 net.cpp:163] Top shape: 1 32 (32)
I0801 15:07:35.205807  3326 net.cpp:163] Top shape: 1 32 (32)
I0801 15:07:35.205814  3326 net.cpp:163] Top shape: 1 32 (32)
I0801 15:07:35.205821  3326 net.cpp:163] Top shape: 1 32 (32)
I0801 15:07:35.205827  3326 net.cpp:163] Top shape: 1 32 (32)
I0801 15:07:35.205834  3326 net.cpp:163] Top shape: 1 32 (32)
I0801 15:07:35.205842  3326 net.cpp:163] Top shape: 1 32 (32)
I0801 15:07:35.205848  3326 net.cpp:163] Top shape: 1 32 (32)
I0801 15:07:35.205854  3326 net.cpp:163] Top shape: 1 32 (32)
I0801 15:07:35.205862  3326 net.cpp:163] Top shape: 1 32 (32)
I0801 15:07:35.205868  3326 net.cpp:163] Top shape: 1 32 (32)
I0801 15:07:35.205875  3326 net.cpp:163] Top shape: 1 32 (32)
I0801 15:07:35.205881  3326 net.cpp:163] Top shape: 1 32 (32)
I0801 15:07:35.205891  3326 net.cpp:163] Top shape: 1 32 (32)
I0801 15:07:35.205909  3326 net.cpp:163] Top shape: 1 32 (32)
I0801 15:07:35.205916  3326 net.cpp:163] Top shape: 1 32 (32)
I0801 15:07:35.205924  3326 net.cpp:163] Top shape: 1 32 (32)
I0801 15:07:35.205930  3326 net.cpp:163] Top shape: 1 32 (32)
I0801 15:07:35.205937  3326 net.cpp:163] Top shape: 1 32 (32)
I0801 15:07:35.205945  3326 layer_factory.hpp:76] Creating layer cont_1_lstm1_cont_slice_0_split
I0801 15:07:35.205955  3326 net.cpp:110] Creating Layer cont_1_lstm1_cont_slice_0_split
I0801 15:07:35.205962  3326 net.cpp:477] cont_1_lstm1_cont_slice_0_split <- cont_1
I0801 15:07:35.205971  3326 net.cpp:433] cont_1_lstm1_cont_slice_0_split -> cont_1_lstm1_cont_slice_0_split_0
I0801 15:07:35.205982  3326 net.cpp:433] cont_1_lstm1_cont_slice_0_split -> cont_1_lstm1_cont_slice_0_split_1
I0801 15:07:35.205994  3326 net.cpp:155] Setting up cont_1_lstm1_cont_slice_0_split
I0801 15:07:35.206002  3326 net.cpp:163] Top shape: 1 32 (32)
I0801 15:07:35.206009  3326 net.cpp:163] Top shape: 1 32 (32)
I0801 15:07:35.206015  3326 layer_factory.hpp:76] Creating layer cont_2_lstm1_cont_slice_1_split
I0801 15:07:35.206037  3326 net.cpp:110] Creating Layer cont_2_lstm1_cont_slice_1_split
I0801 15:07:35.206044  3326 net.cpp:477] cont_2_lstm1_cont_slice_1_split <- cont_2
I0801 15:07:35.206053  3326 net.cpp:433] cont_2_lstm1_cont_slice_1_split -> cont_2_lstm1_cont_slice_1_split_0
I0801 15:07:35.206063  3326 net.cpp:433] cont_2_lstm1_cont_slice_1_split -> cont_2_lstm1_cont_slice_1_split_1
I0801 15:07:35.206073  3326 net.cpp:155] Setting up cont_2_lstm1_cont_slice_1_split
I0801 15:07:35.206080  3326 net.cpp:163] Top shape: 1 32 (32)
I0801 15:07:35.206087  3326 net.cpp:163] Top shape: 1 32 (32)
I0801 15:07:35.206094  3326 layer_factory.hpp:76] Creating layer cont_3_lstm1_cont_slice_2_split
I0801 15:07:35.206100  3326 net.cpp:110] Creating Layer cont_3_lstm1_cont_slice_2_split
I0801 15:07:35.206106  3326 net.cpp:477] cont_3_lstm1_cont_slice_2_split <- cont_3
I0801 15:07:35.206115  3326 net.cpp:433] cont_3_lstm1_cont_slice_2_split -> cont_3_lstm1_cont_slice_2_split_0
I0801 15:07:35.206125  3326 net.cpp:433] cont_3_lstm1_cont_slice_2_split -> cont_3_lstm1_cont_slice_2_split_1
I0801 15:07:35.206135  3326 net.cpp:155] Setting up cont_3_lstm1_cont_slice_2_split
I0801 15:07:35.206142  3326 net.cpp:163] Top shape: 1 32 (32)
I0801 15:07:35.206148  3326 net.cpp:163] Top shape: 1 32 (32)
I0801 15:07:35.206154  3326 layer_factory.hpp:76] Creating layer cont_4_lstm1_cont_slice_3_split
I0801 15:07:35.206162  3326 net.cpp:110] Creating Layer cont_4_lstm1_cont_slice_3_split
I0801 15:07:35.206168  3326 net.cpp:477] cont_4_lstm1_cont_slice_3_split <- cont_4
I0801 15:07:35.206176  3326 net.cpp:433] cont_4_lstm1_cont_slice_3_split -> cont_4_lstm1_cont_slice_3_split_0
I0801 15:07:35.206187  3326 net.cpp:433] cont_4_lstm1_cont_slice_3_split -> cont_4_lstm1_cont_slice_3_split_1
I0801 15:07:35.206195  3326 net.cpp:155] Setting up cont_4_lstm1_cont_slice_3_split
I0801 15:07:35.206203  3326 net.cpp:163] Top shape: 1 32 (32)
I0801 15:07:35.206210  3326 net.cpp:163] Top shape: 1 32 (32)
I0801 15:07:35.206215  3326 layer_factory.hpp:76] Creating layer cont_5_lstm1_cont_slice_4_split
I0801 15:07:35.206223  3326 net.cpp:110] Creating Layer cont_5_lstm1_cont_slice_4_split
I0801 15:07:35.206229  3326 net.cpp:477] cont_5_lstm1_cont_slice_4_split <- cont_5
I0801 15:07:35.206238  3326 net.cpp:433] cont_5_lstm1_cont_slice_4_split -> cont_5_lstm1_cont_slice_4_split_0
I0801 15:07:35.206248  3326 net.cpp:433] cont_5_lstm1_cont_slice_4_split -> cont_5_lstm1_cont_slice_4_split_1
I0801 15:07:35.206257  3326 net.cpp:155] Setting up cont_5_lstm1_cont_slice_4_split
I0801 15:07:35.206264  3326 net.cpp:163] Top shape: 1 32 (32)
I0801 15:07:35.206271  3326 net.cpp:163] Top shape: 1 32 (32)
I0801 15:07:35.206277  3326 layer_factory.hpp:76] Creating layer cont_6_lstm1_cont_slice_5_split
I0801 15:07:35.206284  3326 net.cpp:110] Creating Layer cont_6_lstm1_cont_slice_5_split
I0801 15:07:35.206290  3326 net.cpp:477] cont_6_lstm1_cont_slice_5_split <- cont_6
I0801 15:07:35.206310  3326 net.cpp:433] cont_6_lstm1_cont_slice_5_split -> cont_6_lstm1_cont_slice_5_split_0
I0801 15:07:35.206321  3326 net.cpp:433] cont_6_lstm1_cont_slice_5_split -> cont_6_lstm1_cont_slice_5_split_1
I0801 15:07:35.206331  3326 net.cpp:155] Setting up cont_6_lstm1_cont_slice_5_split
I0801 15:07:35.206339  3326 net.cpp:163] Top shape: 1 32 (32)
I0801 15:07:35.206346  3326 net.cpp:163] Top shape: 1 32 (32)
I0801 15:07:35.206351  3326 layer_factory.hpp:76] Creating layer cont_7_lstm1_cont_slice_6_split
I0801 15:07:35.206359  3326 net.cpp:110] Creating Layer cont_7_lstm1_cont_slice_6_split
I0801 15:07:35.206365  3326 net.cpp:477] cont_7_lstm1_cont_slice_6_split <- cont_7
I0801 15:07:35.206373  3326 net.cpp:433] cont_7_lstm1_cont_slice_6_split -> cont_7_lstm1_cont_slice_6_split_0
I0801 15:07:35.206382  3326 net.cpp:433] cont_7_lstm1_cont_slice_6_split -> cont_7_lstm1_cont_slice_6_split_1
I0801 15:07:35.206393  3326 net.cpp:155] Setting up cont_7_lstm1_cont_slice_6_split
I0801 15:07:35.206400  3326 net.cpp:163] Top shape: 1 32 (32)
I0801 15:07:35.206420  3326 net.cpp:163] Top shape: 1 32 (32)
I0801 15:07:35.206426  3326 layer_factory.hpp:76] Creating layer cont_8_lstm1_cont_slice_7_split
I0801 15:07:35.206435  3326 net.cpp:110] Creating Layer cont_8_lstm1_cont_slice_7_split
I0801 15:07:35.206441  3326 net.cpp:477] cont_8_lstm1_cont_slice_7_split <- cont_8
I0801 15:07:35.206450  3326 net.cpp:433] cont_8_lstm1_cont_slice_7_split -> cont_8_lstm1_cont_slice_7_split_0
I0801 15:07:35.206460  3326 net.cpp:433] cont_8_lstm1_cont_slice_7_split -> cont_8_lstm1_cont_slice_7_split_1
I0801 15:07:35.206470  3326 net.cpp:155] Setting up cont_8_lstm1_cont_slice_7_split
I0801 15:07:35.206478  3326 net.cpp:163] Top shape: 1 32 (32)
I0801 15:07:35.206485  3326 net.cpp:163] Top shape: 1 32 (32)
I0801 15:07:35.206491  3326 layer_factory.hpp:76] Creating layer cont_9_lstm1_cont_slice_8_split
I0801 15:07:35.206498  3326 net.cpp:110] Creating Layer cont_9_lstm1_cont_slice_8_split
I0801 15:07:35.206506  3326 net.cpp:477] cont_9_lstm1_cont_slice_8_split <- cont_9
I0801 15:07:35.206513  3326 net.cpp:433] cont_9_lstm1_cont_slice_8_split -> cont_9_lstm1_cont_slice_8_split_0
I0801 15:07:35.206523  3326 net.cpp:433] cont_9_lstm1_cont_slice_8_split -> cont_9_lstm1_cont_slice_8_split_1
I0801 15:07:35.206533  3326 net.cpp:155] Setting up cont_9_lstm1_cont_slice_8_split
I0801 15:07:35.206542  3326 net.cpp:163] Top shape: 1 32 (32)
I0801 15:07:35.206548  3326 net.cpp:163] Top shape: 1 32 (32)
I0801 15:07:35.206554  3326 layer_factory.hpp:76] Creating layer cont_10_lstm1_cont_slice_9_split
I0801 15:07:35.206562  3326 net.cpp:110] Creating Layer cont_10_lstm1_cont_slice_9_split
I0801 15:07:35.206568  3326 net.cpp:477] cont_10_lstm1_cont_slice_9_split <- cont_10
I0801 15:07:35.206578  3326 net.cpp:433] cont_10_lstm1_cont_slice_9_split -> cont_10_lstm1_cont_slice_9_split_0
I0801 15:07:35.206588  3326 net.cpp:433] cont_10_lstm1_cont_slice_9_split -> cont_10_lstm1_cont_slice_9_split_1
I0801 15:07:35.206598  3326 net.cpp:155] Setting up cont_10_lstm1_cont_slice_9_split
I0801 15:07:35.206605  3326 net.cpp:163] Top shape: 1 32 (32)
I0801 15:07:35.206612  3326 net.cpp:163] Top shape: 1 32 (32)
I0801 15:07:35.206619  3326 layer_factory.hpp:76] Creating layer cont_11_lstm1_cont_slice_10_split
I0801 15:07:35.206625  3326 net.cpp:110] Creating Layer cont_11_lstm1_cont_slice_10_split
I0801 15:07:35.206632  3326 net.cpp:477] cont_11_lstm1_cont_slice_10_split <- cont_11
I0801 15:07:35.206640  3326 net.cpp:433] cont_11_lstm1_cont_slice_10_split -> cont_11_lstm1_cont_slice_10_split_0
I0801 15:07:35.206651  3326 net.cpp:433] cont_11_lstm1_cont_slice_10_split -> cont_11_lstm1_cont_slice_10_split_1
I0801 15:07:35.206665  3326 net.cpp:155] Setting up cont_11_lstm1_cont_slice_10_split
I0801 15:07:35.206675  3326 net.cpp:163] Top shape: 1 32 (32)
I0801 15:07:35.206681  3326 net.cpp:163] Top shape: 1 32 (32)
I0801 15:07:35.206686  3326 layer_factory.hpp:76] Creating layer cont_12_lstm1_cont_slice_11_split
I0801 15:07:35.206694  3326 net.cpp:110] Creating Layer cont_12_lstm1_cont_slice_11_split
I0801 15:07:35.206722  3326 net.cpp:477] cont_12_lstm1_cont_slice_11_split <- cont_12
I0801 15:07:35.206732  3326 net.cpp:433] cont_12_lstm1_cont_slice_11_split -> cont_12_lstm1_cont_slice_11_split_0
I0801 15:07:35.206763  3326 net.cpp:433] cont_12_lstm1_cont_slice_11_split -> cont_12_lstm1_cont_slice_11_split_1
I0801 15:07:35.206773  3326 net.cpp:155] Setting up cont_12_lstm1_cont_slice_11_split
I0801 15:07:35.206781  3326 net.cpp:163] Top shape: 1 32 (32)
I0801 15:07:35.206789  3326 net.cpp:163] Top shape: 1 32 (32)
I0801 15:07:35.206794  3326 layer_factory.hpp:76] Creating layer cont_13_lstm1_cont_slice_12_split
I0801 15:07:35.206814  3326 net.cpp:110] Creating Layer cont_13_lstm1_cont_slice_12_split
I0801 15:07:35.206820  3326 net.cpp:477] cont_13_lstm1_cont_slice_12_split <- cont_13
I0801 15:07:35.206830  3326 net.cpp:433] cont_13_lstm1_cont_slice_12_split -> cont_13_lstm1_cont_slice_12_split_0
I0801 15:07:35.206838  3326 net.cpp:433] cont_13_lstm1_cont_slice_12_split -> cont_13_lstm1_cont_slice_12_split_1
I0801 15:07:35.206848  3326 net.cpp:155] Setting up cont_13_lstm1_cont_slice_12_split
I0801 15:07:35.206856  3326 net.cpp:163] Top shape: 1 32 (32)
I0801 15:07:35.206863  3326 net.cpp:163] Top shape: 1 32 (32)
I0801 15:07:35.206869  3326 layer_factory.hpp:76] Creating layer cont_14_lstm1_cont_slice_13_split
I0801 15:07:35.206879  3326 net.cpp:110] Creating Layer cont_14_lstm1_cont_slice_13_split
I0801 15:07:35.206887  3326 net.cpp:477] cont_14_lstm1_cont_slice_13_split <- cont_14
I0801 15:07:35.206895  3326 net.cpp:433] cont_14_lstm1_cont_slice_13_split -> cont_14_lstm1_cont_slice_13_split_0
I0801 15:07:35.206907  3326 net.cpp:433] cont_14_lstm1_cont_slice_13_split -> cont_14_lstm1_cont_slice_13_split_1
I0801 15:07:35.206918  3326 net.cpp:155] Setting up cont_14_lstm1_cont_slice_13_split
I0801 15:07:35.206925  3326 net.cpp:163] Top shape: 1 32 (32)
I0801 15:07:35.206940  3326 net.cpp:163] Top shape: 1 32 (32)
I0801 15:07:35.206946  3326 layer_factory.hpp:76] Creating layer cont_15_lstm1_cont_slice_14_split
I0801 15:07:35.206954  3326 net.cpp:110] Creating Layer cont_15_lstm1_cont_slice_14_split
I0801 15:07:35.206960  3326 net.cpp:477] cont_15_lstm1_cont_slice_14_split <- cont_15
I0801 15:07:35.206969  3326 net.cpp:433] cont_15_lstm1_cont_slice_14_split -> cont_15_lstm1_cont_slice_14_split_0
I0801 15:07:35.206979  3326 net.cpp:433] cont_15_lstm1_cont_slice_14_split -> cont_15_lstm1_cont_slice_14_split_1
I0801 15:07:35.206989  3326 net.cpp:155] Setting up cont_15_lstm1_cont_slice_14_split
I0801 15:07:35.206996  3326 net.cpp:163] Top shape: 1 32 (32)
I0801 15:07:35.207003  3326 net.cpp:163] Top shape: 1 32 (32)
I0801 15:07:35.207008  3326 layer_factory.hpp:76] Creating layer cont_16_lstm1_cont_slice_15_split
I0801 15:07:35.207021  3326 net.cpp:110] Creating Layer cont_16_lstm1_cont_slice_15_split
I0801 15:07:35.207028  3326 net.cpp:477] cont_16_lstm1_cont_slice_15_split <- cont_16
I0801 15:07:35.207041  3326 net.cpp:433] cont_16_lstm1_cont_slice_15_split -> cont_16_lstm1_cont_slice_15_split_0
I0801 15:07:35.207051  3326 net.cpp:433] cont_16_lstm1_cont_slice_15_split -> cont_16_lstm1_cont_slice_15_split_1
I0801 15:07:35.207061  3326 net.cpp:155] Setting up cont_16_lstm1_cont_slice_15_split
I0801 15:07:35.207068  3326 net.cpp:163] Top shape: 1 32 (32)
I0801 15:07:35.207075  3326 net.cpp:163] Top shape: 1 32 (32)
I0801 15:07:35.207082  3326 layer_factory.hpp:76] Creating layer cont_17_lstm1_cont_slice_16_split
I0801 15:07:35.207088  3326 net.cpp:110] Creating Layer cont_17_lstm1_cont_slice_16_split
I0801 15:07:35.207094  3326 net.cpp:477] cont_17_lstm1_cont_slice_16_split <- cont_17
I0801 15:07:35.207103  3326 net.cpp:433] cont_17_lstm1_cont_slice_16_split -> cont_17_lstm1_cont_slice_16_split_0
I0801 15:07:35.207128  3326 net.cpp:433] cont_17_lstm1_cont_slice_16_split -> cont_17_lstm1_cont_slice_16_split_1
I0801 15:07:35.207139  3326 net.cpp:155] Setting up cont_17_lstm1_cont_slice_16_split
I0801 15:07:35.207146  3326 net.cpp:163] Top shape: 1 32 (32)
I0801 15:07:35.207156  3326 net.cpp:163] Top shape: 1 32 (32)
I0801 15:07:35.207173  3326 layer_factory.hpp:76] Creating layer cont_18_lstm1_cont_slice_17_split
I0801 15:07:35.207181  3326 net.cpp:110] Creating Layer cont_18_lstm1_cont_slice_17_split
I0801 15:07:35.207187  3326 net.cpp:477] cont_18_lstm1_cont_slice_17_split <- cont_18
I0801 15:07:35.207195  3326 net.cpp:433] cont_18_lstm1_cont_slice_17_split -> cont_18_lstm1_cont_slice_17_split_0
I0801 15:07:35.207208  3326 net.cpp:433] cont_18_lstm1_cont_slice_17_split -> cont_18_lstm1_cont_slice_17_split_1
I0801 15:07:35.207218  3326 net.cpp:155] Setting up cont_18_lstm1_cont_slice_17_split
I0801 15:07:35.207226  3326 net.cpp:163] Top shape: 1 32 (32)
I0801 15:07:35.207232  3326 net.cpp:163] Top shape: 1 32 (32)
I0801 15:07:35.207238  3326 layer_factory.hpp:76] Creating layer cont_19_lstm1_cont_slice_18_split
I0801 15:07:35.207245  3326 net.cpp:110] Creating Layer cont_19_lstm1_cont_slice_18_split
I0801 15:07:35.207252  3326 net.cpp:477] cont_19_lstm1_cont_slice_18_split <- cont_19
I0801 15:07:35.207259  3326 net.cpp:433] cont_19_lstm1_cont_slice_18_split -> cont_19_lstm1_cont_slice_18_split_0
I0801 15:07:35.207268  3326 net.cpp:433] cont_19_lstm1_cont_slice_18_split -> cont_19_lstm1_cont_slice_18_split_1
I0801 15:07:35.207278  3326 net.cpp:155] Setting up cont_19_lstm1_cont_slice_18_split
I0801 15:07:35.207285  3326 net.cpp:163] Top shape: 1 32 (32)
I0801 15:07:35.207293  3326 net.cpp:163] Top shape: 1 32 (32)
I0801 15:07:35.207298  3326 layer_factory.hpp:76] Creating layer cont_20_lstm1_cont_slice_19_split
I0801 15:07:35.207307  3326 net.cpp:110] Creating Layer cont_20_lstm1_cont_slice_19_split
I0801 15:07:35.207314  3326 net.cpp:477] cont_20_lstm1_cont_slice_19_split <- cont_20
I0801 15:07:35.207322  3326 net.cpp:433] cont_20_lstm1_cont_slice_19_split -> cont_20_lstm1_cont_slice_19_split_0
I0801 15:07:35.207334  3326 net.cpp:433] cont_20_lstm1_cont_slice_19_split -> cont_20_lstm1_cont_slice_19_split_1
I0801 15:07:35.207345  3326 net.cpp:155] Setting up cont_20_lstm1_cont_slice_19_split
I0801 15:07:35.207351  3326 net.cpp:163] Top shape: 1 32 (32)
I0801 15:07:35.207358  3326 net.cpp:163] Top shape: 1 32 (32)
I0801 15:07:35.207365  3326 layer_factory.hpp:76] Creating layer cont_21_lstm1_cont_slice_20_split
I0801 15:07:35.207371  3326 net.cpp:110] Creating Layer cont_21_lstm1_cont_slice_20_split
I0801 15:07:35.207376  3326 net.cpp:477] cont_21_lstm1_cont_slice_20_split <- cont_21
I0801 15:07:35.207384  3326 net.cpp:433] cont_21_lstm1_cont_slice_20_split -> cont_21_lstm1_cont_slice_20_split_0
I0801 15:07:35.207393  3326 net.cpp:433] cont_21_lstm1_cont_slice_20_split -> cont_21_lstm1_cont_slice_20_split_1
I0801 15:07:35.207403  3326 net.cpp:155] Setting up cont_21_lstm1_cont_slice_20_split
I0801 15:07:35.207411  3326 net.cpp:163] Top shape: 1 32 (32)
I0801 15:07:35.207417  3326 net.cpp:163] Top shape: 1 32 (32)
I0801 15:07:35.207422  3326 layer_factory.hpp:76] Creating layer cont_22_lstm1_cont_slice_21_split
I0801 15:07:35.207433  3326 net.cpp:110] Creating Layer cont_22_lstm1_cont_slice_21_split
I0801 15:07:35.207439  3326 net.cpp:477] cont_22_lstm1_cont_slice_21_split <- cont_22
I0801 15:07:35.207448  3326 net.cpp:433] cont_22_lstm1_cont_slice_21_split -> cont_22_lstm1_cont_slice_21_split_0
I0801 15:07:35.207459  3326 net.cpp:433] cont_22_lstm1_cont_slice_21_split -> cont_22_lstm1_cont_slice_21_split_1
I0801 15:07:35.207469  3326 net.cpp:155] Setting up cont_22_lstm1_cont_slice_21_split
I0801 15:07:35.207478  3326 net.cpp:163] Top shape: 1 32 (32)
I0801 15:07:35.207484  3326 net.cpp:163] Top shape: 1 32 (32)
I0801 15:07:35.207502  3326 layer_factory.hpp:76] Creating layer cont_23_lstm1_cont_slice_22_split
I0801 15:07:35.207510  3326 net.cpp:110] Creating Layer cont_23_lstm1_cont_slice_22_split
I0801 15:07:35.207517  3326 net.cpp:477] cont_23_lstm1_cont_slice_22_split <- cont_23
I0801 15:07:35.207525  3326 net.cpp:433] cont_23_lstm1_cont_slice_22_split -> cont_23_lstm1_cont_slice_22_split_0
I0801 15:07:35.207546  3326 net.cpp:433] cont_23_lstm1_cont_slice_22_split -> cont_23_lstm1_cont_slice_22_split_1
I0801 15:07:35.207561  3326 net.cpp:155] Setting up cont_23_lstm1_cont_slice_22_split
I0801 15:07:35.207581  3326 net.cpp:163] Top shape: 1 32 (32)
I0801 15:07:35.207587  3326 net.cpp:163] Top shape: 1 32 (32)
I0801 15:07:35.207594  3326 layer_factory.hpp:76] Creating layer cont_24_lstm1_cont_slice_23_split
I0801 15:07:35.207602  3326 net.cpp:110] Creating Layer cont_24_lstm1_cont_slice_23_split
I0801 15:07:35.207608  3326 net.cpp:477] cont_24_lstm1_cont_slice_23_split <- cont_24
I0801 15:07:35.207620  3326 net.cpp:433] cont_24_lstm1_cont_slice_23_split -> cont_24_lstm1_cont_slice_23_split_0
I0801 15:07:35.207631  3326 net.cpp:433] cont_24_lstm1_cont_slice_23_split -> cont_24_lstm1_cont_slice_23_split_1
I0801 15:07:35.207641  3326 net.cpp:155] Setting up cont_24_lstm1_cont_slice_23_split
I0801 15:07:35.207649  3326 net.cpp:163] Top shape: 1 32 (32)
I0801 15:07:35.207656  3326 net.cpp:163] Top shape: 1 32 (32)
I0801 15:07:35.207662  3326 layer_factory.hpp:76] Creating layer cont_25_lstm1_cont_slice_24_split
I0801 15:07:35.207669  3326 net.cpp:110] Creating Layer cont_25_lstm1_cont_slice_24_split
I0801 15:07:35.207675  3326 net.cpp:477] cont_25_lstm1_cont_slice_24_split <- cont_25
I0801 15:07:35.207684  3326 net.cpp:433] cont_25_lstm1_cont_slice_24_split -> cont_25_lstm1_cont_slice_24_split_0
I0801 15:07:35.207693  3326 net.cpp:433] cont_25_lstm1_cont_slice_24_split -> cont_25_lstm1_cont_slice_24_split_1
I0801 15:07:35.207703  3326 net.cpp:155] Setting up cont_25_lstm1_cont_slice_24_split
I0801 15:07:35.207711  3326 net.cpp:163] Top shape: 1 32 (32)
I0801 15:07:35.207718  3326 net.cpp:163] Top shape: 1 32 (32)
I0801 15:07:35.207723  3326 layer_factory.hpp:76] Creating layer cont_26_lstm1_cont_slice_25_split
I0801 15:07:35.207731  3326 net.cpp:110] Creating Layer cont_26_lstm1_cont_slice_25_split
I0801 15:07:35.207737  3326 net.cpp:477] cont_26_lstm1_cont_slice_25_split <- cont_26
I0801 15:07:35.207748  3326 net.cpp:433] cont_26_lstm1_cont_slice_25_split -> cont_26_lstm1_cont_slice_25_split_0
I0801 15:07:35.207759  3326 net.cpp:433] cont_26_lstm1_cont_slice_25_split -> cont_26_lstm1_cont_slice_25_split_1
I0801 15:07:35.207769  3326 net.cpp:155] Setting up cont_26_lstm1_cont_slice_25_split
I0801 15:07:35.207777  3326 net.cpp:163] Top shape: 1 32 (32)
I0801 15:07:35.207783  3326 net.cpp:163] Top shape: 1 32 (32)
I0801 15:07:35.207789  3326 layer_factory.hpp:76] Creating layer cont_27_lstm1_cont_slice_26_split
I0801 15:07:35.207797  3326 net.cpp:110] Creating Layer cont_27_lstm1_cont_slice_26_split
I0801 15:07:35.207803  3326 net.cpp:477] cont_27_lstm1_cont_slice_26_split <- cont_27
I0801 15:07:35.207811  3326 net.cpp:433] cont_27_lstm1_cont_slice_26_split -> cont_27_lstm1_cont_slice_26_split_0
I0801 15:07:35.207820  3326 net.cpp:433] cont_27_lstm1_cont_slice_26_split -> cont_27_lstm1_cont_slice_26_split_1
I0801 15:07:35.207842  3326 net.cpp:155] Setting up cont_27_lstm1_cont_slice_26_split
I0801 15:07:35.207850  3326 net.cpp:163] Top shape: 1 32 (32)
I0801 15:07:35.207857  3326 net.cpp:163] Top shape: 1 32 (32)
I0801 15:07:35.207862  3326 layer_factory.hpp:76] Creating layer cont_28_lstm1_cont_slice_27_split
I0801 15:07:35.207870  3326 net.cpp:110] Creating Layer cont_28_lstm1_cont_slice_27_split
I0801 15:07:35.207875  3326 net.cpp:477] cont_28_lstm1_cont_slice_27_split <- cont_28
I0801 15:07:35.207900  3326 net.cpp:433] cont_28_lstm1_cont_slice_27_split -> cont_28_lstm1_cont_slice_27_split_0
I0801 15:07:35.207911  3326 net.cpp:433] cont_28_lstm1_cont_slice_27_split -> cont_28_lstm1_cont_slice_27_split_1
I0801 15:07:35.207921  3326 net.cpp:155] Setting up cont_28_lstm1_cont_slice_27_split
I0801 15:07:35.207929  3326 net.cpp:163] Top shape: 1 32 (32)
I0801 15:07:35.207937  3326 net.cpp:163] Top shape: 1 32 (32)
I0801 15:07:35.207942  3326 layer_factory.hpp:76] Creating layer cont_29_lstm1_cont_slice_28_split
I0801 15:07:35.207949  3326 net.cpp:110] Creating Layer cont_29_lstm1_cont_slice_28_split
I0801 15:07:35.207955  3326 net.cpp:477] cont_29_lstm1_cont_slice_28_split <- cont_29
I0801 15:07:35.207967  3326 net.cpp:433] cont_29_lstm1_cont_slice_28_split -> cont_29_lstm1_cont_slice_28_split_0
I0801 15:07:35.207986  3326 net.cpp:433] cont_29_lstm1_cont_slice_28_split -> cont_29_lstm1_cont_slice_28_split_1
I0801 15:07:35.207998  3326 net.cpp:155] Setting up cont_29_lstm1_cont_slice_28_split
I0801 15:07:35.208005  3326 net.cpp:163] Top shape: 1 32 (32)
I0801 15:07:35.208012  3326 net.cpp:163] Top shape: 1 32 (32)
I0801 15:07:35.208017  3326 layer_factory.hpp:76] Creating layer cont_30_lstm1_cont_slice_29_split
I0801 15:07:35.208025  3326 net.cpp:110] Creating Layer cont_30_lstm1_cont_slice_29_split
I0801 15:07:35.208031  3326 net.cpp:477] cont_30_lstm1_cont_slice_29_split <- cont_30
I0801 15:07:35.208039  3326 net.cpp:433] cont_30_lstm1_cont_slice_29_split -> cont_30_lstm1_cont_slice_29_split_0
I0801 15:07:35.208052  3326 net.cpp:433] cont_30_lstm1_cont_slice_29_split -> cont_30_lstm1_cont_slice_29_split_1
I0801 15:07:35.208063  3326 net.cpp:155] Setting up cont_30_lstm1_cont_slice_29_split
I0801 15:07:35.208071  3326 net.cpp:163] Top shape: 1 32 (32)
I0801 15:07:35.208078  3326 net.cpp:163] Top shape: 1 32 (32)
I0801 15:07:35.208084  3326 layer_factory.hpp:76] Creating layer cont_31_lstm1_cont_slice_30_split
I0801 15:07:35.208091  3326 net.cpp:110] Creating Layer cont_31_lstm1_cont_slice_30_split
I0801 15:07:35.208097  3326 net.cpp:477] cont_31_lstm1_cont_slice_30_split <- cont_31
I0801 15:07:35.208106  3326 net.cpp:433] cont_31_lstm1_cont_slice_30_split -> cont_31_lstm1_cont_slice_30_split_0
I0801 15:07:35.208115  3326 net.cpp:433] cont_31_lstm1_cont_slice_30_split -> cont_31_lstm1_cont_slice_30_split_1
I0801 15:07:35.208125  3326 net.cpp:155] Setting up cont_31_lstm1_cont_slice_30_split
I0801 15:07:35.208133  3326 net.cpp:163] Top shape: 1 32 (32)
I0801 15:07:35.208140  3326 net.cpp:163] Top shape: 1 32 (32)
I0801 15:07:35.208147  3326 layer_factory.hpp:76] Creating layer cont_32_lstm1_cont_slice_31_split
I0801 15:07:35.208156  3326 net.cpp:110] Creating Layer cont_32_lstm1_cont_slice_31_split
I0801 15:07:35.208163  3326 net.cpp:477] cont_32_lstm1_cont_slice_31_split <- cont_32
I0801 15:07:35.208174  3326 net.cpp:433] cont_32_lstm1_cont_slice_31_split -> cont_32_lstm1_cont_slice_31_split_0
I0801 15:07:35.208184  3326 net.cpp:433] cont_32_lstm1_cont_slice_31_split -> cont_32_lstm1_cont_slice_31_split_1
I0801 15:07:35.208194  3326 net.cpp:155] Setting up cont_32_lstm1_cont_slice_31_split
I0801 15:07:35.208215  3326 net.cpp:163] Top shape: 1 32 (32)
I0801 15:07:35.208222  3326 net.cpp:163] Top shape: 1 32 (32)
I0801 15:07:35.208228  3326 layer_factory.hpp:76] Creating layer cont_33_lstm1_cont_slice_32_split
I0801 15:07:35.208235  3326 net.cpp:110] Creating Layer cont_33_lstm1_cont_slice_32_split
I0801 15:07:35.208240  3326 net.cpp:477] cont_33_lstm1_cont_slice_32_split <- cont_33
I0801 15:07:35.208248  3326 net.cpp:433] cont_33_lstm1_cont_slice_32_split -> cont_33_lstm1_cont_slice_32_split_0
I0801 15:07:35.208257  3326 net.cpp:433] cont_33_lstm1_cont_slice_32_split -> cont_33_lstm1_cont_slice_32_split_1
I0801 15:07:35.208267  3326 net.cpp:155] Setting up cont_33_lstm1_cont_slice_32_split
I0801 15:07:35.208274  3326 net.cpp:163] Top shape: 1 32 (32)
I0801 15:07:35.208281  3326 net.cpp:163] Top shape: 1 32 (32)
I0801 15:07:35.208287  3326 layer_factory.hpp:76] Creating layer cont_34_lstm1_cont_slice_33_split
I0801 15:07:35.208293  3326 net.cpp:110] Creating Layer cont_34_lstm1_cont_slice_33_split
I0801 15:07:35.208299  3326 net.cpp:477] cont_34_lstm1_cont_slice_33_split <- cont_34
I0801 15:07:35.208310  3326 net.cpp:433] cont_34_lstm1_cont_slice_33_split -> cont_34_lstm1_cont_slice_33_split_0
I0801 15:07:35.208319  3326 net.cpp:433] cont_34_lstm1_cont_slice_33_split -> cont_34_lstm1_cont_slice_33_split_1
I0801 15:07:35.208329  3326 net.cpp:155] Setting up cont_34_lstm1_cont_slice_33_split
I0801 15:07:35.208336  3326 net.cpp:163] Top shape: 1 32 (32)
I0801 15:07:35.208343  3326 net.cpp:163] Top shape: 1 32 (32)
I0801 15:07:35.208348  3326 layer_factory.hpp:76] Creating layer cont_35_lstm1_cont_slice_34_split
I0801 15:07:35.208359  3326 net.cpp:110] Creating Layer cont_35_lstm1_cont_slice_34_split
I0801 15:07:35.208374  3326 net.cpp:477] cont_35_lstm1_cont_slice_34_split <- cont_35
I0801 15:07:35.208382  3326 net.cpp:433] cont_35_lstm1_cont_slice_34_split -> cont_35_lstm1_cont_slice_34_split_0
I0801 15:07:35.208392  3326 net.cpp:433] cont_35_lstm1_cont_slice_34_split -> cont_35_lstm1_cont_slice_34_split_1
I0801 15:07:35.208401  3326 net.cpp:155] Setting up cont_35_lstm1_cont_slice_34_split
I0801 15:07:35.208410  3326 net.cpp:163] Top shape: 1 32 (32)
I0801 15:07:35.208416  3326 net.cpp:163] Top shape: 1 32 (32)
I0801 15:07:35.208421  3326 layer_factory.hpp:76] Creating layer cont_36_lstm1_cont_slice_35_split
I0801 15:07:35.208428  3326 net.cpp:110] Creating Layer cont_36_lstm1_cont_slice_35_split
I0801 15:07:35.208434  3326 net.cpp:477] cont_36_lstm1_cont_slice_35_split <- cont_36
I0801 15:07:35.208446  3326 net.cpp:433] cont_36_lstm1_cont_slice_35_split -> cont_36_lstm1_cont_slice_35_split_0
I0801 15:07:35.208456  3326 net.cpp:433] cont_36_lstm1_cont_slice_35_split -> cont_36_lstm1_cont_slice_35_split_1
I0801 15:07:35.208464  3326 net.cpp:155] Setting up cont_36_lstm1_cont_slice_35_split
I0801 15:07:35.208472  3326 net.cpp:163] Top shape: 1 32 (32)
I0801 15:07:35.208479  3326 net.cpp:163] Top shape: 1 32 (32)
I0801 15:07:35.208484  3326 layer_factory.hpp:76] Creating layer cont_37_lstm1_cont_slice_36_split
I0801 15:07:35.208492  3326 net.cpp:110] Creating Layer cont_37_lstm1_cont_slice_36_split
I0801 15:07:35.208498  3326 net.cpp:477] cont_37_lstm1_cont_slice_36_split <- cont_37
I0801 15:07:35.208505  3326 net.cpp:433] cont_37_lstm1_cont_slice_36_split -> cont_37_lstm1_cont_slice_36_split_0
I0801 15:07:35.208514  3326 net.cpp:433] cont_37_lstm1_cont_slice_36_split -> cont_37_lstm1_cont_slice_36_split_1
I0801 15:07:35.208523  3326 net.cpp:155] Setting up cont_37_lstm1_cont_slice_36_split
I0801 15:07:35.208531  3326 net.cpp:163] Top shape: 1 32 (32)
I0801 15:07:35.208539  3326 net.cpp:163] Top shape: 1 32 (32)
I0801 15:07:35.208544  3326 layer_factory.hpp:76] Creating layer cont_38_lstm1_cont_slice_37_split
I0801 15:07:35.208550  3326 net.cpp:110] Creating Layer cont_38_lstm1_cont_slice_37_split
I0801 15:07:35.208556  3326 net.cpp:477] cont_38_lstm1_cont_slice_37_split <- cont_38
I0801 15:07:35.208566  3326 net.cpp:433] cont_38_lstm1_cont_slice_37_split -> cont_38_lstm1_cont_slice_37_split_0
I0801 15:07:35.208590  3326 net.cpp:433] cont_38_lstm1_cont_slice_37_split -> cont_38_lstm1_cont_slice_37_split_1
I0801 15:07:35.208600  3326 net.cpp:155] Setting up cont_38_lstm1_cont_slice_37_split
I0801 15:07:35.208608  3326 net.cpp:163] Top shape: 1 32 (32)
I0801 15:07:35.208616  3326 net.cpp:163] Top shape: 1 32 (32)
I0801 15:07:35.208621  3326 layer_factory.hpp:76] Creating layer cont_39_lstm1_cont_slice_38_split
I0801 15:07:35.208628  3326 net.cpp:110] Creating Layer cont_39_lstm1_cont_slice_38_split
I0801 15:07:35.208634  3326 net.cpp:477] cont_39_lstm1_cont_slice_38_split <- cont_39
I0801 15:07:35.208642  3326 net.cpp:433] cont_39_lstm1_cont_slice_38_split -> cont_39_lstm1_cont_slice_38_split_0
I0801 15:07:35.208652  3326 net.cpp:433] cont_39_lstm1_cont_slice_38_split -> cont_39_lstm1_cont_slice_38_split_1
I0801 15:07:35.208662  3326 net.cpp:155] Setting up cont_39_lstm1_cont_slice_38_split
I0801 15:07:35.208670  3326 net.cpp:163] Top shape: 1 32 (32)
I0801 15:07:35.208678  3326 net.cpp:163] Top shape: 1 32 (32)
I0801 15:07:35.208683  3326 layer_factory.hpp:76] Creating layer cont_40_lstm1_cont_slice_39_split
I0801 15:07:35.208694  3326 net.cpp:110] Creating Layer cont_40_lstm1_cont_slice_39_split
I0801 15:07:35.208701  3326 net.cpp:477] cont_40_lstm1_cont_slice_39_split <- cont_40
I0801 15:07:35.208710  3326 net.cpp:433] cont_40_lstm1_cont_slice_39_split -> cont_40_lstm1_cont_slice_39_split_0
I0801 15:07:35.208719  3326 net.cpp:433] cont_40_lstm1_cont_slice_39_split -> cont_40_lstm1_cont_slice_39_split_1
I0801 15:07:35.208729  3326 net.cpp:155] Setting up cont_40_lstm1_cont_slice_39_split
I0801 15:07:35.208737  3326 net.cpp:163] Top shape: 1 32 (32)
I0801 15:07:35.208747  3326 net.cpp:163] Top shape: 1 32 (32)
I0801 15:07:35.208763  3326 layer_factory.hpp:76] Creating layer cont_41_lstm1_cont_slice_40_split
I0801 15:07:35.208771  3326 net.cpp:110] Creating Layer cont_41_lstm1_cont_slice_40_split
I0801 15:07:35.208777  3326 net.cpp:477] cont_41_lstm1_cont_slice_40_split <- cont_41
I0801 15:07:35.208786  3326 net.cpp:433] cont_41_lstm1_cont_slice_40_split -> cont_41_lstm1_cont_slice_40_split_0
I0801 15:07:35.208796  3326 net.cpp:433] cont_41_lstm1_cont_slice_40_split -> cont_41_lstm1_cont_slice_40_split_1
I0801 15:07:35.208806  3326 net.cpp:155] Setting up cont_41_lstm1_cont_slice_40_split
I0801 15:07:35.208813  3326 net.cpp:163] Top shape: 1 32 (32)
I0801 15:07:35.208820  3326 net.cpp:163] Top shape: 1 32 (32)
I0801 15:07:35.208827  3326 layer_factory.hpp:76] Creating layer cont_42_lstm1_cont_slice_41_split
I0801 15:07:35.208833  3326 net.cpp:110] Creating Layer cont_42_lstm1_cont_slice_41_split
I0801 15:07:35.208839  3326 net.cpp:477] cont_42_lstm1_cont_slice_41_split <- cont_42
I0801 15:07:35.208854  3326 net.cpp:433] cont_42_lstm1_cont_slice_41_split -> cont_42_lstm1_cont_slice_41_split_0
I0801 15:07:35.208865  3326 net.cpp:433] cont_42_lstm1_cont_slice_41_split -> cont_42_lstm1_cont_slice_41_split_1
I0801 15:07:35.208875  3326 net.cpp:155] Setting up cont_42_lstm1_cont_slice_41_split
I0801 15:07:35.208884  3326 net.cpp:163] Top shape: 1 32 (32)
I0801 15:07:35.208890  3326 net.cpp:163] Top shape: 1 32 (32)
I0801 15:07:35.208896  3326 layer_factory.hpp:76] Creating layer cont_43_lstm1_cont_slice_42_split
I0801 15:07:35.208904  3326 net.cpp:110] Creating Layer cont_43_lstm1_cont_slice_42_split
I0801 15:07:35.208909  3326 net.cpp:477] cont_43_lstm1_cont_slice_42_split <- cont_43
I0801 15:07:35.208931  3326 net.cpp:433] cont_43_lstm1_cont_slice_42_split -> cont_43_lstm1_cont_slice_42_split_0
I0801 15:07:35.208940  3326 net.cpp:433] cont_43_lstm1_cont_slice_42_split -> cont_43_lstm1_cont_slice_42_split_1
I0801 15:07:35.208950  3326 net.cpp:155] Setting up cont_43_lstm1_cont_slice_42_split
I0801 15:07:35.208957  3326 net.cpp:163] Top shape: 1 32 (32)
I0801 15:07:35.208964  3326 net.cpp:163] Top shape: 1 32 (32)
I0801 15:07:35.208969  3326 layer_factory.hpp:76] Creating layer cont_44_lstm1_cont_slice_43_split
I0801 15:07:35.208976  3326 net.cpp:110] Creating Layer cont_44_lstm1_cont_slice_43_split
I0801 15:07:35.208995  3326 net.cpp:477] cont_44_lstm1_cont_slice_43_split <- cont_44
I0801 15:07:35.209008  3326 net.cpp:433] cont_44_lstm1_cont_slice_43_split -> cont_44_lstm1_cont_slice_43_split_0
I0801 15:07:35.209019  3326 net.cpp:433] cont_44_lstm1_cont_slice_43_split -> cont_44_lstm1_cont_slice_43_split_1
I0801 15:07:35.209029  3326 net.cpp:155] Setting up cont_44_lstm1_cont_slice_43_split
I0801 15:07:35.209038  3326 net.cpp:163] Top shape: 1 32 (32)
I0801 15:07:35.209044  3326 net.cpp:163] Top shape: 1 32 (32)
I0801 15:07:35.209050  3326 layer_factory.hpp:76] Creating layer cont_45_lstm1_cont_slice_44_split
I0801 15:07:35.209058  3326 net.cpp:110] Creating Layer cont_45_lstm1_cont_slice_44_split
I0801 15:07:35.209064  3326 net.cpp:477] cont_45_lstm1_cont_slice_44_split <- cont_45
I0801 15:07:35.209071  3326 net.cpp:433] cont_45_lstm1_cont_slice_44_split -> cont_45_lstm1_cont_slice_44_split_0
I0801 15:07:35.209080  3326 net.cpp:433] cont_45_lstm1_cont_slice_44_split -> cont_45_lstm1_cont_slice_44_split_1
I0801 15:07:35.209090  3326 net.cpp:155] Setting up cont_45_lstm1_cont_slice_44_split
I0801 15:07:35.209098  3326 net.cpp:163] Top shape: 1 32 (32)
I0801 15:07:35.209105  3326 net.cpp:163] Top shape: 1 32 (32)
I0801 15:07:35.209111  3326 layer_factory.hpp:76] Creating layer cont_46_lstm1_cont_slice_45_split
I0801 15:07:35.209118  3326 net.cpp:110] Creating Layer cont_46_lstm1_cont_slice_45_split
I0801 15:07:35.209125  3326 net.cpp:477] cont_46_lstm1_cont_slice_45_split <- cont_46
I0801 15:07:35.209136  3326 net.cpp:433] cont_46_lstm1_cont_slice_45_split -> cont_46_lstm1_cont_slice_45_split_0
I0801 15:07:35.209146  3326 net.cpp:433] cont_46_lstm1_cont_slice_45_split -> cont_46_lstm1_cont_slice_45_split_1
I0801 15:07:35.209169  3326 net.cpp:155] Setting up cont_46_lstm1_cont_slice_45_split
I0801 15:07:35.209178  3326 net.cpp:163] Top shape: 1 32 (32)
I0801 15:07:35.209185  3326 net.cpp:163] Top shape: 1 32 (32)
I0801 15:07:35.209192  3326 layer_factory.hpp:76] Creating layer cont_47_lstm1_cont_slice_46_split
I0801 15:07:35.209198  3326 net.cpp:110] Creating Layer cont_47_lstm1_cont_slice_46_split
I0801 15:07:35.209204  3326 net.cpp:477] cont_47_lstm1_cont_slice_46_split <- cont_47
I0801 15:07:35.209213  3326 net.cpp:433] cont_47_lstm1_cont_slice_46_split -> cont_47_lstm1_cont_slice_46_split_0
I0801 15:07:35.209223  3326 net.cpp:433] cont_47_lstm1_cont_slice_46_split -> cont_47_lstm1_cont_slice_46_split_1
I0801 15:07:35.209233  3326 net.cpp:155] Setting up cont_47_lstm1_cont_slice_46_split
I0801 15:07:35.209239  3326 net.cpp:163] Top shape: 1 32 (32)
I0801 15:07:35.209246  3326 net.cpp:163] Top shape: 1 32 (32)
I0801 15:07:35.209252  3326 layer_factory.hpp:76] Creating layer cont_48_lstm1_cont_slice_47_split
I0801 15:07:35.209259  3326 net.cpp:110] Creating Layer cont_48_lstm1_cont_slice_47_split
I0801 15:07:35.209265  3326 net.cpp:477] cont_48_lstm1_cont_slice_47_split <- cont_48
I0801 15:07:35.209280  3326 net.cpp:433] cont_48_lstm1_cont_slice_47_split -> cont_48_lstm1_cont_slice_47_split_0
I0801 15:07:35.209303  3326 net.cpp:433] cont_48_lstm1_cont_slice_47_split -> cont_48_lstm1_cont_slice_47_split_1
I0801 15:07:35.209313  3326 net.cpp:155] Setting up cont_48_lstm1_cont_slice_47_split
I0801 15:07:35.209321  3326 net.cpp:163] Top shape: 1 32 (32)
I0801 15:07:35.209328  3326 net.cpp:163] Top shape: 1 32 (32)
I0801 15:07:35.209333  3326 layer_factory.hpp:76] Creating layer cont_49_lstm1_cont_slice_48_split
I0801 15:07:35.209341  3326 net.cpp:110] Creating Layer cont_49_lstm1_cont_slice_48_split
I0801 15:07:35.209347  3326 net.cpp:477] cont_49_lstm1_cont_slice_48_split <- cont_49
I0801 15:07:35.209354  3326 net.cpp:433] cont_49_lstm1_cont_slice_48_split -> cont_49_lstm1_cont_slice_48_split_0
I0801 15:07:35.209363  3326 net.cpp:433] cont_49_lstm1_cont_slice_48_split -> cont_49_lstm1_cont_slice_48_split_1
I0801 15:07:35.209373  3326 net.cpp:155] Setting up cont_49_lstm1_cont_slice_48_split
I0801 15:07:35.209381  3326 net.cpp:163] Top shape: 1 32 (32)
I0801 15:07:35.209388  3326 net.cpp:163] Top shape: 1 32 (32)
I0801 15:07:35.209393  3326 layer_factory.hpp:76] Creating layer cont_50_lstm1_cont_slice_49_split
I0801 15:07:35.209400  3326 net.cpp:110] Creating Layer cont_50_lstm1_cont_slice_49_split
I0801 15:07:35.209406  3326 net.cpp:477] cont_50_lstm1_cont_slice_49_split <- cont_50
I0801 15:07:35.209417  3326 net.cpp:433] cont_50_lstm1_cont_slice_49_split -> cont_50_lstm1_cont_slice_49_split_0
I0801 15:07:35.209427  3326 net.cpp:433] cont_50_lstm1_cont_slice_49_split -> cont_50_lstm1_cont_slice_49_split_1
I0801 15:07:35.209437  3326 net.cpp:155] Setting up cont_50_lstm1_cont_slice_49_split
I0801 15:07:35.209445  3326 net.cpp:163] Top shape: 1 32 (32)
I0801 15:07:35.209451  3326 net.cpp:163] Top shape: 1 32 (32)
I0801 15:07:35.209457  3326 layer_factory.hpp:76] Creating layer cont_51_lstm1_cont_slice_50_split
I0801 15:07:35.209465  3326 net.cpp:110] Creating Layer cont_51_lstm1_cont_slice_50_split
I0801 15:07:35.209470  3326 net.cpp:477] cont_51_lstm1_cont_slice_50_split <- cont_51
I0801 15:07:35.209477  3326 net.cpp:433] cont_51_lstm1_cont_slice_50_split -> cont_51_lstm1_cont_slice_50_split_0
I0801 15:07:35.209486  3326 net.cpp:433] cont_51_lstm1_cont_slice_50_split -> cont_51_lstm1_cont_slice_50_split_1
I0801 15:07:35.209496  3326 net.cpp:155] Setting up cont_51_lstm1_cont_slice_50_split
I0801 15:07:35.209503  3326 net.cpp:163] Top shape: 1 32 (32)
I0801 15:07:35.209509  3326 net.cpp:163] Top shape: 1 32 (32)
I0801 15:07:35.209516  3326 layer_factory.hpp:76] Creating layer cont_52_lstm1_cont_slice_51_split
I0801 15:07:35.209522  3326 net.cpp:110] Creating Layer cont_52_lstm1_cont_slice_51_split
I0801 15:07:35.209528  3326 net.cpp:477] cont_52_lstm1_cont_slice_51_split <- cont_52
I0801 15:07:35.209539  3326 net.cpp:433] cont_52_lstm1_cont_slice_51_split -> cont_52_lstm1_cont_slice_51_split_0
I0801 15:07:35.209561  3326 net.cpp:433] cont_52_lstm1_cont_slice_51_split -> cont_52_lstm1_cont_slice_51_split_1
I0801 15:07:35.209573  3326 net.cpp:155] Setting up cont_52_lstm1_cont_slice_51_split
I0801 15:07:35.209580  3326 net.cpp:163] Top shape: 1 32 (32)
I0801 15:07:35.209588  3326 net.cpp:163] Top shape: 1 32 (32)
I0801 15:07:35.209594  3326 layer_factory.hpp:76] Creating layer cont_53_lstm1_cont_slice_52_split
I0801 15:07:35.209600  3326 net.cpp:110] Creating Layer cont_53_lstm1_cont_slice_52_split
I0801 15:07:35.209606  3326 net.cpp:477] cont_53_lstm1_cont_slice_52_split <- cont_53
I0801 15:07:35.209614  3326 net.cpp:433] cont_53_lstm1_cont_slice_52_split -> cont_53_lstm1_cont_slice_52_split_0
I0801 15:07:35.209624  3326 net.cpp:433] cont_53_lstm1_cont_slice_52_split -> cont_53_lstm1_cont_slice_52_split_1
I0801 15:07:35.209632  3326 net.cpp:155] Setting up cont_53_lstm1_cont_slice_52_split
I0801 15:07:35.209640  3326 net.cpp:163] Top shape: 1 32 (32)
I0801 15:07:35.209646  3326 net.cpp:163] Top shape: 1 32 (32)
I0801 15:07:35.209652  3326 layer_factory.hpp:76] Creating layer cont_54_lstm1_cont_slice_53_split
I0801 15:07:35.209658  3326 net.cpp:110] Creating Layer cont_54_lstm1_cont_slice_53_split
I0801 15:07:35.209677  3326 net.cpp:477] cont_54_lstm1_cont_slice_53_split <- cont_54
I0801 15:07:35.209686  3326 net.cpp:433] cont_54_lstm1_cont_slice_53_split -> cont_54_lstm1_cont_slice_53_split_0
I0801 15:07:35.209699  3326 net.cpp:433] cont_54_lstm1_cont_slice_53_split -> cont_54_lstm1_cont_slice_53_split_1
I0801 15:07:35.209710  3326 net.cpp:155] Setting up cont_54_lstm1_cont_slice_53_split
I0801 15:07:35.209718  3326 net.cpp:163] Top shape: 1 32 (32)
I0801 15:07:35.209725  3326 net.cpp:163] Top shape: 1 32 (32)
I0801 15:07:35.209731  3326 layer_factory.hpp:76] Creating layer cont_55_lstm1_cont_slice_54_split
I0801 15:07:35.209738  3326 net.cpp:110] Creating Layer cont_55_lstm1_cont_slice_54_split
I0801 15:07:35.209744  3326 net.cpp:477] cont_55_lstm1_cont_slice_54_split <- cont_55
I0801 15:07:35.209753  3326 net.cpp:433] cont_55_lstm1_cont_slice_54_split -> cont_55_lstm1_cont_slice_54_split_0
I0801 15:07:35.209763  3326 net.cpp:433] cont_55_lstm1_cont_slice_54_split -> cont_55_lstm1_cont_slice_54_split_1
I0801 15:07:35.209772  3326 net.cpp:155] Setting up cont_55_lstm1_cont_slice_54_split
I0801 15:07:35.209779  3326 net.cpp:163] Top shape: 1 32 (32)
I0801 15:07:35.209786  3326 net.cpp:163] Top shape: 1 32 (32)
I0801 15:07:35.209792  3326 layer_factory.hpp:76] Creating layer cont_56_lstm1_cont_slice_55_split
I0801 15:07:35.209800  3326 net.cpp:110] Creating Layer cont_56_lstm1_cont_slice_55_split
I0801 15:07:35.209805  3326 net.cpp:477] cont_56_lstm1_cont_slice_55_split <- cont_56
I0801 15:07:35.209813  3326 net.cpp:433] cont_56_lstm1_cont_slice_55_split -> cont_56_lstm1_cont_slice_55_split_0
I0801 15:07:35.209823  3326 net.cpp:433] cont_56_lstm1_cont_slice_55_split -> cont_56_lstm1_cont_slice_55_split_1
I0801 15:07:35.209836  3326 net.cpp:155] Setting up cont_56_lstm1_cont_slice_55_split
I0801 15:07:35.209844  3326 net.cpp:163] Top shape: 1 32 (32)
I0801 15:07:35.209851  3326 net.cpp:163] Top shape: 1 32 (32)
I0801 15:07:35.209857  3326 layer_factory.hpp:76] Creating layer cont_57_lstm1_cont_slice_56_split
I0801 15:07:35.209864  3326 net.cpp:110] Creating Layer cont_57_lstm1_cont_slice_56_split
I0801 15:07:35.209870  3326 net.cpp:477] cont_57_lstm1_cont_slice_56_split <- cont_57
I0801 15:07:35.209879  3326 net.cpp:433] cont_57_lstm1_cont_slice_56_split -> cont_57_lstm1_cont_slice_56_split_0
I0801 15:07:35.209888  3326 net.cpp:433] cont_57_lstm1_cont_slice_56_split -> cont_57_lstm1_cont_slice_56_split_1
I0801 15:07:35.209898  3326 net.cpp:155] Setting up cont_57_lstm1_cont_slice_56_split
I0801 15:07:35.209906  3326 net.cpp:163] Top shape: 1 32 (32)
I0801 15:07:35.209913  3326 net.cpp:163] Top shape: 1 32 (32)
I0801 15:07:35.209919  3326 layer_factory.hpp:76] Creating layer cont_58_lstm1_cont_slice_57_split
I0801 15:07:35.209929  3326 net.cpp:110] Creating Layer cont_58_lstm1_cont_slice_57_split
I0801 15:07:35.209945  3326 net.cpp:477] cont_58_lstm1_cont_slice_57_split <- cont_58
I0801 15:07:35.209954  3326 net.cpp:433] cont_58_lstm1_cont_slice_57_split -> cont_58_lstm1_cont_slice_57_split_0
I0801 15:07:35.209964  3326 net.cpp:433] cont_58_lstm1_cont_slice_57_split -> cont_58_lstm1_cont_slice_57_split_1
I0801 15:07:35.209975  3326 net.cpp:155] Setting up cont_58_lstm1_cont_slice_57_split
I0801 15:07:35.209982  3326 net.cpp:163] Top shape: 1 32 (32)
I0801 15:07:35.209990  3326 net.cpp:163] Top shape: 1 32 (32)
I0801 15:07:35.209995  3326 layer_factory.hpp:76] Creating layer cont_59_lstm1_cont_slice_58_split
I0801 15:07:35.210019  3326 net.cpp:110] Creating Layer cont_59_lstm1_cont_slice_58_split
I0801 15:07:35.210027  3326 net.cpp:477] cont_59_lstm1_cont_slice_58_split <- cont_59
I0801 15:07:35.210034  3326 net.cpp:433] cont_59_lstm1_cont_slice_58_split -> cont_59_lstm1_cont_slice_58_split_0
I0801 15:07:35.210044  3326 net.cpp:433] cont_59_lstm1_cont_slice_58_split -> cont_59_lstm1_cont_slice_58_split_1
I0801 15:07:35.210054  3326 net.cpp:155] Setting up cont_59_lstm1_cont_slice_58_split
I0801 15:07:35.210062  3326 net.cpp:163] Top shape: 1 32 (32)
I0801 15:07:35.210081  3326 net.cpp:163] Top shape: 1 32 (32)
I0801 15:07:35.210088  3326 layer_factory.hpp:76] Creating layer cont_60_lstm1_cont_slice_59_split
I0801 15:07:35.210095  3326 net.cpp:110] Creating Layer cont_60_lstm1_cont_slice_59_split
I0801 15:07:35.210101  3326 net.cpp:477] cont_60_lstm1_cont_slice_59_split <- cont_60
I0801 15:07:35.210109  3326 net.cpp:433] cont_60_lstm1_cont_slice_59_split -> cont_60_lstm1_cont_slice_59_split_0
I0801 15:07:35.210119  3326 net.cpp:433] cont_60_lstm1_cont_slice_59_split -> cont_60_lstm1_cont_slice_59_split_1
I0801 15:07:35.210129  3326 net.cpp:155] Setting up cont_60_lstm1_cont_slice_59_split
I0801 15:07:35.210136  3326 net.cpp:163] Top shape: 1 32 (32)
I0801 15:07:35.210144  3326 net.cpp:163] Top shape: 1 32 (32)
I0801 15:07:35.210150  3326 layer_factory.hpp:76] Creating layer cont_61_lstm1_cont_slice_60_split
I0801 15:07:35.210160  3326 net.cpp:110] Creating Layer cont_61_lstm1_cont_slice_60_split
I0801 15:07:35.210167  3326 net.cpp:477] cont_61_lstm1_cont_slice_60_split <- cont_61
I0801 15:07:35.210175  3326 net.cpp:433] cont_61_lstm1_cont_slice_60_split -> cont_61_lstm1_cont_slice_60_split_0
I0801 15:07:35.210185  3326 net.cpp:433] cont_61_lstm1_cont_slice_60_split -> cont_61_lstm1_cont_slice_60_split_1
I0801 15:07:35.210194  3326 net.cpp:155] Setting up cont_61_lstm1_cont_slice_60_split
I0801 15:07:35.210202  3326 net.cpp:163] Top shape: 1 32 (32)
I0801 15:07:35.210209  3326 net.cpp:163] Top shape: 1 32 (32)
I0801 15:07:35.210216  3326 layer_factory.hpp:76] Creating layer cont_62_lstm1_cont_slice_61_split
I0801 15:07:35.210222  3326 net.cpp:110] Creating Layer cont_62_lstm1_cont_slice_61_split
I0801 15:07:35.210228  3326 net.cpp:477] cont_62_lstm1_cont_slice_61_split <- cont_62
I0801 15:07:35.210237  3326 net.cpp:433] cont_62_lstm1_cont_slice_61_split -> cont_62_lstm1_cont_slice_61_split_0
I0801 15:07:35.210247  3326 net.cpp:433] cont_62_lstm1_cont_slice_61_split -> cont_62_lstm1_cont_slice_61_split_1
I0801 15:07:35.210256  3326 net.cpp:155] Setting up cont_62_lstm1_cont_slice_61_split
I0801 15:07:35.210263  3326 net.cpp:163] Top shape: 1 32 (32)
I0801 15:07:35.210270  3326 net.cpp:163] Top shape: 1 32 (32)
I0801 15:07:35.210276  3326 layer_factory.hpp:76] Creating layer cont_63_lstm1_cont_slice_62_split
I0801 15:07:35.210286  3326 net.cpp:110] Creating Layer cont_63_lstm1_cont_slice_62_split
I0801 15:07:35.210294  3326 net.cpp:477] cont_63_lstm1_cont_slice_62_split <- cont_63
I0801 15:07:35.210301  3326 net.cpp:433] cont_63_lstm1_cont_slice_62_split -> cont_63_lstm1_cont_slice_62_split_0
I0801 15:07:35.210311  3326 net.cpp:433] cont_63_lstm1_cont_slice_62_split -> cont_63_lstm1_cont_slice_62_split_1
I0801 15:07:35.210321  3326 net.cpp:155] Setting up cont_63_lstm1_cont_slice_62_split
I0801 15:07:35.210328  3326 net.cpp:163] Top shape: 1 32 (32)
I0801 15:07:35.210340  3326 net.cpp:163] Top shape: 1 32 (32)
I0801 15:07:35.210355  3326 layer_factory.hpp:76] Creating layer cont_64_lstm1_cont_slice_63_split
I0801 15:07:35.210371  3326 net.cpp:110] Creating Layer cont_64_lstm1_cont_slice_63_split
I0801 15:07:35.210391  3326 net.cpp:477] cont_64_lstm1_cont_slice_63_split <- cont_64
I0801 15:07:35.210400  3326 net.cpp:433] cont_64_lstm1_cont_slice_63_split -> cont_64_lstm1_cont_slice_63_split_0
I0801 15:07:35.210410  3326 net.cpp:433] cont_64_lstm1_cont_slice_63_split -> cont_64_lstm1_cont_slice_63_split_1
I0801 15:07:35.210420  3326 net.cpp:155] Setting up cont_64_lstm1_cont_slice_63_split
I0801 15:07:35.210428  3326 net.cpp:163] Top shape: 1 32 (32)
I0801 15:07:35.210435  3326 net.cpp:163] Top shape: 1 32 (32)
I0801 15:07:35.210441  3326 layer_factory.hpp:76] Creating layer cont_65_lstm1_cont_slice_64_split
I0801 15:07:35.210448  3326 net.cpp:110] Creating Layer cont_65_lstm1_cont_slice_64_split
I0801 15:07:35.210454  3326 net.cpp:477] cont_65_lstm1_cont_slice_64_split <- cont_65
I0801 15:07:35.210463  3326 net.cpp:433] cont_65_lstm1_cont_slice_64_split -> cont_65_lstm1_cont_slice_64_split_0
I0801 15:07:35.210471  3326 net.cpp:433] cont_65_lstm1_cont_slice_64_split -> cont_65_lstm1_cont_slice_64_split_1
I0801 15:07:35.210481  3326 net.cpp:155] Setting up cont_65_lstm1_cont_slice_64_split
I0801 15:07:35.210489  3326 net.cpp:163] Top shape: 1 32 (32)
I0801 15:07:35.210495  3326 net.cpp:163] Top shape: 1 32 (32)
I0801 15:07:35.210501  3326 layer_factory.hpp:76] Creating layer cont_66_lstm1_cont_slice_65_split
I0801 15:07:35.210508  3326 net.cpp:110] Creating Layer cont_66_lstm1_cont_slice_65_split
I0801 15:07:35.210513  3326 net.cpp:477] cont_66_lstm1_cont_slice_65_split <- cont_66
I0801 15:07:35.210525  3326 net.cpp:433] cont_66_lstm1_cont_slice_65_split -> cont_66_lstm1_cont_slice_65_split_0
I0801 15:07:35.210535  3326 net.cpp:433] cont_66_lstm1_cont_slice_65_split -> cont_66_lstm1_cont_slice_65_split_1
I0801 15:07:35.210544  3326 net.cpp:155] Setting up cont_66_lstm1_cont_slice_65_split
I0801 15:07:35.210551  3326 net.cpp:163] Top shape: 1 32 (32)
I0801 15:07:35.210558  3326 net.cpp:163] Top shape: 1 32 (32)
I0801 15:07:35.210564  3326 layer_factory.hpp:76] Creating layer cont_67_lstm1_cont_slice_66_split
I0801 15:07:35.210572  3326 net.cpp:110] Creating Layer cont_67_lstm1_cont_slice_66_split
I0801 15:07:35.210577  3326 net.cpp:477] cont_67_lstm1_cont_slice_66_split <- cont_67
I0801 15:07:35.210584  3326 net.cpp:433] cont_67_lstm1_cont_slice_66_split -> cont_67_lstm1_cont_slice_66_split_0
I0801 15:07:35.210593  3326 net.cpp:433] cont_67_lstm1_cont_slice_66_split -> cont_67_lstm1_cont_slice_66_split_1
I0801 15:07:35.210603  3326 net.cpp:155] Setting up cont_67_lstm1_cont_slice_66_split
I0801 15:07:35.210610  3326 net.cpp:163] Top shape: 1 32 (32)
I0801 15:07:35.210618  3326 net.cpp:163] Top shape: 1 32 (32)
I0801 15:07:35.210623  3326 layer_factory.hpp:76] Creating layer cont_68_lstm1_cont_slice_67_split
I0801 15:07:35.210629  3326 net.cpp:110] Creating Layer cont_68_lstm1_cont_slice_67_split
I0801 15:07:35.210635  3326 net.cpp:477] cont_68_lstm1_cont_slice_67_split <- cont_68
I0801 15:07:35.210646  3326 net.cpp:433] cont_68_lstm1_cont_slice_67_split -> cont_68_lstm1_cont_slice_67_split_0
I0801 15:07:35.210656  3326 net.cpp:433] cont_68_lstm1_cont_slice_67_split -> cont_68_lstm1_cont_slice_67_split_1
I0801 15:07:35.210665  3326 net.cpp:155] Setting up cont_68_lstm1_cont_slice_67_split
I0801 15:07:35.210674  3326 net.cpp:163] Top shape: 1 32 (32)
I0801 15:07:35.210680  3326 net.cpp:163] Top shape: 1 32 (32)
I0801 15:07:35.210685  3326 layer_factory.hpp:76] Creating layer cont_69_lstm1_cont_slice_68_split
I0801 15:07:35.210692  3326 net.cpp:110] Creating Layer cont_69_lstm1_cont_slice_68_split
I0801 15:07:35.210698  3326 net.cpp:477] cont_69_lstm1_cont_slice_68_split <- cont_69
I0801 15:07:35.210705  3326 net.cpp:433] cont_69_lstm1_cont_slice_68_split -> cont_69_lstm1_cont_slice_68_split_0
I0801 15:07:35.210716  3326 net.cpp:433] cont_69_lstm1_cont_slice_68_split -> cont_69_lstm1_cont_slice_68_split_1
I0801 15:07:35.210737  3326 net.cpp:155] Setting up cont_69_lstm1_cont_slice_68_split
I0801 15:07:35.210747  3326 net.cpp:163] Top shape: 1 32 (32)
I0801 15:07:35.210767  3326 net.cpp:163] Top shape: 1 32 (32)
I0801 15:07:35.210772  3326 layer_factory.hpp:76] Creating layer cont_70_lstm1_cont_slice_69_split
I0801 15:07:35.210780  3326 net.cpp:110] Creating Layer cont_70_lstm1_cont_slice_69_split
I0801 15:07:35.210786  3326 net.cpp:477] cont_70_lstm1_cont_slice_69_split <- cont_70
I0801 15:07:35.210798  3326 net.cpp:433] cont_70_lstm1_cont_slice_69_split -> cont_70_lstm1_cont_slice_69_split_0
I0801 15:07:35.210808  3326 net.cpp:433] cont_70_lstm1_cont_slice_69_split -> cont_70_lstm1_cont_slice_69_split_1
I0801 15:07:35.210819  3326 net.cpp:155] Setting up cont_70_lstm1_cont_slice_69_split
I0801 15:07:35.210826  3326 net.cpp:163] Top shape: 1 32 (32)
I0801 15:07:35.210834  3326 net.cpp:163] Top shape: 1 32 (32)
I0801 15:07:35.210839  3326 layer_factory.hpp:76] Creating layer cont_71_lstm1_cont_slice_70_split
I0801 15:07:35.210846  3326 net.cpp:110] Creating Layer cont_71_lstm1_cont_slice_70_split
I0801 15:07:35.210852  3326 net.cpp:477] cont_71_lstm1_cont_slice_70_split <- cont_71
I0801 15:07:35.210860  3326 net.cpp:433] cont_71_lstm1_cont_slice_70_split -> cont_71_lstm1_cont_slice_70_split_0
I0801 15:07:35.210870  3326 net.cpp:433] cont_71_lstm1_cont_slice_70_split -> cont_71_lstm1_cont_slice_70_split_1
I0801 15:07:35.210880  3326 net.cpp:155] Setting up cont_71_lstm1_cont_slice_70_split
I0801 15:07:35.210888  3326 net.cpp:163] Top shape: 1 32 (32)
I0801 15:07:35.210896  3326 net.cpp:163] Top shape: 1 32 (32)
I0801 15:07:35.210901  3326 layer_factory.hpp:76] Creating layer cont_72_lstm1_cont_slice_71_split
I0801 15:07:35.210908  3326 net.cpp:110] Creating Layer cont_72_lstm1_cont_slice_71_split
I0801 15:07:35.210914  3326 net.cpp:477] cont_72_lstm1_cont_slice_71_split <- cont_72
I0801 15:07:35.210925  3326 net.cpp:433] cont_72_lstm1_cont_slice_71_split -> cont_72_lstm1_cont_slice_71_split_0
I0801 15:07:35.210943  3326 net.cpp:433] cont_72_lstm1_cont_slice_71_split -> cont_72_lstm1_cont_slice_71_split_1
I0801 15:07:35.210953  3326 net.cpp:155] Setting up cont_72_lstm1_cont_slice_71_split
I0801 15:07:35.210963  3326 net.cpp:163] Top shape: 1 32 (32)
I0801 15:07:35.210968  3326 net.cpp:163] Top shape: 1 32 (32)
I0801 15:07:35.210974  3326 layer_factory.hpp:76] Creating layer cont_73_lstm1_cont_slice_72_split
I0801 15:07:35.210983  3326 net.cpp:110] Creating Layer cont_73_lstm1_cont_slice_72_split
I0801 15:07:35.210988  3326 net.cpp:477] cont_73_lstm1_cont_slice_72_split <- cont_73
I0801 15:07:35.210996  3326 net.cpp:433] cont_73_lstm1_cont_slice_72_split -> cont_73_lstm1_cont_slice_72_split_0
I0801 15:07:35.211006  3326 net.cpp:433] cont_73_lstm1_cont_slice_72_split -> cont_73_lstm1_cont_slice_72_split_1
I0801 15:07:35.211015  3326 net.cpp:155] Setting up cont_73_lstm1_cont_slice_72_split
I0801 15:07:35.211024  3326 net.cpp:163] Top shape: 1 32 (32)
I0801 15:07:35.211030  3326 net.cpp:163] Top shape: 1 32 (32)
I0801 15:07:35.211036  3326 layer_factory.hpp:76] Creating layer cont_74_lstm1_cont_slice_73_split
I0801 15:07:35.211043  3326 net.cpp:110] Creating Layer cont_74_lstm1_cont_slice_73_split
I0801 15:07:35.211050  3326 net.cpp:477] cont_74_lstm1_cont_slice_73_split <- cont_74
I0801 15:07:35.211061  3326 net.cpp:433] cont_74_lstm1_cont_slice_73_split -> cont_74_lstm1_cont_slice_73_split_0
I0801 15:07:35.211071  3326 net.cpp:433] cont_74_lstm1_cont_slice_73_split -> cont_74_lstm1_cont_slice_73_split_1
I0801 15:07:35.211081  3326 net.cpp:155] Setting up cont_74_lstm1_cont_slice_73_split
I0801 15:07:35.211102  3326 net.cpp:163] Top shape: 1 32 (32)
I0801 15:07:35.211108  3326 net.cpp:163] Top shape: 1 32 (32)
I0801 15:07:35.211114  3326 layer_factory.hpp:76] Creating layer cont_75_lstm1_cont_slice_74_split
I0801 15:07:35.211122  3326 net.cpp:110] Creating Layer cont_75_lstm1_cont_slice_74_split
I0801 15:07:35.211127  3326 net.cpp:477] cont_75_lstm1_cont_slice_74_split <- cont_75
I0801 15:07:35.211139  3326 net.cpp:433] cont_75_lstm1_cont_slice_74_split -> cont_75_lstm1_cont_slice_74_split_0
I0801 15:07:35.211176  3326 net.cpp:433] cont_75_lstm1_cont_slice_74_split -> cont_75_lstm1_cont_slice_74_split_1
I0801 15:07:35.211187  3326 net.cpp:155] Setting up cont_75_lstm1_cont_slice_74_split
I0801 15:07:35.211195  3326 net.cpp:163] Top shape: 1 32 (32)
I0801 15:07:35.211202  3326 net.cpp:163] Top shape: 1 32 (32)
I0801 15:07:35.211208  3326 layer_factory.hpp:76] Creating layer cont_76_lstm1_cont_slice_75_split
I0801 15:07:35.211215  3326 net.cpp:110] Creating Layer cont_76_lstm1_cont_slice_75_split
I0801 15:07:35.211221  3326 net.cpp:477] cont_76_lstm1_cont_slice_75_split <- cont_76
I0801 15:07:35.211230  3326 net.cpp:433] cont_76_lstm1_cont_slice_75_split -> cont_76_lstm1_cont_slice_75_split_0
I0801 15:07:35.211243  3326 net.cpp:433] cont_76_lstm1_cont_slice_75_split -> cont_76_lstm1_cont_slice_75_split_1
I0801 15:07:35.211254  3326 net.cpp:155] Setting up cont_76_lstm1_cont_slice_75_split
I0801 15:07:35.211262  3326 net.cpp:163] Top shape: 1 32 (32)
I0801 15:07:35.211269  3326 net.cpp:163] Top shape: 1 32 (32)
I0801 15:07:35.211275  3326 layer_factory.hpp:76] Creating layer cont_77_lstm1_cont_slice_76_split
I0801 15:07:35.211283  3326 net.cpp:110] Creating Layer cont_77_lstm1_cont_slice_76_split
I0801 15:07:35.211289  3326 net.cpp:477] cont_77_lstm1_cont_slice_76_split <- cont_77
I0801 15:07:35.211297  3326 net.cpp:433] cont_77_lstm1_cont_slice_76_split -> cont_77_lstm1_cont_slice_76_split_0
I0801 15:07:35.211308  3326 net.cpp:433] cont_77_lstm1_cont_slice_76_split -> cont_77_lstm1_cont_slice_76_split_1
I0801 15:07:35.211318  3326 net.cpp:155] Setting up cont_77_lstm1_cont_slice_76_split
I0801 15:07:35.211324  3326 net.cpp:163] Top shape: 1 32 (32)
I0801 15:07:35.211331  3326 net.cpp:163] Top shape: 1 32 (32)
I0801 15:07:35.211338  3326 layer_factory.hpp:76] Creating layer cont_78_lstm1_cont_slice_77_split
I0801 15:07:35.211344  3326 net.cpp:110] Creating Layer cont_78_lstm1_cont_slice_77_split
I0801 15:07:35.211350  3326 net.cpp:477] cont_78_lstm1_cont_slice_77_split <- cont_78
I0801 15:07:35.211359  3326 net.cpp:433] cont_78_lstm1_cont_slice_77_split -> cont_78_lstm1_cont_slice_77_split_0
I0801 15:07:35.211371  3326 net.cpp:433] cont_78_lstm1_cont_slice_77_split -> cont_78_lstm1_cont_slice_77_split_1
I0801 15:07:35.211382  3326 net.cpp:155] Setting up cont_78_lstm1_cont_slice_77_split
I0801 15:07:35.211390  3326 net.cpp:163] Top shape: 1 32 (32)
I0801 15:07:35.211397  3326 net.cpp:163] Top shape: 1 32 (32)
I0801 15:07:35.211403  3326 layer_factory.hpp:76] Creating layer cont_79_lstm1_cont_slice_78_split
I0801 15:07:35.211411  3326 net.cpp:110] Creating Layer cont_79_lstm1_cont_slice_78_split
I0801 15:07:35.211417  3326 net.cpp:477] cont_79_lstm1_cont_slice_78_split <- cont_79
I0801 15:07:35.211426  3326 net.cpp:433] cont_79_lstm1_cont_slice_78_split -> cont_79_lstm1_cont_slice_78_split_0
I0801 15:07:35.211436  3326 net.cpp:433] cont_79_lstm1_cont_slice_78_split -> cont_79_lstm1_cont_slice_78_split_1
I0801 15:07:35.211446  3326 net.cpp:155] Setting up cont_79_lstm1_cont_slice_78_split
I0801 15:07:35.211452  3326 net.cpp:163] Top shape: 1 32 (32)
I0801 15:07:35.211472  3326 net.cpp:163] Top shape: 1 32 (32)
I0801 15:07:35.211479  3326 layer_factory.hpp:76] Creating layer cont_80_lstm1_cont_slice_79_split
I0801 15:07:35.211485  3326 net.cpp:110] Creating Layer cont_80_lstm1_cont_slice_79_split
I0801 15:07:35.211493  3326 net.cpp:477] cont_80_lstm1_cont_slice_79_split <- cont_80
I0801 15:07:35.211499  3326 net.cpp:433] cont_80_lstm1_cont_slice_79_split -> cont_80_lstm1_cont_slice_79_split_0
I0801 15:07:35.211515  3326 net.cpp:433] cont_80_lstm1_cont_slice_79_split -> cont_80_lstm1_cont_slice_79_split_1
I0801 15:07:35.211526  3326 net.cpp:155] Setting up cont_80_lstm1_cont_slice_79_split
I0801 15:07:35.211534  3326 net.cpp:163] Top shape: 1 32 (32)
I0801 15:07:35.211541  3326 net.cpp:163] Top shape: 1 32 (32)
I0801 15:07:35.211546  3326 layer_factory.hpp:76] Creating layer lstm1_x_transform
I0801 15:07:35.211560  3326 net.cpp:110] Creating Layer lstm1_x_transform
I0801 15:07:35.211575  3326 net.cpp:477] lstm1_x_transform <- x
I0801 15:07:35.211585  3326 net.cpp:433] lstm1_x_transform -> W_xc_x
I0801 15:07:35.235338  3326 net.cpp:155] Setting up lstm1_x_transform
I0801 15:07:35.235361  3326 net.cpp:163] Top shape: 80 32 4000 (10240000)
I0801 15:07:35.235391  3326 layer_factory.hpp:76] Creating layer lstm1_W_xc_x_slice
I0801 15:07:35.235414  3326 net.cpp:110] Creating Layer lstm1_W_xc_x_slice
I0801 15:07:35.235421  3326 net.cpp:477] lstm1_W_xc_x_slice <- W_xc_x
I0801 15:07:35.235438  3326 net.cpp:433] lstm1_W_xc_x_slice -> W_xc_x_1
I0801 15:07:35.235460  3326 net.cpp:433] lstm1_W_xc_x_slice -> W_xc_x_2
I0801 15:07:35.235481  3326 net.cpp:433] lstm1_W_xc_x_slice -> W_xc_x_3
…
I0801 15:07:35.236965  3326 net.cpp:433] lstm1_W_xc_x_slice -> W_xc_x_74
I0801 15:07:35.236984  3326 net.cpp:433] lstm1_W_xc_x_slice -> W_xc_x_75
I0801 15:07:35.237004  3326 net.cpp:433] lstm1_W_xc_x_slice -> W_xc_x_76
I0801 15:07:35.237021  3326 net.cpp:433] lstm1_W_xc_x_slice -> W_xc_x_77
I0801 15:07:35.237040  3326 net.cpp:433] lstm1_W_xc_x_slice -> W_xc_x_78
I0801 15:07:35.237059  3326 net.cpp:433] lstm1_W_xc_x_slice -> W_xc_x_79
I0801 15:07:35.237078  3326 net.cpp:433] lstm1_W_xc_x_slice -> W_xc_x_80
I0801 15:07:35.237125  3326 net.cpp:155] Setting up lstm1_W_xc_x_slice
I0801 15:07:35.237135  3326 net.cpp:163] Top shape: 1 32 4000 (128000)
I0801 15:07:35.237143  3326 net.cpp:163] Top shape: 1 32 4000 (128000)
I0801 15:07:35.237149  3326 net.cpp:163] Top shape: 1 32 4000 (128000)
I0801 15:07:35.237156  3326 net.cpp:163] Top shape: 1 32 4000 (128000)
I0801 15:07:35.237164  3326 net.cpp:163] Top shape: 1 32 4000 (128000)
I0801 15:07:35.237184  3326 net.cpp:163] Top shape: 1 32 4000 (128000)
I0801 15:07:35.237190  3326 net.cpp:163] Top shape: 1 32 4000 (128000)
I0801 15:07:35.237196  3326 net.cpp:163] Top shape: 1 32 4000 (128000)
I0801 15:07:35.237202  3326 net.cpp:163] Top shape: 1 32 4000 (128000)
I0801 15:07:35.237210  3326 net.cpp:163] Top shape: 1 32 4000 (128000)
I0801 15:07:35.237215  3326 net.cpp:163] Top shape: 1 32 4000 (128000)
I0801 15:07:35.237222  3326 net.cpp:163] Top shape: 1 32 4000 (128000)
I0801 15:07:35.237241  3326 net.cpp:163] Top shape: 1 32 4000 (128000)
I0801 15:07:35.237249  3326 net.cpp:163] Top shape: 1 32 4000 (128000)
I0801 15:07:35.237257  3326 net.cpp:163] Top shape: 1 32 4000 (128000)
I0801 15:07:35.237262  3326 net.cpp:163] Top shape: 1 32 4000 (128000)
I0801 15:07:35.237269  3326 net.cpp:163] Top shape: 1 32 4000 (128000)
I0801 15:07:35.237277  3326 net.cpp:163] Top shape: 1 32 4000 (128000)
I0801 15:07:35.237283  3326 net.cpp:163] Top shape: 1 32 4000 (128000)
I0801 15:07:35.237290  3326 net.cpp:163] Top shape: 1 32 4000 (128000)
I0801 15:07:35.237296  3326 net.cpp:163] Top shape: 1 32 4000 (128000)
I0801 15:07:35.237303  3326 net.cpp:163] Top shape: 1 32 4000 (128000)
I0801 15:07:35.237310  3326 net.cpp:163] Top shape: 1 32 4000 (128000)
I0801 15:07:35.237316  3326 net.cpp:163] Top shape: 1 32 4000 (128000)
I0801 15:07:35.237326  3326 net.cpp:163] Top shape: 1 32 4000 (128000)
I0801 15:07:35.237345  3326 net.cpp:163] Top shape: 1 32 4000 (128000)
I0801 15:07:35.237352  3326 net.cpp:163] Top shape: 1 32 4000 (128000)
I0801 15:07:35.237360  3326 net.cpp:163] Top shape: 1 32 4000 (128000)
I0801 15:07:35.237366  3326 net.cpp:163] Top shape: 1 32 4000 (128000)
I0801 15:07:35.237373  3326 net.cpp:163] Top shape: 1 32 4000 (128000)
I0801 15:07:35.237380  3326 net.cpp:163] Top shape: 1 32 4000 (128000)
I0801 15:07:35.237387  3326 net.cpp:163] Top shape: 1 32 4000 (128000)
I0801 15:07:35.237393  3326 net.cpp:163] Top shape: 1 32 4000 (128000)
I0801 15:07:35.237401  3326 net.cpp:163] Top shape: 1 32 4000 (128000)
I0801 15:07:35.237407  3326 net.cpp:163] Top shape: 1 32 4000 (128000)
I0801 15:07:35.237414  3326 net.cpp:163] Top shape: 1 32 4000 (128000)
I0801 15:07:35.237421  3326 net.cpp:163] Top shape: 1 32 4000 (128000)
I0801 15:07:35.237427  3326 net.cpp:163] Top shape: 1 32 4000 (128000)
I0801 15:07:35.237434  3326 net.cpp:163] Top shape: 1 32 4000 (128000)
I0801 15:07:35.237440  3326 net.cpp:163] Top shape: 1 32 4000 (128000)
I0801 15:07:35.237447  3326 net.cpp:163] Top shape: 1 32 4000 (128000)
I0801 15:07:35.237453  3326 net.cpp:163] Top shape: 1 32 4000 (128000)
I0801 15:07:35.237460  3326 net.cpp:163] Top shape: 1 32 4000 (128000)
I0801 15:07:35.237468  3326 net.cpp:163] Top shape: 1 32 4000 (128000)
I0801 15:07:35.237473  3326 net.cpp:163] Top shape: 1 32 4000 (128000)
I0801 15:07:35.237480  3326 net.cpp:163] Top shape: 1 32 4000 (128000)
I0801 15:07:35.237486  3326 net.cpp:163] Top shape: 1 32 4000 (128000)
I0801 15:07:35.237493  3326 net.cpp:163] Top shape: 1 32 4000 (128000)
I0801 15:07:35.237500  3326 net.cpp:163] Top shape: 1 32 4000 (128000)
I0801 15:07:35.237506  3326 net.cpp:163] Top shape: 1 32 4000 (128000)
I0801 15:07:35.237514  3326 net.cpp:163] Top shape: 1 32 4000 (128000)
I0801 15:07:35.237520  3326 net.cpp:163] Top shape: 1 32 4000 (128000)
I0801 15:07:35.237527  3326 net.cpp:163] Top shape: 1 32 4000 (128000)
I0801 15:07:35.237534  3326 net.cpp:163] Top shape: 1 32 4000 (128000)
I0801 15:07:35.237560  3326 net.cpp:163] Top shape: 1 32 4000 (128000)
I0801 15:07:35.237567  3326 net.cpp:163] Top shape: 1 32 4000 (128000)
I0801 15:07:35.237573  3326 net.cpp:163] Top shape: 1 32 4000 (128000)
I0801 15:07:35.237581  3326 net.cpp:163] Top shape: 1 32 4000 (128000)
I0801 15:07:35.237586  3326 net.cpp:163] Top shape: 1 32 4000 (128000)
I0801 15:07:35.237593  3326 net.cpp:163] Top shape: 1 32 4000 (128000)
I0801 15:07:35.237599  3326 net.cpp:163] Top shape: 1 32 4000 (128000)
I0801 15:07:35.237607  3326 net.cpp:163] Top shape: 1 32 4000 (128000)
I0801 15:07:35.237612  3326 net.cpp:163] Top shape: 1 32 4000 (128000)
I0801 15:07:35.237619  3326 net.cpp:163] Top shape: 1 32 4000 (128000)
I0801 15:07:35.237625  3326 net.cpp:163] Top shape: 1 32 4000 (128000)
I0801 15:07:35.237632  3326 net.cpp:163] Top shape: 1 32 4000 (128000)
I0801 15:07:35.237638  3326 net.cpp:163] Top shape: 1 32 4000 (128000)
I0801 15:07:35.237645  3326 net.cpp:163] Top shape: 1 32 4000 (128000)
I0801 15:07:35.237651  3326 net.cpp:163] Top shape: 1 32 4000 (128000)
I0801 15:07:35.237658  3326 net.cpp:163] Top shape: 1 32 4000 (128000)
I0801 15:07:35.237664  3326 net.cpp:163] Top shape: 1 32 4000 (128000)
I0801 15:07:35.237671  3326 net.cpp:163] Top shape: 1 32 4000 (128000)
I0801 15:07:35.237678  3326 net.cpp:163] Top shape: 1 32 4000 (128000)
I0801 15:07:35.237684  3326 net.cpp:163] Top shape: 1 32 4000 (128000)
I0801 15:07:35.237690  3326 net.cpp:163] Top shape: 1 32 4000 (128000)
I0801 15:07:35.237699  3326 net.cpp:163] Top shape: 1 32 4000 (128000)
I0801 15:07:35.237705  3326 net.cpp:163] Top shape: 1 32 4000 (128000)
I0801 15:07:35.237711  3326 net.cpp:163] Top shape: 1 32 4000 (128000)
I0801 15:07:35.237718  3326 net.cpp:163] Top shape: 1 32 4000 (128000)
I0801 15:07:35.237725  3326 net.cpp:163] Top shape: 1 32 4000 (128000)
I0801 15:07:35.237731  3326 layer_factory.hpp:76] Creating layer lstm1_h_conted_0
I0801 15:07:35.237746  3326 net.cpp:110] Creating Layer lstm1_h_conted_0
I0801 15:07:35.237756  3326 net.cpp:477] lstm1_h_conted_0 <- h_0
I0801 15:07:35.237774  3326 net.cpp:477] lstm1_h_conted_0 <- cont_1_lstm1_cont_slice_0_split_0
I0801 15:07:35.237789  3326 net.cpp:433] lstm1_h_conted_0 -> h_conted_0
I0801 15:07:35.237835  3326 net.cpp:155] Setting up lstm1_h_conted_0
I0801 15:07:35.237848  3326 net.cpp:163] Top shape: 1 32 1000 (32000)
I0801 15:07:35.237854  3326 layer_factory.hpp:76] Creating layer lstm1_transform_1
I0801 15:07:35.237864  3326 net.cpp:110] Creating Layer lstm1_transform_1
I0801 15:07:35.237869  3326 net.cpp:477] lstm1_transform_1 <- h_conted_0
I0801 15:07:35.237882  3326 net.cpp:433] lstm1_transform_1 -> W_hc_h_0
I0801 15:07:35.281707  3326 net.cpp:155] Setting up lstm1_transform_1
I0801 15:07:35.281752  3326 net.cpp:163] Top shape: 1 32 4000 (128000)
I0801 15:07:35.281775  3326 layer_factory.hpp:76] Creating layer lstm1_gate_input_1
I0801 15:07:35.281808  3326 net.cpp:110] Creating Layer lstm1_gate_input_1
I0801 15:07:35.281818  3326 net.cpp:477] lstm1_gate_input_1 <- W_hc_h_0
I0801 15:07:35.281829  3326 net.cpp:477] lstm1_gate_input_1 <- W_xc_x_1
I0801 15:07:35.281841  3326 net.cpp:433] lstm1_gate_input_1 -> gate_input_1
I0801 15:07:35.281867  3326 net.cpp:155] Setting up lstm1_gate_input_1
I0801 15:07:35.281877  3326 net.cpp:163] Top shape: 1 32 4000 (128000)
I0801 15:07:35.281883  3326 layer_factory.hpp:76] Creating layer lstm1_unit_1
I0801 15:07:35.281895  3326 net.cpp:110] Creating Layer lstm1_unit_1
I0801 15:07:35.281904  3326 net.cpp:477] lstm1_unit_1 <- c_0
I0801 15:07:35.281913  3326 net.cpp:477] lstm1_unit_1 <- gate_input_1
I0801 15:07:35.281922  3326 net.cpp:477] lstm1_unit_1 <- cont_1_lstm1_cont_slice_0_split_1
I0801 15:07:35.281932  3326 net.cpp:433] lstm1_unit_1 -> c_1
I0801 15:07:35.281944  3326 net.cpp:433] lstm1_unit_1 -> h_1
I0801 15:07:35.281968  3326 net.cpp:155] Setting up lstm1_unit_1
I0801 15:07:35.281977  3326 net.cpp:163] Top shape: 1 32 1000 (32000)
I0801 15:07:35.281985  3326 net.cpp:163] Top shape: 1 32 1000 (32000)
I0801 15:07:35.281991  3326 layer_factory.hpp:76] Creating layer h_1_lstm1_unit_1_1_split
I0801 15:07:35.282001  3326 net.cpp:110] Creating Layer h_1_lstm1_unit_1_1_split
I0801 15:07:35.282006  3326 net.cpp:477] h_1_lstm1_unit_1_1_split <- h_1
I0801 15:07:35.282034  3326 net.cpp:433] h_1_lstm1_unit_1_1_split -> h_1_lstm1_unit_1_1_split_0
I0801 15:07:35.282047  3326 net.cpp:433] h_1_lstm1_unit_1_1_split -> h_1_lstm1_unit_1_1_split_1
I0801 15:07:35.282058  3326 net.cpp:155] Setting up h_1_lstm1_unit_1_1_split
I0801 15:07:35.282066  3326 net.cpp:163] Top shape: 1 32 1000 (32000)
I0801 15:07:35.282073  3326 net.cpp:163] Top shape: 1 32 1000 (32000)
I0801 15:07:35.282079  3326 layer_factory.hpp:76] Creating layer lstm1_h_conted_1
I0801 15:07:35.282089  3326 net.cpp:110] Creating Layer lstm1_h_conted_1
I0801 15:07:35.282096  3326 net.cpp:477] lstm1_h_conted_1 <- h_1_lstm1_unit_1_1_split_0
I0801 15:07:35.282105  3326 net.cpp:477] lstm1_h_conted_1 <- cont_2_lstm1_cont_slice_1_split_0
I0801 15:07:35.282115  3326 net.cpp:433] lstm1_h_conted_1 -> h_conted_1
I0801 15:07:35.282184  3326 net.cpp:155] Setting up lstm1_h_conted_1
I0801 15:07:35.282196  3326 net.cpp:163] Top shape: 1 32 1000 (32000)
I0801 15:07:35.282202  3326 layer_factory.hpp:76] Creating layer lstm1_transform_2
I0801 15:07:35.282217  3326 net.cpp:110] Creating Layer lstm1_transform_2
I0801 15:07:35.282225  3326 net.cpp:477] lstm1_transform_2 <- h_conted_1
I0801 15:07:35.282234  3326 net.cpp:433] lstm1_transform_2 -> W_hc_h_1
I0801 15:07:35.325309  3326 net.cpp:155] Setting up lstm1_transform_2
I0801 15:07:35.325364  3326 net.cpp:163] Top shape: 1 32 4000 (128000)
I0801 15:07:35.325378  3326 net.cpp:537] Sharing parameters 'W_hc' owned by layer 'lstm1_transform_1', param index 0
I0801 15:07:35.325387  3326 layer_factory.hpp:76] Creating layer lstm1_gate_input_2
I0801 15:07:35.325412  3326 net.cpp:110] Creating Layer lstm1_gate_input_2
I0801 15:07:35.325420  3326 net.cpp:477] lstm1_gate_input_2 <- W_hc_h_1
I0801 15:07:35.325431  3326 net.cpp:477] lstm1_gate_input_2 <- W_xc_x_2
I0801 15:07:35.325449  3326 net.cpp:433] lstm1_gate_input_2 -> gate_input_2
I0801 15:07:35.325498  3326 net.cpp:155] Setting up lstm1_gate_input_2
I0801 15:07:35.325507  3326 net.cpp:163] Top shape: 1 32 4000 (128000)
I0801 15:07:35.325515  3326 layer_factory.hpp:76] Creating layer lstm1_unit_2
I0801 15:07:35.325527  3326 net.cpp:110] Creating Layer lstm1_unit_2
I0801 15:07:35.325536  3326 net.cpp:477] lstm1_unit_2 <- c_1
I0801 15:07:35.325544  3326 net.cpp:477] lstm1_unit_2 <- gate_input_2
I0801 15:07:35.325553  3326 net.cpp:477] lstm1_unit_2 <- cont_2_lstm1_cont_slice_1_split_1
I0801 15:07:35.325563  3326 net.cpp:433] lstm1_unit_2 -> c_2
I0801 15:07:35.325573  3326 net.cpp:433] lstm1_unit_2 -> h_2
I0801 15:07:35.325587  3326 net.cpp:155] Setting up lstm1_unit_2
I0801 15:07:35.325594  3326 net.cpp:163] Top shape: 1 32 1000 (32000)
I0801 15:07:35.325601  3326 net.cpp:163] Top shape: 1 32 1000 (32000)
I0801 15:07:35.325608  3326 layer_factory.hpp:76] Creating layer h_2_lstm1_unit_2_1_split
I0801 15:07:35.325618  3326 net.cpp:110] Creating Layer h_2_lstm1_unit_2_1_split
I0801 15:07:35.325623  3326 net.cpp:477] h_2_lstm1_unit_2_1_split <- h_2
I0801 15:07:35.325631  3326 net.cpp:433] h_2_lstm1_unit_2_1_split -> h_2_lstm1_unit_2_1_split_0
I0801 15:07:35.325642  3326 net.cpp:433] h_2_lstm1_unit_2_1_split -> h_2_lstm1_unit_2_1_split_1
I0801 15:07:35.325654  3326 net.cpp:155] Setting up h_2_lstm1_unit_2_1_split
I0801 15:07:35.325661  3326 net.cpp:163] Top shape: 1 32 1000 (32000)
I0801 15:07:35.325669  3326 net.cpp:163] Top shape: 1 32 1000 (32000)
I0801 15:07:35.325675  3326 layer_factory.hpp:76] Creating layer lstm1_h_conted_2
I0801 15:07:35.325688  3326 net.cpp:110] Creating Layer lstm1_h_conted_2
I0801 15:07:35.325695  3326 net.cpp:477] lstm1_h_conted_2 <- h_2_lstm1_unit_2_1_split_0
I0801 15:07:35.325705  3326 net.cpp:477] lstm1_h_conted_2 <- cont_3_lstm1_cont_slice_2_split_0
I0801 15:07:35.325714  3326 net.cpp:433] lstm1_h_conted_2 -> h_conted_2
I0801 15:07:35.325786  3326 net.cpp:155] Setting up lstm1_h_conted_2
I0801 15:07:35.325798  3326 net.cpp:163] Top shape: 1 32 1000 (32000)
I0801 15:07:35.325804  3326 layer_factory.hpp:76] Creating layer lstm1_transform_3
I0801 15:07:35.325820  3326 net.cpp:110] Creating Layer lstm1_transform_3
I0801 15:07:35.325827  3326 net.cpp:477] lstm1_transform_3 <- h_conted_2
I0801 15:07:35.325839  3326 net.cpp:433] lstm1_transform_3 -> W_hc_h_2
I0801 15:07:35.369916  3326 net.cpp:155] Setting up lstm1_transform_3
I0801 15:07:35.369961  3326 net.cpp:163] Top shape: 1 32 4000 (128000)
I0801 15:07:35.369977  3326 net.cpp:537] Sharing parameters 'W_hc' owned by layer 'lstm1_transform_1', param index 0
I0801 15:07:35.369988  3326 layer_factory.hpp:76] Creating layer lstm1_gate_input_3
I0801 15:07:35.370003  3326 net.cpp:110] Creating Layer lstm1_gate_input_3
I0801 15:07:35.370012  3326 net.cpp:477] lstm1_gate_input_3 <- W_hc_h_2
I0801 15:07:35.370023  3326 net.cpp:477] lstm1_gate_input_3 <- W_xc_x_3
I0801 15:07:35.370034  3326 net.cpp:433] lstm1_gate_input_3 -> gate_input_3
I0801 15:07:35.370054  3326 net.cpp:155] Setting up lstm1_gate_input_3
I0801 15:07:35.370064  3326 net.cpp:163] Top shape: 1 32 4000 (128000)
I0801 15:07:35.370069  3326 layer_factory.hpp:76] Creating layer lstm1_unit_3
I0801 15:07:35.370079  3326 net.cpp:110] Creating Layer lstm1_unit_3
I0801 15:07:35.370087  3326 net.cpp:477] lstm1_unit_3 <- c_2
I0801 15:07:35.370095  3326 net.cpp:477] lstm1_unit_3 <- gate_input_3
I0801 15:07:35.370105  3326 net.cpp:477] lstm1_unit_3 <- cont_3_lstm1_cont_slice_2_split_1
I0801 15:07:35.370117  3326 net.cpp:433] lstm1_unit_3 -> c_3
I0801 15:07:35.370129  3326 net.cpp:433] lstm1_unit_3 -> h_3
I0801 15:07:35.370141  3326 net.cpp:155] Setting up lstm1_unit_3
I0801 15:07:35.370151  3326 net.cpp:163] Top shape: 1 32 1000 (32000)
I0801 15:07:35.370157  3326 net.cpp:163] Top shape: 1 32 1000 (32000)
I0801 15:07:35.370163  3326 layer_factory.hpp:76] Creating layer h_3_lstm1_unit_3_1_split
I0801 15:07:35.370173  3326 net.cpp:110] Creating Layer h_3_lstm1_unit_3_1_split
I0801 15:07:35.370185  3326 net.cpp:477] h_3_lstm1_unit_3_1_split <- h_3
I0801 15:07:35.370246  3326 net.cpp:433] h_3_lstm1_unit_3_1_split -> h_3_lstm1_unit_3_1_split_0
I0801 15:07:35.370257  3326 net.cpp:433] h_3_lstm1_unit_3_1_split -> h_3_lstm1_unit_3_1_split_1
I0801 15:07:35.370270  3326 net.cpp:155] Setting up h_3_lstm1_unit_3_1_split
I0801 15:07:35.370277  3326 net.cpp:163] Top shape: 1 32 1000 (32000)
I0801 15:07:35.370285  3326 net.cpp:163] Top shape: 1 32 1000 (32000)
I0801 15:07:35.370291  3326 layer_factory.hpp:76] Creating layer lstm1_h_conted_3
I0801 15:07:35.370301  3326 net.cpp:110] Creating Layer lstm1_h_conted_3
I0801 15:07:35.370307  3326 net.cpp:477] lstm1_h_conted_3 <- h_3_lstm1_unit_3_1_split_0
I0801 15:07:35.370316  3326 net.cpp:477] lstm1_h_conted_3 <- cont_4_lstm1_cont_slice_3_split_0
I0801 15:07:35.370331  3326 net.cpp:433] lstm1_h_conted_3 -> h_conted_3
I0801 15:07:35.370394  3326 net.cpp:155] Setting up lstm1_h_conted_3
I0801 15:07:35.370405  3326 net.cpp:163] Top shape: 1 32 1000 (32000)
I0801 15:07:35.370411  3326 layer_factory.hpp:76] Creating layer lstm1_transform_4
I0801 15:07:35.370424  3326 net.cpp:110] Creating Layer lstm1_transform_4
I0801 15:07:35.370430  3326 net.cpp:477] lstm1_transform_4 <- h_conted_3
I0801 15:07:35.370443  3326 net.cpp:433] lstm1_transform_4 -> W_hc_h_3
I0801 15:07:35.413725  3326 net.cpp:155] Setting up lstm1_transform_4
I0801 15:07:35.413770  3326 net.cpp:163] Top shape: 1 32 4000 (128000)
I0801 15:07:35.413784  3326 net.cpp:537] Sharing parameters 'W_hc' owned by layer 'lstm1_transform_1', param index 0
I0801 15:07:35.413792  3326 layer_factory.hpp:76] Creating layer lstm1_gate_input_4
I0801 15:07:35.413833  3326 net.cpp:110] Creating Layer lstm1_gate_input_4
I0801 15:07:35.413843  3326 net.cpp:477] lstm1_gate_input_4 <- W_hc_h_3
I0801 15:07:35.413856  3326 net.cpp:477] lstm1_gate_input_4 <- W_xc_x_4
I0801 15:07:35.413867  3326 net.cpp:433] lstm1_gate_input_4 -> gate_input_4
I0801 15:07:35.413887  3326 net.cpp:155] Setting up lstm1_gate_input_4
I0801 15:07:35.413894  3326 net.cpp:163] Top shape: 1 32 4000 (128000)
I0801 15:07:35.413900  3326 layer_factory.hpp:76] Creating layer lstm1_unit_4
I0801 15:07:35.413909  3326 net.cpp:110] Creating Layer lstm1_unit_4
I0801 15:07:35.413918  3326 net.cpp:477] lstm1_unit_4 <- c_3
I0801 15:07:35.413924  3326 net.cpp:477] lstm1_unit_4 <- gate_input_4
I0801 15:07:35.413933  3326 net.cpp:477] lstm1_unit_4 <- cont_4_lstm1_cont_slice_3_split_1
I0801 15:07:35.413944  3326 net.cpp:433] lstm1_unit_4 -> c_4
I0801 15:07:35.413954  3326 net.cpp:433] lstm1_unit_4 -> h_4
I0801 15:07:35.413964  3326 net.cpp:155] Setting up lstm1_unit_4
I0801 15:07:35.413972  3326 net.cpp:163] Top shape: 1 32 1000 (32000)
I0801 15:07:35.413978  3326 net.cpp:163] Top shape: 1 32 1000 (32000)
I0801 15:07:35.413985  3326 layer_factory.hpp:76] Creating layer h_4_lstm1_unit_4_1_split
I0801 15:07:35.413992  3326 net.cpp:110] Creating Layer h_4_lstm1_unit_4_1_split
I0801 15:07:35.413998  3326 net.cpp:477] h_4_lstm1_unit_4_1_split <- h_4
I0801 15:07:35.414011  3326 net.cpp:433] h_4_lstm1_unit_4_1_split -> h_4_lstm1_unit_4_1_split_0
I0801 15:07:35.414021  3326 net.cpp:433] h_4_lstm1_unit_4_1_split -> h_4_lstm1_unit_4_1_split_1
I0801 15:07:35.414032  3326 net.cpp:155] Setting up h_4_lstm1_unit_4_1_split
I0801 15:07:35.414039  3326 net.cpp:163] Top shape: 1 32 1000 (32000)
I0801 15:07:35.414047  3326 net.cpp:163] Top shape: 1 32 1000 (32000)
I0801 15:07:35.414052  3326 layer_factory.hpp:76] Creating layer lstm1_h_conted_4
I0801 15:07:35.414062  3326 net.cpp:110] Creating Layer lstm1_h_conted_4
I0801 15:07:35.414067  3326 net.cpp:477] lstm1_h_conted_4 <- h_4_lstm1_unit_4_1_split_0
I0801 15:07:35.414077  3326 net.cpp:477] lstm1_h_conted_4 <- cont_5_lstm1_cont_slice_4_split_0
I0801 15:07:35.414085  3326 net.cpp:433] lstm1_h_conted_4 -> h_conted_4
I0801 15:07:35.414152  3326 net.cpp:155] Setting up lstm1_h_conted_4
I0801 15:07:35.414163  3326 net.cpp:163] Top shape: 1 32 1000 (32000)
I0801 15:07:35.414170  3326 layer_factory.hpp:76] Creating layer lstm1_transform_5
I0801 15:07:35.414186  3326 net.cpp:110] Creating Layer lstm1_transform_5
I0801 15:07:35.414233  3326 net.cpp:477] lstm1_transform_5 <- h_conted_4
I0801 15:07:35.414244  3326 net.cpp:433] lstm1_transform_5 -> W_hc_h_4
I0801 15:07:35.457752  3326 net.cpp:155] Setting up lstm1_transform_5
I0801 15:07:35.457793  3326 net.cpp:163] Top shape: 1 32 4000 (128000)
I0801 15:07:35.457805  3326 net.cpp:537] Sharing parameters 'W_hc' owned by layer 'lstm1_transform_1', param index 0
I0801 15:07:35.457813  3326 layer_factory.hpp:76] Creating layer lstm1_gate_input_5
I0801 15:07:35.457828  3326 net.cpp:110] Creating Layer lstm1_gate_input_5
I0801 15:07:35.457836  3326 net.cpp:477] lstm1_gate_input_5 <- W_hc_h_4
I0801 15:07:35.457847  3326 net.cpp:477] lstm1_gate_input_5 <- W_xc_x_5
I0801 15:07:35.457859  3326 net.cpp:433] lstm1_gate_input_5 -> gate_input_5
I0801 15:07:35.457876  3326 net.cpp:155] Setting up lstm1_gate_input_5
I0801 15:07:35.457885  3326 net.cpp:163] Top shape: 1 32 4000 (128000)
I0801 15:07:35.457890  3326 layer_factory.hpp:76] Creating layer lstm1_unit_5
I0801 15:07:35.457916  3326 net.cpp:110] Creating Layer lstm1_unit_5
I0801 15:07:35.457923  3326 net.cpp:477] lstm1_unit_5 <- c_4
I0801 15:07:35.457931  3326 net.cpp:477] lstm1_unit_5 <- gate_input_5
I0801 15:07:35.457940  3326 net.cpp:477] lstm1_unit_5 <- cont_5_lstm1_cont_slice_4_split_1
I0801 15:07:35.457950  3326 net.cpp:433] lstm1_unit_5 -> c_5
I0801 15:07:35.457974  3326 net.cpp:433] lstm1_unit_5 -> h_5
I0801 15:07:35.457986  3326 net.cpp:155] Setting up lstm1_unit_5
I0801 15:07:35.457995  3326 net.cpp:163] Top shape: 1 32 1000 (32000)
I0801 15:07:35.458003  3326 net.cpp:163] Top shape: 1 32 1000 (32000)
I0801 15:07:35.458009  3326 layer_factory.hpp:76] Creating layer h_5_lstm1_unit_5_1_split
I0801 15:07:35.458027  3326 net.cpp:110] Creating Layer h_5_lstm1_unit_5_1_split
I0801 15:07:35.458034  3326 net.cpp:477] h_5_lstm1_unit_5_1_split <- h_5
I0801 15:07:35.458042  3326 net.cpp:433] h_5_lstm1_unit_5_1_split -> h_5_lstm1_unit_5_1_split_0
I0801 15:07:35.458053  3326 net.cpp:433] h_5_lstm1_unit_5_1_split -> h_5_lstm1_unit_5_1_split_1
I0801 15:07:35.458065  3326 net.cpp:155] Setting up h_5_lstm1_unit_5_1_split
I0801 15:07:35.458072  3326 net.cpp:163] Top shape: 1 32 1000 (32000)
I0801 15:07:35.458087  3326 net.cpp:163] Top shape: 1 32 1000 (32000)
I0801 15:07:35.458093  3326 layer_factory.hpp:76] Creating layer lstm1_h_conted_5
I0801 15:07:35.458106  3326 net.cpp:110] Creating Layer lstm1_h_conted_5
I0801 15:07:35.458114  3326 net.cpp:477] lstm1_h_conted_5 <- h_5_lstm1_unit_5_1_split_0
I0801 15:07:35.458123  3326 net.cpp:477] lstm1_h_conted_5 <- cont_6_lstm1_cont_slice_5_split_0
I0801 15:07:35.458133  3326 net.cpp:433] lstm1_h_conted_5 -> h_conted_5
I0801 15:07:35.458197  3326 net.cpp:155] Setting up lstm1_h_conted_5
I0801 15:07:35.458209  3326 net.cpp:163] Top shape: 1 32 1000 (32000)
I0801 15:07:35.458214  3326 layer_factory.hpp:76] Creating layer lstm1_transform_6
I0801 15:07:35.458231  3326 net.cpp:110] Creating Layer lstm1_transform_6
I0801 15:07:35.458251  3326 net.cpp:477] lstm1_transform_6 <- h_conted_5
I0801 15:07:35.458263  3326 net.cpp:433] lstm1_transform_6 -> W_hc_h_5
I0801 15:07:35.504411  3326 net.cpp:155] Setting up lstm1_transform_6
I0801 15:07:35.504454  3326 net.cpp:163] Top shape: 1 32 4000 (128000)
I0801 15:07:35.504467  3326 net.cpp:537] Sharing parameters 'W_hc' owned by layer 'lstm1_transform_1', param index 0
I0801 15:07:35.504475  3326 layer_factory.hpp:76] Creating layer lstm1_gate_input_6
I0801 15:07:35.504490  3326 net.cpp:110] Creating Layer lstm1_gate_input_6
I0801 15:07:35.504498  3326 net.cpp:477] lstm1_gate_input_6 <- W_hc_h_5
I0801 15:07:35.504510  3326 net.cpp:477] lstm1_gate_input_6 <- W_xc_x_6
I0801 15:07:35.504523  3326 net.cpp:433] lstm1_gate_input_6 -> gate_input_6
I0801 15:07:35.504554  3326 net.cpp:155] Setting up lstm1_gate_input_6
I0801 15:07:35.504561  3326 net.cpp:163] Top shape: 1 32 4000 (128000)
I0801 15:07:35.504567  3326 layer_factory.hpp:76] Creating layer lstm1_unit_6
I0801 15:07:35.504577  3326 net.cpp:110] Creating Layer lstm1_unit_6
I0801 15:07:35.504590  3326 net.cpp:477] lstm1_unit_6 <- c_5
I0801 15:07:35.504626  3326 net.cpp:477] lstm1_unit_6 <- gate_input_6
I0801 15:07:35.504637  3326 net.cpp:477] lstm1_unit_6 <- cont_6_lstm1_cont_slice_5_split_1
I0801 15:07:35.504645  3326 net.cpp:433] lstm1_unit_6 -> c_6
I0801 15:07:35.504659  3326 net.cpp:433] lstm1_unit_6 -> h_6
I0801 15:07:35.504673  3326 net.cpp:155] Setting up lstm1_unit_6
I0801 15:07:35.504680  3326 net.cpp:163] Top shape: 1 32 1000 (32000)
I0801 15:07:35.504686  3326 net.cpp:163] Top shape: 1 32 1000 (32000)
I0801 15:07:35.504693  3326 layer_factory.hpp:76] Creating layer h_6_lstm1_unit_6_1_split
I0801 15:07:35.504701  3326 net.cpp:110] Creating Layer h_6_lstm1_unit_6_1_split
I0801 15:07:35.504708  3326 net.cpp:477] h_6_lstm1_unit_6_1_split <- h_6
I0801 15:07:35.504719  3326 net.cpp:433] h_6_lstm1_unit_6_1_split -> h_6_lstm1_unit_6_1_split_0
I0801 15:07:35.504729  3326 net.cpp:433] h_6_lstm1_unit_6_1_split -> h_6_lstm1_unit_6_1_split_1
I0801 15:07:35.504739  3326 net.cpp:155] Setting up h_6_lstm1_unit_6_1_split
I0801 15:07:35.504746  3326 net.cpp:163] Top shape: 1 32 1000 (32000)
I0801 15:07:35.504753  3326 net.cpp:163] Top shape: 1 32 1000 (32000)
I0801 15:07:35.504758  3326 layer_factory.hpp:76] Creating layer lstm1_h_conted_6
I0801 15:07:35.504767  3326 net.cpp:110] Creating Layer lstm1_h_conted_6
I0801 15:07:35.504775  3326 net.cpp:477] lstm1_h_conted_6 <- h_6_lstm1_unit_6_1_split_0
I0801 15:07:35.504781  3326 net.cpp:477] lstm1_h_conted_6 <- cont_7_lstm1_cont_slice_6_split_0
I0801 15:07:35.504791  3326 net.cpp:433] lstm1_h_conted_6 -> h_conted_6
I0801 15:07:35.504858  3326 net.cpp:155] Setting up lstm1_h_conted_6
I0801 15:07:35.504868  3326 net.cpp:163] Top shape: 1 32 1000 (32000)
I0801 15:07:35.504874  3326 layer_factory.hpp:76] Creating layer lstm1_transform_7
I0801 15:07:35.504886  3326 net.cpp:110] Creating Layer lstm1_transform_7
I0801 15:07:35.504892  3326 net.cpp:477] lstm1_transform_7 <- h_conted_6
I0801 15:07:35.504901  3326 net.cpp:433] lstm1_transform_7 -> W_hc_h_6
I0801 15:07:35.548059  3326 net.cpp:155] Setting up lstm1_transform_7
I0801 15:07:35.548108  3326 net.cpp:163] Top shape: 1 32 4000 (128000)
I0801 15:07:35.548125  3326 net.cpp:537] Sharing parameters 'W_hc' owned by layer 'lstm1_transform_1', param index 0
I0801 15:07:35.548135  3326 layer_factory.hpp:76] Creating layer lstm1_gate_input_7
I0801 15:07:35.548152  3326 net.cpp:110] Creating Layer lstm1_gate_input_7
I0801 15:07:35.548162  3326 net.cpp:477] lstm1_gate_input_7 <- W_hc_h_6
I0801 15:07:35.548174  3326 net.cpp:477] lstm1_gate_input_7 <- W_xc_x_7
I0801 15:07:35.548185  3326 net.cpp:433] lstm1_gate_input_7 -> gate_input_7
I0801 15:07:35.548203  3326 net.cpp:155] Setting up lstm1_gate_input_7
I0801 15:07:35.548212  3326 net.cpp:163] Top shape: 1 32 4000 (128000)
I0801 15:07:35.548218  3326 layer_factory.hpp:76] Creating layer lstm1_unit_7
I0801 15:07:35.548226  3326 net.cpp:110] Creating Layer lstm1_unit_7
I0801 15:07:35.548233  3326 net.cpp:477] lstm1_unit_7 <- c_6
I0801 15:07:35.548241  3326 net.cpp:477] lstm1_unit_7 <- gate_input_7
I0801 15:07:35.548249  3326 net.cpp:477] lstm1_unit_7 <- cont_7_lstm1_cont_slice_6_split_1
I0801 15:07:35.548259  3326 net.cpp:433] lstm1_unit_7 -> c_7
I0801 15:07:35.548269  3326 net.cpp:433] lstm1_unit_7 -> h_7
I0801 15:07:35.548281  3326 net.cpp:155] Setting up lstm1_unit_7
I0801 15:07:35.548288  3326 net.cpp:163] Top shape: 1 32 1000 (32000)
I0801 15:07:35.548295  3326 net.cpp:163] Top shape: 1 32 1000 (32000)
I0801 15:07:35.548300  3326 layer_factory.hpp:76] Creating layer h_7_lstm1_unit_7_1_split
I0801 15:07:35.548310  3326 net.cpp:110] Creating Layer h_7_lstm1_unit_7_1_split
I0801 15:07:35.548316  3326 net.cpp:477] h_7_lstm1_unit_7_1_split <- h_7
I0801 15:07:35.548327  3326 net.cpp:433] h_7_lstm1_unit_7_1_split -> h_7_lstm1_unit_7_1_split_0
I0801 15:07:35.548337  3326 net.cpp:433] h_7_lstm1_unit_7_1_split -> h_7_lstm1_unit_7_1_split_1
I0801 15:07:35.548348  3326 net.cpp:155] Setting up h_7_lstm1_unit_7_1_split
I0801 15:07:35.548355  3326 net.cpp:163] Top shape: 1 32 1000 (32000)
I0801 15:07:35.548394  3326 net.cpp:163] Top shape: 1 32 1000 (32000)
I0801 15:07:35.548401  3326 layer_factory.hpp:76] Creating layer lstm1_h_conted_7
I0801 15:07:35.548411  3326 net.cpp:110] Creating Layer lstm1_h_conted_7
I0801 15:07:35.548418  3326 net.cpp:477] lstm1_h_conted_7 <- h_7_lstm1_unit_7_1_split_0
I0801 15:07:35.548425  3326 net.cpp:477] lstm1_h_conted_7 <- cont_8_lstm1_cont_slice_7_split_0
I0801 15:07:35.548434  3326 net.cpp:433] lstm1_h_conted_7 -> h_conted_7
I0801 15:07:35.548499  3326 net.cpp:155] Setting up lstm1_h_conted_7
I0801 15:07:35.548511  3326 net.cpp:163] Top shape: 1 32 1000 (32000)
I0801 15:07:35.548516  3326 layer_factory.hpp:76] Creating layer lstm1_transform_8
I0801 15:07:35.548527  3326 net.cpp:110] Creating Layer lstm1_transform_8
I0801 15:07:35.548534  3326 net.cpp:477] lstm1_transform_8 <- h_conted_7
I0801 15:07:35.548543  3326 net.cpp:433] lstm1_transform_8 -> W_hc_h_7
I0801 15:07:35.591476  3326 net.cpp:155] Setting up lstm1_transform_8
I0801 15:07:35.591521  3326 net.cpp:163] Top shape: 1 32 4000 (128000)
I0801 15:07:35.591533  3326 net.cpp:537] Sharing parameters 'W_hc' owned by layer 'lstm1_transform_1', param index 0
I0801 15:07:35.591542  3326 layer_factory.hpp:76] Creating layer lstm1_gate_input_8
I0801 15:07:35.591558  3326 net.cpp:110] Creating Layer lstm1_gate_input_8
I0801 15:07:35.591568  3326 net.cpp:477] lstm1_gate_input_8 <- W_hc_h_7
I0801 15:07:35.591580  3326 net.cpp:477] lstm1_gate_input_8 <- W_xc_x_8
I0801 15:07:35.591593  3326 net.cpp:433] lstm1_gate_input_8 -> gate_input_8
I0801 15:07:35.591612  3326 net.cpp:155] Setting up lstm1_gate_input_8
I0801 15:07:35.591621  3326 net.cpp:163] Top shape: 1 32 4000 (128000)
I0801 15:07:35.591627  3326 layer_factory.hpp:76] Creating layer lstm1_unit_8
I0801 15:07:35.591640  3326 net.cpp:110] Creating Layer lstm1_unit_8
I0801 15:07:35.591648  3326 net.cpp:477] lstm1_unit_8 <- c_7
I0801 15:07:35.591670  3326 net.cpp:477] lstm1_unit_8 <- gate_input_8
I0801 15:07:35.591678  3326 net.cpp:477] lstm1_unit_8 <- cont_8_lstm1_cont_slice_7_split_1
I0801 15:07:35.591687  3326 net.cpp:433] lstm1_unit_8 -> c_8
I0801 15:07:35.591698  3326 net.cpp:433] lstm1_unit_8 -> h_8
I0801 15:07:35.591711  3326 net.cpp:155] Setting up lstm1_unit_8
I0801 15:07:35.591732  3326 net.cpp:163] Top shape: 1 32 1000 (32000)
I0801 15:07:35.591737  3326 net.cpp:163] Top shape: 1 32 1000 (32000)
I0801 15:07:35.591743  3326 layer_factory.hpp:76] Creating layer h_8_lstm1_unit_8_1_split
I0801 15:07:35.591753  3326 net.cpp:110] Creating Layer h_8_lstm1_unit_8_1_split
I0801 15:07:35.591758  3326 net.cpp:477] h_8_lstm1_unit_8_1_split <- h_8
I0801 15:07:35.591766  3326 net.cpp:433] h_8_lstm1_unit_8_1_split -> h_8_lstm1_unit_8_1_split_0
I0801 15:07:35.591775  3326 net.cpp:433] h_8_lstm1_unit_8_1_split -> h_8_lstm1_unit_8_1_split_1
I0801 15:07:35.591785  3326 net.cpp:155] Setting up h_8_lstm1_unit_8_1_split
I0801 15:07:35.591794  3326 net.cpp:163] Top shape: 1 32 1000 (32000)
I0801 15:07:35.591800  3326 net.cpp:163] Top shape: 1 32 1000 (32000)
I0801 15:07:35.591805  3326 layer_factory.hpp:76] Creating layer lstm1_h_conted_8
I0801 15:07:35.591820  3326 net.cpp:110] Creating Layer lstm1_h_conted_8
I0801 15:07:35.591826  3326 net.cpp:477] lstm1_h_conted_8 <- h_8_lstm1_unit_8_1_split_0
I0801 15:07:35.591833  3326 net.cpp:477] lstm1_h_conted_8 <- cont_9_lstm1_cont_slice_8_split_0
I0801 15:07:35.591842  3326 net.cpp:433] lstm1_h_conted_8 -> h_conted_8
I0801 15:07:35.591907  3326 net.cpp:155] Setting up lstm1_h_conted_8
I0801 15:07:35.591917  3326 net.cpp:163] Top shape: 1 32 1000 (32000)
I0801 15:07:35.591922  3326 layer_factory.hpp:76] Creating layer lstm1_transform_9
I0801 15:07:35.591938  3326 net.cpp:110] Creating Layer lstm1_transform_9
I0801 15:07:35.591944  3326 net.cpp:477] lstm1_transform_9 <- h_conted_8
I0801 15:07:35.591954  3326 net.cpp:433] lstm1_transform_9 -> W_hc_h_8
I0801 15:07:35.638202  3326 net.cpp:155] Setting up lstm1_transform_9
I0801 15:07:35.638252  3326 net.cpp:163] Top shape: 1 32 4000 (128000)
I0801 15:07:35.638264  3326 net.cpp:537] Sharing parameters 'W_hc' owned by layer 'lstm1_transform_1', param index 0
I0801 15:07:35.638308  3326 layer_factory.hpp:76] Creating layer lstm1_gate_input_9
I0801 15:07:35.638324  3326 net.cpp:110] Creating Layer lstm1_gate_input_9
I0801 15:07:35.638345  3326 net.cpp:477] lstm1_gate_input_9 <- W_hc_h_8
I0801 15:07:35.638357  3326 net.cpp:477] lstm1_gate_input_9 <- W_xc_x_9
I0801 15:07:35.638368  3326 net.cpp:433] lstm1_gate_input_9 -> gate_input_9
I0801 15:07:35.638387  3326 net.cpp:155] Setting up lstm1_gate_input_9
I0801 15:07:35.638396  3326 net.cpp:163] Top shape: 1 32 4000 (128000)
I0801 15:07:35.638401  3326 layer_factory.hpp:76] Creating layer lstm1_unit_9
I0801 15:07:35.638411  3326 net.cpp:110] Creating Layer lstm1_unit_9
I0801 15:07:35.638417  3326 net.cpp:477] lstm1_unit_9 <- c_8
I0801 15:07:35.638425  3326 net.cpp:477] lstm1_unit_9 <- gate_input_9
I0801 15:07:35.638433  3326 net.cpp:477] lstm1_unit_9 <- cont_9_lstm1_cont_slice_8_split_1
I0801 15:07:35.638443  3326 net.cpp:433] lstm1_unit_9 -> c_9
I0801 15:07:35.638458  3326 net.cpp:433] lstm1_unit_9 -> h_9
I0801 15:07:35.638470  3326 net.cpp:155] Setting up lstm1_unit_9
I0801 15:07:35.638478  3326 net.cpp:163] Top shape: 1 32 1000 (32000)
I0801 15:07:35.638485  3326 net.cpp:163] Top shape: 1 32 1000 (32000)
I0801 15:07:35.638491  3326 layer_factory.hpp:76] Creating layer h_9_lstm1_unit_9_1_split
I0801 15:07:35.638501  3326 net.cpp:110] Creating Layer h_9_lstm1_unit_9_1_split
I0801 15:07:35.638507  3326 net.cpp:477] h_9_lstm1_unit_9_1_split <- h_9
I0801 15:07:35.638515  3326 net.cpp:433] h_9_lstm1_unit_9_1_split -> h_9_lstm1_unit_9_1_split_0
I0801 15:07:35.638525  3326 net.cpp:433] h_9_lstm1_unit_9_1_split -> h_9_lstm1_unit_9_1_split_1
I0801 15:07:35.638536  3326 net.cpp:155] Setting up h_9_lstm1_unit_9_1_split
I0801 15:07:35.638545  3326 net.cpp:163] Top shape: 1 32 1000 (32000)
I0801 15:07:35.638551  3326 net.cpp:163] Top shape: 1 32 1000 (32000)
I0801 15:07:35.638556  3326 layer_factory.hpp:76] Creating layer lstm1_h_conted_9
I0801 15:07:35.638589  3326 net.cpp:110] Creating Layer lstm1_h_conted_9
I0801 15:07:35.638598  3326 net.cpp:477] lstm1_h_conted_9 <- h_9_lstm1_unit_9_1_split_0
I0801 15:07:35.638607  3326 net.cpp:477] lstm1_h_conted_9 <- cont_10_lstm1_cont_slice_9_split_0
I0801 15:07:35.638615  3326 net.cpp:433] lstm1_h_conted_9 -> h_conted_9
I0801 15:07:35.638695  3326 net.cpp:155] Setting up lstm1_h_conted_9
I0801 15:07:35.638706  3326 net.cpp:163] Top shape: 1 32 1000 (32000)
I0801 15:07:35.638713  3326 layer_factory.hpp:76] Creating layer lstm1_transform_10
I0801 15:07:35.638738  3326 net.cpp:110] Creating Layer lstm1_transform_10
I0801 15:07:35.638746  3326 net.cpp:477] lstm1_transform_10 <- h_conted_9
I0801 15:07:35.638756  3326 net.cpp:433] lstm1_transform_10 -> W_hc_h_9
I0801 15:07:35.681820  3326 net.cpp:155] Setting up lstm1_transform_10
I0801 15:07:35.681862  3326 net.cpp:163] Top shape: 1 32 4000 (128000)
I0801 15:07:35.681874  3326 net.cpp:537] Sharing parameters 'W_hc' owned by layer 'lstm1_transform_1', param index 0
I0801 15:07:35.681881  3326 layer_factory.hpp:76] Creating layer lstm1_gate_input_10
I0801 15:07:35.681897  3326 net.cpp:110] Creating Layer lstm1_gate_input_10
I0801 15:07:35.681905  3326 net.cpp:477] lstm1_gate_input_10 <- W_hc_h_9
I0801 15:07:35.681915  3326 net.cpp:477] lstm1_gate_input_10 <- W_xc_x_10
I0801 15:07:35.681927  3326 net.cpp:433] lstm1_gate_input_10 -> gate_input_10
I0801 15:07:35.681946  3326 net.cpp:155] Setting up lstm1_gate_input_10
I0801 15:07:35.681953  3326 net.cpp:163] Top shape: 1 32 4000 (128000)
I0801 15:07:35.681958  3326 layer_factory.hpp:76] Creating layer lstm1_unit_10
I0801 15:07:35.681991  3326 net.cpp:110] Creating Layer lstm1_unit_10
I0801 15:07:35.682001  3326 net.cpp:477] lstm1_unit_10 <- c_9
I0801 15:07:35.682009  3326 net.cpp:477] lstm1_unit_10 <- gate_input_10
I0801 15:07:35.682018  3326 net.cpp:477] lstm1_unit_10 <- cont_10_lstm1_cont_slice_9_split_1
I0801 15:07:35.682029  3326 net.cpp:433] lstm1_unit_10 -> c_10
I0801 15:07:35.682039  3326 net.cpp:433] lstm1_unit_10 -> h_10
I0801 15:07:35.682057  3326 net.cpp:155] Setting up lstm1_unit_10
I0801 15:07:35.682092  3326 net.cpp:163] Top shape: 1 32 1000 (32000)
I0801 15:07:35.682101  3326 net.cpp:163] Top shape: 1 32 1000 (32000)
I0801 15:07:35.682106  3326 layer_factory.hpp:76] Creating layer h_10_lstm1_unit_10_1_split
I0801 15:07:35.682116  3326 net.cpp:110] Creating Layer h_10_lstm1_unit_10_1_split
I0801 15:07:35.682122  3326 net.cpp:477] h_10_lstm1_unit_10_1_split <- h_10
I0801 15:07:35.682132  3326 net.cpp:433] h_10_lstm1_unit_10_1_split -> h_10_lstm1_unit_10_1_split_0
I0801 15:07:35.682142  3326 net.cpp:433] h_10_lstm1_unit_10_1_split -> h_10_lstm1_unit_10_1_split_1
I0801 15:07:35.682152  3326 net.cpp:155] Setting up h_10_lstm1_unit_10_1_split
I0801 15:07:35.682160  3326 net.cpp:163] Top shape: 1 32 1000 (32000)
I0801 15:07:35.682168  3326 net.cpp:163] Top shape: 1 32 1000 (32000)
I0801 15:07:35.682173  3326 layer_factory.hpp:76] Creating layer lstm1_h_conted_10
I0801 15:07:35.682186  3326 net.cpp:110] Creating Layer lstm1_h_conted_10
I0801 15:07:35.682193  3326 net.cpp:477] lstm1_h_conted_10 <- h_10_lstm1_unit_10_1_split_0
I0801 15:07:35.682202  3326 net.cpp:477] lstm1_h_conted_10 <- cont_11_lstm1_cont_slice_10_split_0
I0801 15:07:35.682211  3326 net.cpp:433] lstm1_h_conted_10 -> h_conted_10
I0801 15:07:35.682286  3326 net.cpp:155] Setting up lstm1_h_conted_10
I0801 15:07:35.682296  3326 net.cpp:163] Top shape: 1 32 1000 (32000)
I0801 15:07:35.682302  3326 layer_factory.hpp:76] Creating layer lstm1_transform_11
I0801 15:07:35.682334  3326 net.cpp:110] Creating Layer lstm1_transform_11
I0801 15:07:35.682342  3326 net.cpp:477] lstm1_transform_11 <- h_conted_10
I0801 15:07:35.682351  3326 net.cpp:433] lstm1_transform_11 -> W_hc_h_10
I0801 15:07:35.726480  3326 net.cpp:155] Setting up lstm1_transform_11
I0801 15:07:35.726536  3326 net.cpp:163] Top shape: 1 32 4000 (128000)
I0801 15:07:35.726568  3326 net.cpp:537] Sharing parameters 'W_hc' owned by layer 'lstm1_transform_1', param index 0
I0801 15:07:35.726582  3326 layer_factory.hpp:76] Creating layer lstm1_gate_input_11
I0801 15:07:35.726601  3326 net.cpp:110] Creating Layer lstm1_gate_input_11
I0801 15:07:35.726624  3326 net.cpp:477] lstm1_gate_input_11 <- W_hc_h_10
I0801 15:07:35.726639  3326 net.cpp:477] lstm1_gate_input_11 <- W_xc_x_11
I0801 15:07:35.726666  3326 net.cpp:433] lstm1_gate_input_11 -> gate_input_11
I0801 15:07:35.726696  3326 net.cpp:155] Setting up lstm1_gate_input_11
I0801 15:07:35.726703  3326 net.cpp:163] Top shape: 1 32 4000 (128000)
I0801 15:07:35.726709  3326 layer_factory.hpp:76] Creating layer lstm1_unit_11
I0801 15:07:35.726719  3326 net.cpp:110] Creating Layer lstm1_unit_11
I0801 15:07:35.726732  3326 net.cpp:477] lstm1_unit_11 <- c_10
I0801 15:07:35.726739  3326 net.cpp:477] lstm1_unit_11 <- gate_input_11
I0801 15:07:35.726771  3326 net.cpp:477] lstm1_unit_11 <- cont_11_lstm1_cont_slice_10_split_1
I0801 15:07:35.726783  3326 net.cpp:433] lstm1_unit_11 -> c_11
I0801 15:07:35.726800  3326 net.cpp:433] lstm1_unit_11 -> h_11
I0801 15:07:35.726819  3326 net.cpp:155] Setting up lstm1_unit_11
I0801 15:07:35.726826  3326 net.cpp:163] Top shape: 1 32 1000 (32000)
I0801 15:07:35.726833  3326 net.cpp:163] Top shape: 1 32 1000 (32000)
I0801 15:07:35.726840  3326 layer_factory.hpp:76] Creating layer h_11_lstm1_unit_11_1_split
I0801 15:07:35.726848  3326 net.cpp:110] Creating Layer h_11_lstm1_unit_11_1_split
I0801 15:07:35.726855  3326 net.cpp:477] h_11_lstm1_unit_11_1_split <- h_11
I0801 15:07:35.726866  3326 net.cpp:433] h_11_lstm1_unit_11_1_split -> h_11_lstm1_unit_11_1_split_0
I0801 15:07:35.726876  3326 net.cpp:433] h_11_lstm1_unit_11_1_split -> h_11_lstm1_unit_11_1_split_1
I0801 15:07:35.726887  3326 net.cpp:155] Setting up h_11_lstm1_unit_11_1_split
I0801 15:07:35.726896  3326 net.cpp:163] Top shape: 1 32 1000 (32000)
I0801 15:07:35.726902  3326 net.cpp:163] Top shape: 1 32 1000 (32000)
I0801 15:07:35.726908  3326 layer_factory.hpp:76] Creating layer lstm1_h_conted_11
I0801 15:07:35.726919  3326 net.cpp:110] Creating Layer lstm1_h_conted_11
I0801 15:07:35.726938  3326 net.cpp:477] lstm1_h_conted_11 <- h_11_lstm1_unit_11_1_split_0
I0801 15:07:35.726979  3326 net.cpp:477] lstm1_h_conted_11 <- cont_12_lstm1_cont_slice_11_split_0
I0801 15:07:35.726995  3326 net.cpp:433] lstm1_h_conted_11 -> h_conted_11
I0801 15:07:35.727186  3326 net.cpp:155] Setting up lstm1_h_conted_11
I0801 15:07:35.727198  3326 net.cpp:163] Top shape: 1 32 1000 (32000)
I0801 15:07:35.727205  3326 layer_factory.hpp:76] Creating layer lstm1_transform_12
I0801 15:07:35.727219  3326 net.cpp:110] Creating Layer lstm1_transform_12
I0801 15:07:35.727227  3326 net.cpp:477] lstm1_transform_12 <- h_conted_11
I0801 15:07:35.727241  3326 net.cpp:433] lstm1_transform_12 -> W_hc_h_11
I0801 15:07:35.773388  3326 net.cpp:155] Setting up lstm1_transform_12
I0801 15:07:35.773473  3326 net.cpp:163] Top shape: 1 32 4000 (128000)
I0801 15:07:35.773494  3326 net.cpp:537] Sharing parameters 'W_hc' owned by layer 'lstm1_transform_1', param index 0
I0801 15:07:35.773505  3326 layer_factory.hpp:76] Creating layer lstm1_gate_input_12
I0801 15:07:35.773530  3326 net.cpp:110] Creating Layer lstm1_gate_input_12
I0801 15:07:35.773541  3326 net.cpp:477] lstm1_gate_input_12 <- W_hc_h_11
I0801 15:07:35.773577  3326 net.cpp:477] lstm1_gate_input_12 <- W_xc_x_12
I0801 15:07:35.773597  3326 net.cpp:433] lstm1_gate_input_12 -> gate_input_12
I0801 15:07:35.773625  3326 net.cpp:155] Setting up lstm1_gate_input_12
I0801 15:07:35.773634  3326 net.cpp:163] Top shape: 1 32 4000 (128000)
I0801 15:07:35.773648  3326 layer_factory.hpp:76] Creating layer lstm1_unit_12
I0801 15:07:35.773659  3326 net.cpp:110] Creating Layer lstm1_unit_12
I0801 15:07:35.773677  3326 net.cpp:477] lstm1_unit_12 <- c_11
I0801 15:07:35.773686  3326 net.cpp:477] lstm1_unit_12 <- gate_input_12
I0801 15:07:35.773695  3326 net.cpp:477] lstm1_unit_12 <- cont_12_lstm1_cont_slice_11_split_1
I0801 15:07:35.773713  3326 net.cpp:433] lstm1_unit_12 -> c_12
I0801 15:07:35.773726  3326 net.cpp:433] lstm1_unit_12 -> h_12
I0801 15:07:35.773741  3326 net.cpp:155] Setting up lstm1_unit_12
I0801 15:07:35.773749  3326 net.cpp:163] Top shape: 1 32 1000 (32000)
I0801 15:07:35.773769  3326 net.cpp:163] Top shape: 1 32 1000 (32000)
I0801 15:07:35.773783  3326 layer_factory.hpp:76] Creating layer h_12_lstm1_unit_12_1_split
I0801 15:07:35.773794  3326 net.cpp:110] Creating Layer h_12_lstm1_unit_12_1_split
I0801 15:07:35.773800  3326 net.cpp:477] h_12_lstm1_unit_12_1_split <- h_12
I0801 15:07:35.773831  3326 net.cpp:433] h_12_lstm1_unit_12_1_split -> h_12_lstm1_unit_12_1_split_0
I0801 15:07:35.773844  3326 net.cpp:433] h_12_lstm1_unit_12_1_split -> h_12_lstm1_unit_12_1_split_1
I0801 15:07:35.773856  3326 net.cpp:155] Setting up h_12_lstm1_unit_12_1_split
I0801 15:07:35.773864  3326 net.cpp:163] Top shape: 1 32 1000 (32000)
I0801 15:07:35.773870  3326 net.cpp:163] Top shape: 1 32 1000 (32000)
I0801 15:07:35.773875  3326 layer_factory.hpp:76] Creating layer lstm1_h_conted_12
I0801 15:07:35.773891  3326 net.cpp:110] Creating Layer lstm1_h_conted_12
I0801 15:07:35.773898  3326 net.cpp:477] lstm1_h_conted_12 <- h_12_lstm1_unit_12_1_split_0
I0801 15:07:35.773912  3326 net.cpp:477] lstm1_h_conted_12 <- cont_13_lstm1_cont_slice_12_split_0
I0801 15:07:35.773922  3326 net.cpp:433] lstm1_h_conted_12 -> h_conted_12
I0801 15:07:35.774026  3326 net.cpp:155] Setting up lstm1_h_conted_12
I0801 15:07:35.774040  3326 net.cpp:163] Top shape: 1 32 1000 (32000)
I0801 15:07:35.774047  3326 layer_factory.hpp:76] Creating layer lstm1_transform_13
I0801 15:07:35.774060  3326 net.cpp:110] Creating Layer lstm1_transform_13
I0801 15:07:35.774066  3326 net.cpp:477] lstm1_transform_13 <- h_conted_12
I0801 15:07:35.774083  3326 net.cpp:433] lstm1_transform_13 -> W_hc_h_12
I0801 15:07:35.817692  3326 net.cpp:155] Setting up lstm1_transform_13
I0801 15:07:35.817755  3326 net.cpp:163] Top shape: 1 32 4000 (128000)
I0801 15:07:35.817771  3326 net.cpp:537] Sharing parameters 'W_hc' owned by layer 'lstm1_transform_1', param index 0
I0801 15:07:35.817781  3326 layer_factory.hpp:76] Creating layer lstm1_gate_input_13
I0801 15:07:35.817819  3326 net.cpp:110] Creating Layer lstm1_gate_input_13
I0801 15:07:35.817873  3326 net.cpp:477] lstm1_gate_input_13 <- W_hc_h_12
I0801 15:07:35.817884  3326 net.cpp:477] lstm1_gate_input_13 <- W_xc_x_13
I0801 15:07:35.817898  3326 net.cpp:433] lstm1_gate_input_13 -> gate_input_13
I0801 15:07:35.817919  3326 net.cpp:155] Setting up lstm1_gate_input_13
I0801 15:07:35.817927  3326 net.cpp:163] Top shape: 1 32 4000 (128000)
I0801 15:07:35.817934  3326 layer_factory.hpp:76] Creating layer lstm1_unit_13
I0801 15:07:35.817946  3326 net.cpp:110] Creating Layer lstm1_unit_13
I0801 15:07:35.817955  3326 net.cpp:477] lstm1_unit_13 <- c_12
I0801 15:07:35.817963  3326 net.cpp:477] lstm1_unit_13 <- gate_input_13
I0801 15:07:35.817971  3326 net.cpp:477] lstm1_unit_13 <- cont_13_lstm1_cont_slice_12_split_1
I0801 15:07:35.818011  3326 net.cpp:433] lstm1_unit_13 -> c_13
I0801 15:07:35.818024  3326 net.cpp:433] lstm1_unit_13 -> h_13
I0801 15:07:35.818037  3326 net.cpp:155] Setting up lstm1_unit_13
I0801 15:07:35.818045  3326 net.cpp:163] Top shape: 1 32 1000 (32000)
I0801 15:07:35.818051  3326 net.cpp:163] Top shape: 1 32 1000 (32000)
I0801 15:07:35.818063  3326 layer_factory.hpp:76] Creating layer h_13_lstm1_unit_13_1_split
I0801 15:07:35.818074  3326 net.cpp:110] Creating Layer h_13_lstm1_unit_13_1_split
I0801 15:07:35.818080  3326 net.cpp:477] h_13_lstm1_unit_13_1_split <- h_13
I0801 15:07:35.818089  3326 net.cpp:433] h_13_lstm1_unit_13_1_split -> h_13_lstm1_unit_13_1_split_0
I0801 15:07:35.818106  3326 net.cpp:433] h_13_lstm1_unit_13_1_split -> h_13_lstm1_unit_13_1_split_1
I0801 15:07:35.818119  3326 net.cpp:155] Setting up h_13_lstm1_unit_13_1_split
I0801 15:07:35.818125  3326 net.cpp:163] Top shape: 1 32 1000 (32000)
I0801 15:07:35.818145  3326 net.cpp:163] Top shape: 1 32 1000 (32000)
I0801 15:07:35.818151  3326 layer_factory.hpp:76] Creating layer lstm1_h_conted_13
I0801 15:07:35.818166  3326 net.cpp:110] Creating Layer lstm1_h_conted_13
I0801 15:07:35.818173  3326 net.cpp:477] lstm1_h_conted_13 <- h_13_lstm1_unit_13_1_split_0
I0801 15:07:35.818210  3326 net.cpp:477] lstm1_h_conted_13 <- cont_14_lstm1_cont_slice_13_split_0
I0801 15:07:35.818223  3326 net.cpp:433] lstm1_h_conted_13 -> h_conted_13
I0801 15:07:35.818325  3326 net.cpp:155] Setting up lstm1_h_conted_13
I0801 15:07:35.818336  3326 net.cpp:163] Top shape: 1 32 1000 (32000)
I0801 15:07:35.818342  3326 layer_factory.hpp:76] Creating layer lstm1_transform_14
I0801 15:07:35.818359  3326 net.cpp:110] Creating Layer lstm1_transform_14
I0801 15:07:35.818367  3326 net.cpp:477] lstm1_transform_14 <- h_conted_13
I0801 15:07:35.818385  3326 net.cpp:433] lstm1_transform_14 -> W_hc_h_13
I0801 15:07:35.862121  3326 net.cpp:155] Setting up lstm1_transform_14
I0801 15:07:35.862185  3326 net.cpp:163] Top shape: 1 32 4000 (128000)
I0801 15:07:35.862200  3326 net.cpp:537] Sharing parameters 'W_hc' owned by layer 'lstm1_transform_1', param index 0
I0801 15:07:35.862218  3326 layer_factory.hpp:76] Creating layer lstm1_gate_input_14
I0801 15:07:35.862254  3326 net.cpp:110] Creating Layer lstm1_gate_input_14
I0801 15:07:35.862279  3326 net.cpp:477] lstm1_gate_input_14 <- W_hc_h_13
I0801 15:07:35.862293  3326 net.cpp:477] lstm1_gate_input_14 <- W_xc_x_14
I0801 15:07:35.862305  3326 net.cpp:433] lstm1_gate_input_14 -> gate_input_14
I0801 15:07:35.862329  3326 net.cpp:155] Setting up lstm1_gate_input_14
I0801 15:07:35.862349  3326 net.cpp:163] Top shape: 1 32 4000 (128000)
I0801 15:07:35.862361  3326 layer_factory.hpp:76] Creating layer lstm1_unit_14
I0801 15:07:35.862372  3326 net.cpp:110] Creating Layer lstm1_unit_14
I0801 15:07:35.862381  3326 net.cpp:477] lstm1_unit_14 <- c_13
I0801 15:07:35.862390  3326 net.cpp:477] lstm1_unit_14 <- gate_input_14
I0801 15:07:35.862398  3326 net.cpp:477] lstm1_unit_14 <- cont_14_lstm1_cont_slice_13_split_1
I0801 15:07:35.862408  3326 net.cpp:433] lstm1_unit_14 -> c_14
I0801 15:07:35.862421  3326 net.cpp:433] lstm1_unit_14 -> h_14
I0801 15:07:35.862432  3326 net.cpp:155] Setting up lstm1_unit_14
I0801 15:07:35.862440  3326 net.cpp:163] Top shape: 1 32 1000 (32000)
I0801 15:07:35.862453  3326 net.cpp:163] Top shape: 1 32 1000 (32000)
I0801 15:07:35.862493  3326 layer_factory.hpp:76] Creating layer h_14_lstm1_unit_14_1_split
I0801 15:07:35.862514  3326 net.cpp:110] Creating Layer h_14_lstm1_unit_14_1_split
I0801 15:07:35.862521  3326 net.cpp:477] h_14_lstm1_unit_14_1_split <- h_14
I0801 15:07:35.862530  3326 net.cpp:433] h_14_lstm1_unit_14_1_split -> h_14_lstm1_unit_14_1_split_0
I0801 15:07:35.862541  3326 net.cpp:433] h_14_lstm1_unit_14_1_split -> h_14_lstm1_unit_14_1_split_1
I0801 15:07:35.862560  3326 net.cpp:155] Setting up h_14_lstm1_unit_14_1_split
I0801 15:07:35.862573  3326 net.cpp:163] Top shape: 1 32 1000 (32000)
I0801 15:07:35.862581  3326 net.cpp:163] Top shape: 1 32 1000 (32000)
I0801 15:07:35.862586  3326 layer_factory.hpp:76] Creating layer lstm1_h_conted_14
I0801 15:07:35.862596  3326 net.cpp:110] Creating Layer lstm1_h_conted_14
I0801 15:07:35.862603  3326 net.cpp:477] lstm1_h_conted_14 <- h_14_lstm1_unit_14_1_split_0
I0801 15:07:35.862612  3326 net.cpp:477] lstm1_h_conted_14 <- cont_15_lstm1_cont_slice_14_split_0
I0801 15:07:35.862622  3326 net.cpp:433] lstm1_h_conted_14 -> h_conted_14
I0801 15:07:35.862720  3326 net.cpp:155] Setting up lstm1_h_conted_14
I0801 15:07:35.862730  3326 net.cpp:163] Top shape: 1 32 1000 (32000)
I0801 15:07:35.862735  3326 layer_factory.hpp:76] Creating layer lstm1_transform_15
I0801 15:07:35.862748  3326 net.cpp:110] Creating Layer lstm1_transform_15
I0801 15:07:35.862756  3326 net.cpp:477] lstm1_transform_15 <- h_conted_14
I0801 15:07:35.862766  3326 net.cpp:433] lstm1_transform_15 -> W_hc_h_14
I0801 15:07:35.906411  3326 net.cpp:155] Setting up lstm1_transform_15
I0801 15:07:35.906472  3326 net.cpp:163] Top shape: 1 32 4000 (128000)
I0801 15:07:35.906522  3326 net.cpp:537] Sharing parameters 'W_hc' owned by layer 'lstm1_transform_1', param index 0
I0801 15:07:35.906535  3326 layer_factory.hpp:76] Creating layer lstm1_gate_input_15
I0801 15:07:35.906579  3326 net.cpp:110] Creating Layer lstm1_gate_input_15
I0801 15:07:35.906591  3326 net.cpp:477] lstm1_gate_input_15 <- W_hc_h_14
I0801 15:07:35.906605  3326 net.cpp:477] lstm1_gate_input_15 <- W_xc_x_15
I0801 15:07:35.906631  3326 net.cpp:433] lstm1_gate_input_15 -> gate_input_15
I0801 15:07:35.906659  3326 net.cpp:155] Setting up lstm1_gate_input_15
I0801 15:07:35.906668  3326 net.cpp:163] Top shape: 1 32 4000 (128000)
I0801 15:07:35.906674  3326 layer_factory.hpp:76] Creating layer lstm1_unit_15
I0801 15:07:35.906687  3326 net.cpp:110] Creating Layer lstm1_unit_15
I0801 15:07:35.906697  3326 net.cpp:477] lstm1_unit_15 <- c_14
I0801 15:07:35.906713  3326 net.cpp:477] lstm1_unit_15 <- gate_input_15
I0801 15:07:35.906723  3326 net.cpp:477] lstm1_unit_15 <- cont_15_lstm1_cont_slice_14_split_1
…
I0801 15:07:38.338011  3326 net.cpp:537] Sharing parameters 'W_hc' owned by layer 'lstm1_transform_1', param index 0
I0801 15:07:38.338021  3326 layer_factory.hpp:76] Creating layer lstm1_gate_input_69
I0801 15:07:38.338039  3326 net.cpp:110] Creating Layer lstm1_gate_input_69
I0801 15:07:38.338050  3326 net.cpp:477] lstm1_gate_input_69 <- W_hc_h_68
I0801 15:07:38.338063  3326 net.cpp:477] lstm1_gate_input_69 <- W_xc_x_69
I0801 15:07:38.338076  3326 net.cpp:433] lstm1_gate_input_69 -> gate_input_69
I0801 15:07:38.338096  3326 net.cpp:155] Setting up lstm1_gate_input_69
I0801 15:07:38.338105  3326 net.cpp:163] Top shape: 1 32 4000 (128000)
I0801 15:07:38.338111  3326 layer_factory.hpp:76] Creating layer lstm1_unit_69
I0801 15:07:38.338126  3326 net.cpp:110] Creating Layer lstm1_unit_69
I0801 15:07:38.338135  3326 net.cpp:477] lstm1_unit_69 <- c_68
I0801 15:07:38.338143  3326 net.cpp:477] lstm1_unit_69 <- gate_input_69
I0801 15:07:38.338152  3326 net.cpp:477] lstm1_unit_69 <- cont_69_lstm1_cont_slice_68_split_1
I0801 15:07:38.338163  3326 net.cpp:433] lstm1_unit_69 -> c_69
I0801 15:07:38.338176  3326 net.cpp:433] lstm1_unit_69 -> h_69
I0801 15:07:38.338191  3326 net.cpp:155] Setting up lstm1_unit_69
I0801 15:07:38.338198  3326 net.cpp:163] Top shape: 1 32 1000 (32000)
I0801 15:07:38.338205  3326 net.cpp:163] Top shape: 1 32 1000 (32000)
I0801 15:07:38.338212  3326 layer_factory.hpp:76] Creating layer h_69_lstm1_unit_69_1_split
I0801 15:07:38.338222  3326 net.cpp:110] Creating Layer h_69_lstm1_unit_69_1_split
I0801 15:07:38.338229  3326 net.cpp:477] h_69_lstm1_unit_69_1_split <- h_69
I0801 15:07:38.338238  3326 net.cpp:433] h_69_lstm1_unit_69_1_split -> h_69_lstm1_unit_69_1_split_0
I0801 15:07:38.338261  3326 net.cpp:433] h_69_lstm1_unit_69_1_split -> h_69_lstm1_unit_69_1_split_1
I0801 15:07:38.338274  3326 net.cpp:155] Setting up h_69_lstm1_unit_69_1_split
I0801 15:07:38.338282  3326 net.cpp:163] Top shape: 1 32 1000 (32000)
I0801 15:07:38.338289  3326 net.cpp:163] Top shape: 1 32 1000 (32000)
I0801 15:07:38.338295  3326 layer_factory.hpp:76] Creating layer lstm1_h_conted_69
I0801 15:07:38.338327  3326 net.cpp:110] Creating Layer lstm1_h_conted_69
I0801 15:07:38.338335  3326 net.cpp:477] lstm1_h_conted_69 <- h_69_lstm1_unit_69_1_split_0
I0801 15:07:38.338403  3326 net.cpp:477] lstm1_h_conted_69 <- cont_70_lstm1_cont_slice_69_split_0
I0801 15:07:38.338416  3326 net.cpp:433] lstm1_h_conted_69 -> h_conted_69
I0801 15:07:38.338541  3326 net.cpp:155] Setting up lstm1_h_conted_69
I0801 15:07:38.338556  3326 net.cpp:163] Top shape: 1 32 1000 (32000)
I0801 15:07:38.338562  3326 layer_factory.hpp:76] Creating layer lstm1_transform_70
I0801 15:07:38.338580  3326 net.cpp:110] Creating Layer lstm1_transform_70
I0801 15:07:38.338588  3326 net.cpp:477] lstm1_transform_70 <- h_conted_69
I0801 15:07:38.338598  3326 net.cpp:433] lstm1_transform_70 -> W_hc_h_69
I0801 15:07:38.384675  3326 net.cpp:155] Setting up lstm1_transform_70
I0801 15:07:38.384735  3326 net.cpp:163] Top shape: 1 32 4000 (128000)
I0801 15:07:38.384749  3326 net.cpp:537] Sharing parameters 'W_hc' owned by layer 'lstm1_transform_1', param index 0
I0801 15:07:38.384758  3326 layer_factory.hpp:76] Creating layer lstm1_gate_input_70
I0801 15:07:38.384778  3326 net.cpp:110] Creating Layer lstm1_gate_input_70
I0801 15:07:38.384799  3326 net.cpp:477] lstm1_gate_input_70 <- W_hc_h_69
I0801 15:07:38.384812  3326 net.cpp:477] lstm1_gate_input_70 <- W_xc_x_70
I0801 15:07:38.384840  3326 net.cpp:433] lstm1_gate_input_70 -> gate_input_70
I0801 15:07:38.384865  3326 net.cpp:155] Setting up lstm1_gate_input_70
I0801 15:07:38.384874  3326 net.cpp:163] Top shape: 1 32 4000 (128000)
I0801 15:07:38.384881  3326 layer_factory.hpp:76] Creating layer lstm1_unit_70
I0801 15:07:38.384892  3326 net.cpp:110] Creating Layer lstm1_unit_70
I0801 15:07:38.384902  3326 net.cpp:477] lstm1_unit_70 <- c_69
I0801 15:07:38.384910  3326 net.cpp:477] lstm1_unit_70 <- gate_input_70
I0801 15:07:38.384920  3326 net.cpp:477] lstm1_unit_70 <- cont_70_lstm1_cont_slice_69_split_1
I0801 15:07:38.384944  3326 net.cpp:433] lstm1_unit_70 -> c_70
I0801 15:07:38.384958  3326 net.cpp:433] lstm1_unit_70 -> h_70
I0801 15:07:38.384973  3326 net.cpp:155] Setting up lstm1_unit_70
I0801 15:07:38.384980  3326 net.cpp:163] Top shape: 1 32 1000 (32000)
I0801 15:07:38.384987  3326 net.cpp:163] Top shape: 1 32 1000 (32000)
I0801 15:07:38.385002  3326 layer_factory.hpp:76] Creating layer h_70_lstm1_unit_70_1_split
I0801 15:07:38.385012  3326 net.cpp:110] Creating Layer h_70_lstm1_unit_70_1_split
I0801 15:07:38.385018  3326 net.cpp:477] h_70_lstm1_unit_70_1_split <- h_70
I0801 15:07:38.385028  3326 net.cpp:433] h_70_lstm1_unit_70_1_split -> h_70_lstm1_unit_70_1_split_0
I0801 15:07:38.385040  3326 net.cpp:433] h_70_lstm1_unit_70_1_split -> h_70_lstm1_unit_70_1_split_1
I0801 15:07:38.385052  3326 net.cpp:155] Setting up h_70_lstm1_unit_70_1_split
I0801 15:07:38.385061  3326 net.cpp:163] Top shape: 1 32 1000 (32000)
I0801 15:07:38.385067  3326 net.cpp:163] Top shape: 1 32 1000 (32000)
I0801 15:07:38.385074  3326 layer_factory.hpp:76] Creating layer lstm1_h_conted_70
I0801 15:07:38.385087  3326 net.cpp:110] Creating Layer lstm1_h_conted_70
I0801 15:07:38.385094  3326 net.cpp:477] lstm1_h_conted_70 <- h_70_lstm1_unit_70_1_split_0
I0801 15:07:38.385102  3326 net.cpp:477] lstm1_h_conted_70 <- cont_71_lstm1_cont_slice_70_split_0
I0801 15:07:38.385130  3326 net.cpp:433] lstm1_h_conted_70 -> h_conted_70
I0801 15:07:38.385258  3326 net.cpp:155] Setting up lstm1_h_conted_70
I0801 15:07:38.385270  3326 net.cpp:163] Top shape: 1 32 1000 (32000)
I0801 15:07:38.385278  3326 layer_factory.hpp:76] Creating layer lstm1_transform_71
I0801 15:07:38.385291  3326 net.cpp:110] Creating Layer lstm1_transform_71
I0801 15:07:38.385298  3326 net.cpp:477] lstm1_transform_71 <- h_conted_70
I0801 15:07:38.385314  3326 net.cpp:433] lstm1_transform_71 -> W_hc_h_70
I0801 15:07:38.428711  3326 net.cpp:155] Setting up lstm1_transform_71
I0801 15:07:38.428760  3326 net.cpp:163] Top shape: 1 32 4000 (128000)
I0801 15:07:38.428772  3326 net.cpp:537] Sharing parameters 'W_hc' owned by layer 'lstm1_transform_1', param index 0
I0801 15:07:38.428781  3326 layer_factory.hpp:76] Creating layer lstm1_gate_input_71
I0801 15:07:38.428807  3326 net.cpp:110] Creating Layer lstm1_gate_input_71
I0801 15:07:38.428824  3326 net.cpp:477] lstm1_gate_input_71 <- W_hc_h_70
I0801 15:07:38.428866  3326 net.cpp:477] lstm1_gate_input_71 <- W_xc_x_71
I0801 15:07:38.428884  3326 net.cpp:433] lstm1_gate_input_71 -> gate_input_71
I0801 15:07:38.428915  3326 net.cpp:155] Setting up lstm1_gate_input_71
I0801 15:07:38.428923  3326 net.cpp:163] Top shape: 1 32 4000 (128000)
I0801 15:07:38.428930  3326 layer_factory.hpp:76] Creating layer lstm1_unit_71
I0801 15:07:38.428938  3326 net.cpp:110] Creating Layer lstm1_unit_71
I0801 15:07:38.428946  3326 net.cpp:477] lstm1_unit_71 <- c_70
I0801 15:07:38.428954  3326 net.cpp:477] lstm1_unit_71 <- gate_input_71
I0801 15:07:38.428962  3326 net.cpp:477] lstm1_unit_71 <- cont_71_lstm1_cont_slice_70_split_1
I0801 15:07:38.428972  3326 net.cpp:433] lstm1_unit_71 -> c_71
I0801 15:07:38.428995  3326 net.cpp:433] lstm1_unit_71 -> h_71
I0801 15:07:38.429008  3326 net.cpp:155] Setting up lstm1_unit_71
I0801 15:07:38.429015  3326 net.cpp:163] Top shape: 1 32 1000 (32000)
I0801 15:07:38.429023  3326 net.cpp:163] Top shape: 1 32 1000 (32000)
I0801 15:07:38.429028  3326 layer_factory.hpp:76] Creating layer h_71_lstm1_unit_71_1_split
I0801 15:07:38.429038  3326 net.cpp:110] Creating Layer h_71_lstm1_unit_71_1_split
I0801 15:07:38.429044  3326 net.cpp:477] h_71_lstm1_unit_71_1_split <- h_71
I0801 15:07:38.429069  3326 net.cpp:433] h_71_lstm1_unit_71_1_split -> h_71_lstm1_unit_71_1_split_0
I0801 15:07:38.429080  3326 net.cpp:433] h_71_lstm1_unit_71_1_split -> h_71_lstm1_unit_71_1_split_1
I0801 15:07:38.429090  3326 net.cpp:155] Setting up h_71_lstm1_unit_71_1_split
I0801 15:07:38.429097  3326 net.cpp:163] Top shape: 1 32 1000 (32000)
I0801 15:07:38.429105  3326 net.cpp:163] Top shape: 1 32 1000 (32000)
I0801 15:07:38.429110  3326 layer_factory.hpp:76] Creating layer lstm1_h_conted_71
I0801 15:07:38.429121  3326 net.cpp:110] Creating Layer lstm1_h_conted_71
I0801 15:07:38.429128  3326 net.cpp:477] lstm1_h_conted_71 <- h_71_lstm1_unit_71_1_split_0
I0801 15:07:38.429136  3326 net.cpp:477] lstm1_h_conted_71 <- cont_72_lstm1_cont_slice_71_split_0
I0801 15:07:38.429147  3326 net.cpp:433] lstm1_h_conted_71 -> h_conted_71
I0801 15:07:38.429237  3326 net.cpp:155] Setting up lstm1_h_conted_71
I0801 15:07:38.429250  3326 net.cpp:163] Top shape: 1 32 1000 (32000)
I0801 15:07:38.429255  3326 layer_factory.hpp:76] Creating layer lstm1_transform_72
I0801 15:07:38.429267  3326 net.cpp:110] Creating Layer lstm1_transform_72
I0801 15:07:38.429275  3326 net.cpp:477] lstm1_transform_72 <- h_conted_71
I0801 15:07:38.429285  3326 net.cpp:433] lstm1_transform_72 -> W_hc_h_71
I0801 15:07:38.472527  3326 net.cpp:155] Setting up lstm1_transform_72
I0801 15:07:38.472560  3326 net.cpp:163] Top shape: 1 32 4000 (128000)
I0801 15:07:38.472573  3326 net.cpp:537] Sharing parameters 'W_hc' owned by layer 'lstm1_transform_1', param index 0
I0801 15:07:38.472580  3326 layer_factory.hpp:76] Creating layer lstm1_gate_input_72
I0801 15:07:38.472594  3326 net.cpp:110] Creating Layer lstm1_gate_input_72
I0801 15:07:38.472604  3326 net.cpp:477] lstm1_gate_input_72 <- W_hc_h_71
I0801 15:07:38.472614  3326 net.cpp:477] lstm1_gate_input_72 <- W_xc_x_72
I0801 15:07:38.472626  3326 net.cpp:433] lstm1_gate_input_72 -> gate_input_72
I0801 15:07:38.472643  3326 net.cpp:155] Setting up lstm1_gate_input_72
I0801 15:07:38.472652  3326 net.cpp:163] Top shape: 1 32 4000 (128000)
I0801 15:07:38.472658  3326 layer_factory.hpp:76] Creating layer lstm1_unit_72
I0801 15:07:38.472672  3326 net.cpp:110] Creating Layer lstm1_unit_72
I0801 15:07:38.472688  3326 net.cpp:477] lstm1_unit_72 <- c_71
I0801 15:07:38.472697  3326 net.cpp:477] lstm1_unit_72 <- gate_input_72
I0801 15:07:38.472705  3326 net.cpp:477] lstm1_unit_72 <- cont_72_lstm1_cont_slice_71_split_1
I0801 15:07:38.472715  3326 net.cpp:433] lstm1_unit_72 -> c_72
I0801 15:07:38.472728  3326 net.cpp:433] lstm1_unit_72 -> h_72
I0801 15:07:38.472754  3326 net.cpp:155] Setting up lstm1_unit_72
I0801 15:07:38.472762  3326 net.cpp:163] Top shape: 1 32 1000 (32000)
I0801 15:07:38.472769  3326 net.cpp:163] Top shape: 1 32 1000 (32000)
I0801 15:07:38.472817  3326 layer_factory.hpp:76] Creating layer h_72_lstm1_unit_72_1_split
I0801 15:07:38.472831  3326 net.cpp:110] Creating Layer h_72_lstm1_unit_72_1_split
I0801 15:07:38.472837  3326 net.cpp:477] h_72_lstm1_unit_72_1_split <- h_72
I0801 15:07:38.472846  3326 net.cpp:433] h_72_lstm1_unit_72_1_split -> h_72_lstm1_unit_72_1_split_0
I0801 15:07:38.472861  3326 net.cpp:433] h_72_lstm1_unit_72_1_split -> h_72_lstm1_unit_72_1_split_1
I0801 15:07:38.472872  3326 net.cpp:155] Setting up h_72_lstm1_unit_72_1_split
I0801 15:07:38.472880  3326 net.cpp:163] Top shape: 1 32 1000 (32000)
I0801 15:07:38.472887  3326 net.cpp:163] Top shape: 1 32 1000 (32000)
I0801 15:07:38.472892  3326 layer_factory.hpp:76] Creating layer lstm1_h_conted_72
I0801 15:07:38.472905  3326 net.cpp:110] Creating Layer lstm1_h_conted_72
I0801 15:07:38.472913  3326 net.cpp:477] lstm1_h_conted_72 <- h_72_lstm1_unit_72_1_split_0
I0801 15:07:38.472921  3326 net.cpp:477] lstm1_h_conted_72 <- cont_73_lstm1_cont_slice_72_split_0
I0801 15:07:38.472931  3326 net.cpp:433] lstm1_h_conted_72 -> h_conted_72
I0801 15:07:38.473019  3326 net.cpp:155] Setting up lstm1_h_conted_72
I0801 15:07:38.473031  3326 net.cpp:163] Top shape: 1 32 1000 (32000)
I0801 15:07:38.473037  3326 layer_factory.hpp:76] Creating layer lstm1_transform_73
I0801 15:07:38.473052  3326 net.cpp:110] Creating Layer lstm1_transform_73
I0801 15:07:38.473059  3326 net.cpp:477] lstm1_transform_73 <- h_conted_72
I0801 15:07:38.473070  3326 net.cpp:433] lstm1_transform_73 -> W_hc_h_72
I0801 15:07:38.516060  3326 net.cpp:155] Setting up lstm1_transform_73
I0801 15:07:38.516109  3326 net.cpp:163] Top shape: 1 32 4000 (128000)
I0801 15:07:38.516122  3326 net.cpp:537] Sharing parameters 'W_hc' owned by layer 'lstm1_transform_1', param index 0
I0801 15:07:38.516132  3326 layer_factory.hpp:76] Creating layer lstm1_gate_input_73
I0801 15:07:38.516149  3326 net.cpp:110] Creating Layer lstm1_gate_input_73
I0801 15:07:38.516158  3326 net.cpp:477] lstm1_gate_input_73 <- W_hc_h_72
I0801 15:07:38.516170  3326 net.cpp:477] lstm1_gate_input_73 <- W_xc_x_73
I0801 15:07:38.516197  3326 net.cpp:433] lstm1_gate_input_73 -> gate_input_73
I0801 15:07:38.516216  3326 net.cpp:155] Setting up lstm1_gate_input_73
I0801 15:07:38.516224  3326 net.cpp:163] Top shape: 1 32 4000 (128000)
I0801 15:07:38.516229  3326 layer_factory.hpp:76] Creating layer lstm1_unit_73
I0801 15:07:38.516242  3326 net.cpp:110] Creating Layer lstm1_unit_73
I0801 15:07:38.516252  3326 net.cpp:477] lstm1_unit_73 <- c_72
I0801 15:07:38.516265  3326 net.cpp:477] lstm1_unit_73 <- gate_input_73
I0801 15:07:38.516286  3326 net.cpp:477] lstm1_unit_73 <- cont_73_lstm1_cont_slice_72_split_1
I0801 15:07:38.516299  3326 net.cpp:433] lstm1_unit_73 -> c_73
I0801 15:07:38.516315  3326 net.cpp:433] lstm1_unit_73 -> h_73
I0801 15:07:38.516332  3326 net.cpp:155] Setting up lstm1_unit_73
I0801 15:07:38.516341  3326 net.cpp:163] Top shape: 1 32 1000 (32000)
I0801 15:07:38.516348  3326 net.cpp:163] Top shape: 1 32 1000 (32000)
I0801 15:07:38.516355  3326 layer_factory.hpp:76] Creating layer h_73_lstm1_unit_73_1_split
I0801 15:07:38.516365  3326 net.cpp:110] Creating Layer h_73_lstm1_unit_73_1_split
I0801 15:07:38.516371  3326 net.cpp:477] h_73_lstm1_unit_73_1_split <- h_73
I0801 15:07:38.516381  3326 net.cpp:433] h_73_lstm1_unit_73_1_split -> h_73_lstm1_unit_73_1_split_0
I0801 15:07:38.516407  3326 net.cpp:433] h_73_lstm1_unit_73_1_split -> h_73_lstm1_unit_73_1_split_1
I0801 15:07:38.516419  3326 net.cpp:155] Setting up h_73_lstm1_unit_73_1_split
I0801 15:07:38.516427  3326 net.cpp:163] Top shape: 1 32 1000 (32000)
I0801 15:07:38.516434  3326 net.cpp:163] Top shape: 1 32 1000 (32000)
I0801 15:07:38.516441  3326 layer_factory.hpp:76] Creating layer lstm1_h_conted_73
I0801 15:07:38.516450  3326 net.cpp:110] Creating Layer lstm1_h_conted_73
I0801 15:07:38.516458  3326 net.cpp:477] lstm1_h_conted_73 <- h_73_lstm1_unit_73_1_split_0
I0801 15:07:38.516466  3326 net.cpp:477] lstm1_h_conted_73 <- cont_74_lstm1_cont_slice_73_split_0
I0801 15:07:38.516484  3326 net.cpp:433] lstm1_h_conted_73 -> h_conted_73
I0801 15:07:38.516621  3326 net.cpp:155] Setting up lstm1_h_conted_73
I0801 15:07:38.516634  3326 net.cpp:163] Top shape: 1 32 1000 (32000)
I0801 15:07:38.516641  3326 layer_factory.hpp:76] Creating layer lstm1_transform_74
I0801 15:07:38.516662  3326 net.cpp:110] Creating Layer lstm1_transform_74
I0801 15:07:38.516669  3326 net.cpp:477] lstm1_transform_74 <- h_conted_73
I0801 15:07:38.516680  3326 net.cpp:433] lstm1_transform_74 -> W_hc_h_73
I0801 15:07:38.559881  3326 net.cpp:155] Setting up lstm1_transform_74
I0801 15:07:38.559913  3326 net.cpp:163] Top shape: 1 32 4000 (128000)
I0801 15:07:38.559927  3326 net.cpp:537] Sharing parameters 'W_hc' owned by layer 'lstm1_transform_1', param index 0
I0801 15:07:38.559937  3326 layer_factory.hpp:76] Creating layer lstm1_gate_input_74
I0801 15:07:38.559952  3326 net.cpp:110] Creating Layer lstm1_gate_input_74
I0801 15:07:38.559959  3326 net.cpp:477] lstm1_gate_input_74 <- W_hc_h_73
I0801 15:07:38.559972  3326 net.cpp:477] lstm1_gate_input_74 <- W_xc_x_74
I0801 15:07:38.559986  3326 net.cpp:433] lstm1_gate_input_74 -> gate_input_74
I0801 15:07:38.560003  3326 net.cpp:155] Setting up lstm1_gate_input_74
I0801 15:07:38.560012  3326 net.cpp:163] Top shape: 1 32 4000 (128000)
I0801 15:07:38.560019  3326 layer_factory.hpp:76] Creating layer lstm1_unit_74
I0801 15:07:38.560029  3326 net.cpp:110] Creating Layer lstm1_unit_74
I0801 15:07:38.560036  3326 net.cpp:477] lstm1_unit_74 <- c_73
I0801 15:07:38.560044  3326 net.cpp:477] lstm1_unit_74 <- gate_input_74
I0801 15:07:38.560051  3326 net.cpp:477] lstm1_unit_74 <- cont_74_lstm1_cont_slice_73_split_1
I0801 15:07:38.560062  3326 net.cpp:433] lstm1_unit_74 -> c_74
I0801 15:07:38.560082  3326 net.cpp:433] lstm1_unit_74 -> h_74
I0801 15:07:38.560108  3326 net.cpp:155] Setting up lstm1_unit_74
I0801 15:07:38.560117  3326 net.cpp:163] Top shape: 1 32 1000 (32000)
I0801 15:07:38.560123  3326 net.cpp:163] Top shape: 1 32 1000 (32000)
I0801 15:07:38.560128  3326 layer_factory.hpp:76] Creating layer h_74_lstm1_unit_74_1_split
I0801 15:07:38.560137  3326 net.cpp:110] Creating Layer h_74_lstm1_unit_74_1_split
I0801 15:07:38.560143  3326 net.cpp:477] h_74_lstm1_unit_74_1_split <- h_74
I0801 15:07:38.560155  3326 net.cpp:433] h_74_lstm1_unit_74_1_split -> h_74_lstm1_unit_74_1_split_0
I0801 15:07:38.560166  3326 net.cpp:433] h_74_lstm1_unit_74_1_split -> h_74_lstm1_unit_74_1_split_1
I0801 15:07:38.560176  3326 net.cpp:155] Setting up h_74_lstm1_unit_74_1_split
I0801 15:07:38.560184  3326 net.cpp:163] Top shape: 1 32 1000 (32000)
I0801 15:07:38.560191  3326 net.cpp:163] Top shape: 1 32 1000 (32000)
I0801 15:07:38.560196  3326 layer_factory.hpp:76] Creating layer lstm1_h_conted_74
I0801 15:07:38.560221  3326 net.cpp:110] Creating Layer lstm1_h_conted_74
I0801 15:07:38.560237  3326 net.cpp:477] lstm1_h_conted_74 <- h_74_lstm1_unit_74_1_split_0
I0801 15:07:38.560246  3326 net.cpp:477] lstm1_h_conted_74 <- cont_75_lstm1_cont_slice_74_split_0
I0801 15:07:38.560257  3326 net.cpp:433] lstm1_h_conted_74 -> h_conted_74
I0801 15:07:38.560343  3326 net.cpp:155] Setting up lstm1_h_conted_74
I0801 15:07:38.560354  3326 net.cpp:163] Top shape: 1 32 1000 (32000)
I0801 15:07:38.560361  3326 layer_factory.hpp:76] Creating layer lstm1_transform_75
I0801 15:07:38.560374  3326 net.cpp:110] Creating Layer lstm1_transform_75
I0801 15:07:38.560380  3326 net.cpp:477] lstm1_transform_75 <- h_conted_74
I0801 15:07:38.560391  3326 net.cpp:433] lstm1_transform_75 -> W_hc_h_74
I0801 15:07:38.604133  3326 net.cpp:155] Setting up lstm1_transform_75
I0801 15:07:38.604176  3326 net.cpp:163] Top shape: 1 32 4000 (128000)
I0801 15:07:38.604188  3326 net.cpp:537] Sharing parameters 'W_hc' owned by layer 'lstm1_transform_1', param index 0
I0801 15:07:38.604197  3326 layer_factory.hpp:76] Creating layer lstm1_gate_input_75
I0801 15:07:38.604220  3326 net.cpp:110] Creating Layer lstm1_gate_input_75
I0801 15:07:38.604231  3326 net.cpp:477] lstm1_gate_input_75 <- W_hc_h_74
I0801 15:07:38.604243  3326 net.cpp:477] lstm1_gate_input_75 <- W_xc_x_75
I0801 15:07:38.604271  3326 net.cpp:433] lstm1_gate_input_75 -> gate_input_75
I0801 15:07:38.604320  3326 net.cpp:155] Setting up lstm1_gate_input_75
I0801 15:07:38.604329  3326 net.cpp:163] Top shape: 1 32 4000 (128000)
I0801 15:07:38.604336  3326 layer_factory.hpp:76] Creating layer lstm1_unit_75
I0801 15:07:38.604348  3326 net.cpp:110] Creating Layer lstm1_unit_75
I0801 15:07:38.604372  3326 net.cpp:477] lstm1_unit_75 <- c_74
I0801 15:07:38.604380  3326 net.cpp:477] lstm1_unit_75 <- gate_input_75
I0801 15:07:38.604388  3326 net.cpp:477] lstm1_unit_75 <- cont_75_lstm1_cont_slice_74_split_1
I0801 15:07:38.604398  3326 net.cpp:433] lstm1_unit_75 -> c_75
I0801 15:07:38.604411  3326 net.cpp:433] lstm1_unit_75 -> h_75
I0801 15:07:38.604424  3326 net.cpp:155] Setting up lstm1_unit_75
I0801 15:07:38.604432  3326 net.cpp:163] Top shape: 1 32 1000 (32000)
I0801 15:07:38.604439  3326 net.cpp:163] Top shape: 1 32 1000 (32000)
I0801 15:07:38.604444  3326 layer_factory.hpp:76] Creating layer h_75_lstm1_unit_75_1_split
I0801 15:07:38.604454  3326 net.cpp:110] Creating Layer h_75_lstm1_unit_75_1_split
I0801 15:07:38.604460  3326 net.cpp:477] h_75_lstm1_unit_75_1_split <- h_75
I0801 15:07:38.604468  3326 net.cpp:433] h_75_lstm1_unit_75_1_split -> h_75_lstm1_unit_75_1_split_0
I0801 15:07:38.604480  3326 net.cpp:433] h_75_lstm1_unit_75_1_split -> h_75_lstm1_unit_75_1_split_1
I0801 15:07:38.604490  3326 net.cpp:155] Setting up h_75_lstm1_unit_75_1_split
I0801 15:07:38.604497  3326 net.cpp:163] Top shape: 1 32 1000 (32000)
I0801 15:07:38.604504  3326 net.cpp:163] Top shape: 1 32 1000 (32000)
I0801 15:07:38.604512  3326 layer_factory.hpp:76] Creating layer lstm1_h_conted_75
I0801 15:07:38.604526  3326 net.cpp:110] Creating Layer lstm1_h_conted_75
I0801 15:07:38.604534  3326 net.cpp:477] lstm1_h_conted_75 <- h_75_lstm1_unit_75_1_split_0
I0801 15:07:38.604542  3326 net.cpp:477] lstm1_h_conted_75 <- cont_76_lstm1_cont_slice_75_split_0
I0801 15:07:38.604553  3326 net.cpp:433] lstm1_h_conted_75 -> h_conted_75
I0801 15:07:38.604678  3326 net.cpp:155] Setting up lstm1_h_conted_75
I0801 15:07:38.604691  3326 net.cpp:163] Top shape: 1 32 1000 (32000)
I0801 15:07:38.604696  3326 layer_factory.hpp:76] Creating layer lstm1_transform_76
I0801 15:07:38.604708  3326 net.cpp:110] Creating Layer lstm1_transform_76
I0801 15:07:38.604714  3326 net.cpp:477] lstm1_transform_76 <- h_conted_75
I0801 15:07:38.604727  3326 net.cpp:433] lstm1_transform_76 -> W_hc_h_75
I0801 15:07:38.647516  3326 net.cpp:155] Setting up lstm1_transform_76
I0801 15:07:38.647568  3326 net.cpp:163] Top shape: 1 32 4000 (128000)
I0801 15:07:38.647580  3326 net.cpp:537] Sharing parameters 'W_hc' owned by layer 'lstm1_transform_1', param index 0
I0801 15:07:38.647588  3326 layer_factory.hpp:76] Creating layer lstm1_gate_input_76
I0801 15:07:38.647620  3326 net.cpp:110] Creating Layer lstm1_gate_input_76
I0801 15:07:38.647630  3326 net.cpp:477] lstm1_gate_input_76 <- W_hc_h_75
I0801 15:07:38.647639  3326 net.cpp:477] lstm1_gate_input_76 <- W_xc_x_76
I0801 15:07:38.647651  3326 net.cpp:433] lstm1_gate_input_76 -> gate_input_76
I0801 15:07:38.647677  3326 net.cpp:155] Setting up lstm1_gate_input_76
I0801 15:07:38.647686  3326 net.cpp:163] Top shape: 1 32 4000 (128000)
I0801 15:07:38.647691  3326 layer_factory.hpp:76] Creating layer lstm1_unit_76
I0801 15:07:38.647702  3326 net.cpp:110] Creating Layer lstm1_unit_76
I0801 15:07:38.647711  3326 net.cpp:477] lstm1_unit_76 <- c_75
I0801 15:07:38.647718  3326 net.cpp:477] lstm1_unit_76 <- gate_input_76
I0801 15:07:38.647725  3326 net.cpp:477] lstm1_unit_76 <- cont_76_lstm1_cont_slice_75_split_1
I0801 15:07:38.647735  3326 net.cpp:433] lstm1_unit_76 -> c_76
I0801 15:07:38.647747  3326 net.cpp:433] lstm1_unit_76 -> h_76
I0801 15:07:38.647759  3326 net.cpp:155] Setting up lstm1_unit_76
I0801 15:07:38.647768  3326 net.cpp:163] Top shape: 1 32 1000 (32000)
I0801 15:07:38.647773  3326 net.cpp:163] Top shape: 1 32 1000 (32000)
I0801 15:07:38.647779  3326 layer_factory.hpp:76] Creating layer h_76_lstm1_unit_76_1_split
I0801 15:07:38.647799  3326 net.cpp:110] Creating Layer h_76_lstm1_unit_76_1_split
I0801 15:07:38.647830  3326 net.cpp:477] h_76_lstm1_unit_76_1_split <- h_76
I0801 15:07:38.647840  3326 net.cpp:433] h_76_lstm1_unit_76_1_split -> h_76_lstm1_unit_76_1_split_0
I0801 15:07:38.647850  3326 net.cpp:433] h_76_lstm1_unit_76_1_split -> h_76_lstm1_unit_76_1_split_1
I0801 15:07:38.647861  3326 net.cpp:155] Setting up h_76_lstm1_unit_76_1_split
I0801 15:07:38.647869  3326 net.cpp:163] Top shape: 1 32 1000 (32000)
I0801 15:07:38.647876  3326 net.cpp:163] Top shape: 1 32 1000 (32000)
I0801 15:07:38.647881  3326 layer_factory.hpp:76] Creating layer lstm1_h_conted_76
I0801 15:07:38.647891  3326 net.cpp:110] Creating Layer lstm1_h_conted_76
I0801 15:07:38.647897  3326 net.cpp:477] lstm1_h_conted_76 <- h_76_lstm1_unit_76_1_split_0
I0801 15:07:38.647904  3326 net.cpp:477] lstm1_h_conted_76 <- cont_77_lstm1_cont_slice_76_split_0
I0801 15:07:38.647930  3326 net.cpp:433] lstm1_h_conted_76 -> h_conted_76
I0801 15:07:38.648032  3326 net.cpp:155] Setting up lstm1_h_conted_76
I0801 15:07:38.648046  3326 net.cpp:163] Top shape: 1 32 1000 (32000)
I0801 15:07:38.648052  3326 layer_factory.hpp:76] Creating layer lstm1_transform_77
I0801 15:07:38.648071  3326 net.cpp:110] Creating Layer lstm1_transform_77
I0801 15:07:38.648077  3326 net.cpp:477] lstm1_transform_77 <- h_conted_76
I0801 15:07:38.648087  3326 net.cpp:433] lstm1_transform_77 -> W_hc_h_76
I0801 15:07:38.690611  3326 net.cpp:155] Setting up lstm1_transform_77
I0801 15:07:38.690659  3326 net.cpp:163] Top shape: 1 32 4000 (128000)
I0801 15:07:38.690672  3326 net.cpp:537] Sharing parameters 'W_hc' owned by layer 'lstm1_transform_1', param index 0
I0801 15:07:38.690682  3326 layer_factory.hpp:76] Creating layer lstm1_gate_input_77
I0801 15:07:38.690701  3326 net.cpp:110] Creating Layer lstm1_gate_input_77
I0801 15:07:38.690711  3326 net.cpp:477] lstm1_gate_input_77 <- W_hc_h_76
I0801 15:07:38.690723  3326 net.cpp:477] lstm1_gate_input_77 <- W_xc_x_77
I0801 15:07:38.690742  3326 net.cpp:433] lstm1_gate_input_77 -> gate_input_77
I0801 15:07:38.690765  3326 net.cpp:155] Setting up lstm1_gate_input_77
I0801 15:07:38.690774  3326 net.cpp:163] Top shape: 1 32 4000 (128000)
I0801 15:07:38.690783  3326 layer_factory.hpp:76] Creating layer lstm1_unit_77
I0801 15:07:38.690794  3326 net.cpp:110] Creating Layer lstm1_unit_77
I0801 15:07:38.690803  3326 net.cpp:477] lstm1_unit_77 <- c_76
I0801 15:07:38.690814  3326 net.cpp:477] lstm1_unit_77 <- gate_input_77
I0801 15:07:38.690824  3326 net.cpp:477] lstm1_unit_77 <- cont_77_lstm1_cont_slice_76_split_1
I0801 15:07:38.690835  3326 net.cpp:433] lstm1_unit_77 -> c_77
I0801 15:07:38.690848  3326 net.cpp:433] lstm1_unit_77 -> h_77
I0801 15:07:38.690862  3326 net.cpp:155] Setting up lstm1_unit_77
I0801 15:07:38.690871  3326 net.cpp:163] Top shape: 1 32 1000 (32000)
I0801 15:07:38.690878  3326 net.cpp:163] Top shape: 1 32 1000 (32000)
I0801 15:07:38.690884  3326 layer_factory.hpp:76] Creating layer h_77_lstm1_unit_77_1_split
I0801 15:07:38.690894  3326 net.cpp:110] Creating Layer h_77_lstm1_unit_77_1_split
I0801 15:07:38.690901  3326 net.cpp:477] h_77_lstm1_unit_77_1_split <- h_77
I0801 15:07:38.690912  3326 net.cpp:433] h_77_lstm1_unit_77_1_split -> h_77_lstm1_unit_77_1_split_0
I0801 15:07:38.690924  3326 net.cpp:433] h_77_lstm1_unit_77_1_split -> h_77_lstm1_unit_77_1_split_1
I0801 15:07:38.690956  3326 net.cpp:155] Setting up h_77_lstm1_unit_77_1_split
I0801 15:07:38.690964  3326 net.cpp:163] Top shape: 1 32 1000 (32000)
I0801 15:07:38.690971  3326 net.cpp:163] Top shape: 1 32 1000 (32000)
I0801 15:07:38.690978  3326 layer_factory.hpp:76] Creating layer lstm1_h_conted_77
I0801 15:07:38.690987  3326 net.cpp:110] Creating Layer lstm1_h_conted_77
I0801 15:07:38.690994  3326 net.cpp:477] lstm1_h_conted_77 <- h_77_lstm1_unit_77_1_split_0
I0801 15:07:38.691001  3326 net.cpp:477] lstm1_h_conted_77 <- cont_78_lstm1_cont_slice_77_split_0
I0801 15:07:38.691015  3326 net.cpp:433] lstm1_h_conted_77 -> h_conted_77
I0801 15:07:38.691133  3326 net.cpp:155] Setting up lstm1_h_conted_77
I0801 15:07:38.691150  3326 net.cpp:163] Top shape: 1 32 1000 (32000)
I0801 15:07:38.691184  3326 layer_factory.hpp:76] Creating layer lstm1_transform_78
I0801 15:07:38.691201  3326 net.cpp:110] Creating Layer lstm1_transform_78
I0801 15:07:38.691210  3326 net.cpp:477] lstm1_transform_78 <- h_conted_77
I0801 15:07:38.691220  3326 net.cpp:433] lstm1_transform_78 -> W_hc_h_77
I0801 15:07:38.733867  3326 net.cpp:155] Setting up lstm1_transform_78
I0801 15:07:38.733919  3326 net.cpp:163] Top shape: 1 32 4000 (128000)
I0801 15:07:38.733932  3326 net.cpp:537] Sharing parameters 'W_hc' owned by layer 'lstm1_transform_1', param index 0
I0801 15:07:38.733940  3326 layer_factory.hpp:76] Creating layer lstm1_gate_input_78
I0801 15:07:38.733957  3326 net.cpp:110] Creating Layer lstm1_gate_input_78
I0801 15:07:38.733968  3326 net.cpp:477] lstm1_gate_input_78 <- W_hc_h_77
I0801 15:07:38.733978  3326 net.cpp:477] lstm1_gate_input_78 <- W_xc_x_78
I0801 15:07:38.733990  3326 net.cpp:433] lstm1_gate_input_78 -> gate_input_78
I0801 15:07:38.734009  3326 net.cpp:155] Setting up lstm1_gate_input_78
I0801 15:07:38.734017  3326 net.cpp:163] Top shape: 1 32 4000 (128000)
I0801 15:07:38.734024  3326 layer_factory.hpp:76] Creating layer lstm1_unit_78
I0801 15:07:38.734033  3326 net.cpp:110] Creating Layer lstm1_unit_78
I0801 15:07:38.734055  3326 net.cpp:477] lstm1_unit_78 <- c_77
I0801 15:07:38.734062  3326 net.cpp:477] lstm1_unit_78 <- gate_input_78
I0801 15:07:38.734071  3326 net.cpp:477] lstm1_unit_78 <- cont_78_lstm1_cont_slice_77_split_1
I0801 15:07:38.734083  3326 net.cpp:433] lstm1_unit_78 -> c_78
I0801 15:07:38.734097  3326 net.cpp:433] lstm1_unit_78 -> h_78
I0801 15:07:38.734109  3326 net.cpp:155] Setting up lstm1_unit_78
I0801 15:07:38.734117  3326 net.cpp:163] Top shape: 1 32 1000 (32000)
I0801 15:07:38.734123  3326 net.cpp:163] Top shape: 1 32 1000 (32000)
I0801 15:07:38.734129  3326 layer_factory.hpp:76] Creating layer h_78_lstm1_unit_78_1_split
I0801 15:07:38.734138  3326 net.cpp:110] Creating Layer h_78_lstm1_unit_78_1_split
I0801 15:07:38.734145  3326 net.cpp:477] h_78_lstm1_unit_78_1_split <- h_78
I0801 15:07:38.734153  3326 net.cpp:433] h_78_lstm1_unit_78_1_split -> h_78_lstm1_unit_78_1_split_0
I0801 15:07:38.734163  3326 net.cpp:433] h_78_lstm1_unit_78_1_split -> h_78_lstm1_unit_78_1_split_1
I0801 15:07:38.734174  3326 net.cpp:155] Setting up h_78_lstm1_unit_78_1_split
I0801 15:07:38.734189  3326 net.cpp:163] Top shape: 1 32 1000 (32000)
I0801 15:07:38.734195  3326 net.cpp:163] Top shape: 1 32 1000 (32000)
I0801 15:07:38.734200  3326 layer_factory.hpp:76] Creating layer lstm1_h_conted_78
I0801 15:07:38.734215  3326 net.cpp:110] Creating Layer lstm1_h_conted_78
I0801 15:07:38.734221  3326 net.cpp:477] lstm1_h_conted_78 <- h_78_lstm1_unit_78_1_split_0
I0801 15:07:38.734230  3326 net.cpp:477] lstm1_h_conted_78 <- cont_79_lstm1_cont_slice_78_split_0
I0801 15:07:38.734244  3326 net.cpp:433] lstm1_h_conted_78 -> h_conted_78
I0801 15:07:38.734354  3326 net.cpp:155] Setting up lstm1_h_conted_78
I0801 15:07:38.734365  3326 net.cpp:163] Top shape: 1 32 1000 (32000)
I0801 15:07:38.734371  3326 layer_factory.hpp:76] Creating layer lstm1_transform_79
I0801 15:07:38.734385  3326 net.cpp:110] Creating Layer lstm1_transform_79
I0801 15:07:38.734390  3326 net.cpp:477] lstm1_transform_79 <- h_conted_78
I0801 15:07:38.734405  3326 net.cpp:433] lstm1_transform_79 -> W_hc_h_78
I0801 15:07:38.781723  3326 net.cpp:155] Setting up lstm1_transform_79
I0801 15:07:38.781802  3326 net.cpp:163] Top shape: 1 32 4000 (128000)
I0801 15:07:38.781862  3326 net.cpp:537] Sharing parameters 'W_hc' owned by layer 'lstm1_transform_1', param index 0
I0801 15:07:38.781877  3326 layer_factory.hpp:76] Creating layer lstm1_gate_input_79
I0801 15:07:38.781924  3326 net.cpp:110] Creating Layer lstm1_gate_input_79
I0801 15:07:38.781962  3326 net.cpp:477] lstm1_gate_input_79 <- W_hc_h_78
I0801 15:07:38.781992  3326 net.cpp:477] lstm1_gate_input_79 <- W_xc_x_79
I0801 15:07:38.782032  3326 net.cpp:433] lstm1_gate_input_79 -> gate_input_79
I0801 15:07:38.782064  3326 net.cpp:155] Setting up lstm1_gate_input_79
I0801 15:07:38.782079  3326 net.cpp:163] Top shape: 1 32 4000 (128000)
I0801 15:07:38.782116  3326 layer_factory.hpp:76] Creating layer lstm1_unit_79
I0801 15:07:38.782129  3326 net.cpp:110] Creating Layer lstm1_unit_79
I0801 15:07:38.782145  3326 net.cpp:477] lstm1_unit_79 <- c_78
I0801 15:07:38.782171  3326 net.cpp:477] lstm1_unit_79 <- gate_input_79
I0801 15:07:38.782194  3326 net.cpp:477] lstm1_unit_79 <- cont_79_lstm1_cont_slice_78_split_1
I0801 15:07:38.782207  3326 net.cpp:433] lstm1_unit_79 -> c_79
I0801 15:07:38.782264  3326 net.cpp:433] lstm1_unit_79 -> h_79
I0801 15:07:38.782294  3326 net.cpp:155] Setting up lstm1_unit_79
I0801 15:07:38.782304  3326 net.cpp:163] Top shape: 1 32 1000 (32000)
I0801 15:07:38.782310  3326 net.cpp:163] Top shape: 1 32 1000 (32000)
I0801 15:07:38.782315  3326 layer_factory.hpp:76] Creating layer h_79_lstm1_unit_79_1_split
I0801 15:07:38.782331  3326 net.cpp:110] Creating Layer h_79_lstm1_unit_79_1_split
I0801 15:07:38.782346  3326 net.cpp:477] h_79_lstm1_unit_79_1_split <- h_79
I0801 15:07:38.782356  3326 net.cpp:433] h_79_lstm1_unit_79_1_split -> h_79_lstm1_unit_79_1_split_0
I0801 15:07:38.782366  3326 net.cpp:433] h_79_lstm1_unit_79_1_split -> h_79_lstm1_unit_79_1_split_1
I0801 15:07:38.782384  3326 net.cpp:155] Setting up h_79_lstm1_unit_79_1_split
I0801 15:07:38.782394  3326 net.cpp:163] Top shape: 1 32 1000 (32000)
I0801 15:07:38.782402  3326 net.cpp:163] Top shape: 1 32 1000 (32000)
I0801 15:07:38.782407  3326 layer_factory.hpp:76] Creating layer lstm1_h_conted_79
I0801 15:07:38.782418  3326 net.cpp:110] Creating Layer lstm1_h_conted_79
I0801 15:07:38.782423  3326 net.cpp:477] lstm1_h_conted_79 <- h_79_lstm1_unit_79_1_split_0
I0801 15:07:38.782433  3326 net.cpp:477] lstm1_h_conted_79 <- cont_80_lstm1_cont_slice_79_split_0
I0801 15:07:38.782460  3326 net.cpp:433] lstm1_h_conted_79 -> h_conted_79
I0801 15:07:38.782750  3326 net.cpp:155] Setting up lstm1_h_conted_79
I0801 15:07:38.782764  3326 net.cpp:163] Top shape: 1 32 1000 (32000)
I0801 15:07:38.782771  3326 layer_factory.hpp:76] Creating layer lstm1_transform_80
I0801 15:07:38.782786  3326 net.cpp:110] Creating Layer lstm1_transform_80
I0801 15:07:38.782794  3326 net.cpp:477] lstm1_transform_80 <- h_conted_79
I0801 15:07:38.782805  3326 net.cpp:433] lstm1_transform_80 -> W_hc_h_79
I0801 15:07:38.825510  3326 net.cpp:155] Setting up lstm1_transform_80
I0801 15:07:38.825556  3326 net.cpp:163] Top shape: 1 32 4000 (128000)
I0801 15:07:38.825569  3326 net.cpp:537] Sharing parameters 'W_hc' owned by layer 'lstm1_transform_1', param index 0
I0801 15:07:38.825592  3326 layer_factory.hpp:76] Creating layer lstm1_gate_input_80
I0801 15:07:38.825608  3326 net.cpp:110] Creating Layer lstm1_gate_input_80
I0801 15:07:38.825618  3326 net.cpp:477] lstm1_gate_input_80 <- W_hc_h_79
I0801 15:07:38.825628  3326 net.cpp:477] lstm1_gate_input_80 <- W_xc_x_80
I0801 15:07:38.825646  3326 net.cpp:433] lstm1_gate_input_80 -> gate_input_80
I0801 15:07:38.825665  3326 net.cpp:155] Setting up lstm1_gate_input_80
I0801 15:07:38.825673  3326 net.cpp:163] Top shape: 1 32 4000 (128000)
I0801 15:07:38.825680  3326 layer_factory.hpp:76] Creating layer lstm1_unit_80
I0801 15:07:38.825690  3326 net.cpp:110] Creating Layer lstm1_unit_80
I0801 15:07:38.825697  3326 net.cpp:477] lstm1_unit_80 <- c_79
I0801 15:07:38.825706  3326 net.cpp:477] lstm1_unit_80 <- gate_input_80
I0801 15:07:38.825713  3326 net.cpp:477] lstm1_unit_80 <- cont_80_lstm1_cont_slice_79_split_1
I0801 15:07:38.825731  3326 net.cpp:433] lstm1_unit_80 -> c_80
I0801 15:07:38.825744  3326 net.cpp:433] lstm1_unit_80 -> h_80
I0801 15:07:38.825757  3326 net.cpp:155] Setting up lstm1_unit_80
I0801 15:07:38.825764  3326 net.cpp:163] Top shape: 1 32 1000 (32000)
I0801 15:07:38.825770  3326 net.cpp:163] Top shape: 1 32 1000 (32000)
I0801 15:07:38.825776  3326 layer_factory.hpp:76] Creating layer lstm1_
I0801 15:07:38.825793  3326 net.cpp:110] Creating Layer lstm1_
I0801 15:07:38.825798  3326 net.cpp:477] lstm1_ <- c_80
I0801 15:07:38.825809  3326 net.cpp:433] lstm1_ -> c_T
I0801 15:07:38.825824  3326 net.cpp:155] Setting up lstm1_
I0801 15:07:38.825860  3326 net.cpp:163] Top shape: 1 32 1000 (32000)
I0801 15:07:38.825866  3326 layer_factory.hpp:76] Creating layer lstm1_h_concat
I0801 15:07:38.825896  3326 net.cpp:110] Creating Layer lstm1_h_concat
I0801 15:07:38.825924  3326 net.cpp:477] lstm1_h_concat <- h_1_lstm1_unit_1_1_split_1
I0801 15:07:38.825974  3326 net.cpp:477] lstm1_h_concat <- h_2_lstm1_unit_2_1_split_1
I0801 15:07:38.825997  3326 net.cpp:477] lstm1_h_concat <- h_3_lstm1_unit_3_1_split_1
…
I0801 15:07:38.831305  3326 net.cpp:283] This network produces output c_T
I0801 15:07:38.831315  3326 net.cpp:283] This network produces output h
I0801 15:07:39.118983  3326 net.cpp:297] Network initialization done.
I0801 15:07:39.119025  3326 net.cpp:298] Memory required for data: 225182720
I0801 15:07:39.120810  3326 recurrent_layer.cpp:134] Adding parameter 0: W_xc
I0801 15:07:39.120825  3326 recurrent_layer.cpp:134] Adding parameter 1: b_c
I0801 15:07:39.120831  3326 recurrent_layer.cpp:134] Adding parameter 2: W_hc
I0801 15:07:39.121624  3326 net.cpp:155] Setting up lstm1
I0801 15:07:39.121644  3326 net.cpp:163] Top shape: 80 32 1000 (2560000)
I0801 15:07:39.121678  3326 layer_factory.hpp:76] Creating layer concat
I0801 15:07:39.121696  3326 net.cpp:110] Creating Layer concat
I0801 15:07:39.121706  3326 net.cpp:477] concat <- lstm1
I0801 15:07:39.121719  3326 net.cpp:477] concat <- embedded_input_sentence
I0801 15:07:39.121727  3326 net.cpp:477] concat <- stage_indicator_3axis
I0801 15:07:39.121737  3326 net.cpp:433] concat -> lstm1_video_sequence
I0801 15:07:39.121752  3326 net.cpp:155] Setting up concat
I0801 15:07:39.121760  3326 net.cpp:163] Top shape: 80 32 1501 (3842560)
I0801 15:07:39.121775  3326 layer_factory.hpp:76] Creating layer lstm2
I0801 15:07:39.121786  3326 net.cpp:110] Creating Layer lstm2
I0801 15:07:39.121793  3326 net.cpp:477] lstm2 <- lstm1_video_sequence
I0801 15:07:39.121800  3326 net.cpp:477] lstm2 <- cont_sentence_data_0_split_1
I0801 15:07:39.121809  3326 net.cpp:433] lstm2 -> lstm2
I0801 15:07:39.121821  3326 recurrent_layer.cpp:27] Initializing recurrent layer: assuming input batch contains 80 timesteps of 32 independent streams.
I0801 15:07:39.125663  3326 net.cpp:50] Initializing net from parameters: 
input: "x"
input: "cont"
input: "c_0"
input: "h_0"
force_backward: true
input_shape {
  dim: 80
  dim: 32
  dim: 1501
}
input_shape {
  dim: 80
  dim: 32
}
input_shape {
  dim: 1
  dim: 32
  dim: 1000
}
input_shape {
  dim: 1
  dim: 32
  dim: 1000
}
layer {
  name: "lstm2_cont_slice"
  type: "Slice"
  bottom: "cont"
  top: "cont_1"
  top: "cont_2"
  top: "cont_3"
  top: "cont_4"
  top: "cont_5"
  top: "cont_6"
  top: "cont_7"
  top: "cont_8"
  top: "cont_9"
  top: "cont_10"
  top: "cont_11"
  top: "cont_12"
  top: "cont_13"
  top: "cont_14"
  top: "cont_15"
  top: "cont_16"
  top: "cont_17"
  top: "cont_18"
  top: "cont_19"
  top: "cont_20"
  top: "cont_21"
  top: "cont_22"
  top: "cont_23"
  top: "cont_24"
  top: "cont_25"
  top: "cont_26"
  top: "cont_27"
  top: "cont_28"
  top: "cont_29"
  top: "cont_30"
  top: "cont_31"
  top: "cont_32"
  top: "cont_33"
  top: "cont_34"
  top: "cont_35"
  top: "cont_36"
  top: "cont_37"
  top: "cont_38"
  top: "cont_39"
  top: "cont_40"
  top: "cont_41"
  top: "cont_42"
  top: "cont_43"
  top: "cont_44"
  top: "cont_45"
  top: "cont_46"
  top: "cont_47"
  top: "cont_48"
  top: "cont_49"
  top: "cont_50"
  top: "cont_51"
  top: "cont_52"
  top: "cont_53"
  top: "cont_54"
  top: "cont_55"
  top: "cont_56"
  top: "cont_57"
  top: "cont_58"
  top: "cont_59"
  top: "cont_60"
  top: "cont_61"
  top: "cont_62"
  top: "cont_63"
  top: "cont_64"
  top: "cont_65"
  top: "cont_66"
  top: "cont_67"
  top: "cont_68"
  top: "cont_69"
  top: "cont_70"
  top: "cont_71"
  top: "cont_72"
  top: "cont_73"
  top: "cont_74"
  top: "cont_75"
  top: "cont_76"
  top: "cont_77"
  top: "cont_78"
  top: "cont_79"
  top: "cont_80"
  slice_param {
    axis: 0
  }
}
layer {
  name: "lstm2_x_transform"
  type: "InnerProduct"
  bottom: "x"
  top: "W_xc_x"
  param {
    name: "W_xc"
  }
  param {
    name: "b_c"
  }
  inner_product_param {
    num_output: 4000
    bias_term: true
    weight_filler {
      type: "uniform"
      min: -0.08
      max: 0.08
    }
    bias_filler {
      type: "constant"
      value: 0
    }
    axis: 2
  }
}
layer {
  name: "lstm2_W_xc_x_slice"
  type: "Slice"
  bottom: "W_xc_x"
  top: "W_xc_x_1"
  top: "W_xc_x_2"
  top: "W_xc_x_3"
  top: "W_xc_x_4"
  top: "W_xc_x_5"
  top: "W_xc_x_6"
  top: "W_xc_x_7"
  top: "W_xc_x_8"
  top: "W_xc_x_9"
  top: "W_xc_x_10"
  top: "W_xc_x_11"
  top: "W_xc_x_12"
  top: "W_xc_x_13"
  top: "W_xc_x_14"
  top: "W_xc_x_15"
  top: "W_xc_x_16"
  top: "W_xc_x_17"
  top: "W_xc_x_18"
  top: "W_xc_x_19"
  top: "W_xc_x_20"
  top: "W_xc_x_21"
  top: "W_xc_x_22"
…
I0801 15:07:43.072139  3326 net.cpp:378] The NetState did not contain stage 'dropLstm2' specified by a rule in layer drop_lstm2
I0801 15:07:43.072358  3326 net.cpp:50] Initializing net from parameters: 
name: "s2vt"
state {
  phase: TEST
  stage: "factored"
  stage: "2-layer"
  stage: "test-on-train"
}
layer {
  name: "data"
  type: "HDF5Data"
  top: "cont_sentence"
  top: "input_sentence"
  top: "target_sentence"
  top: "stage_indicator"
  top: "frame_fc7"
  include {
    phase: TEST
    stage: "test-on-train"
  }
  hdf5_data_param {
    source: "/data/gengshan/pose_s2vt/hdf5/buffer_32_s2vt_160/HAHAHAHA_batches/hdf5_chunk_list.txt"
    batch_size: 80
  }
}
layer {
  name: "reshape_stg_indicator"
  type: "Reshape"
  bottom: "stage_indicator"
  top: "stage_indicator_3axis"
  reshape_param {
    shape {
      dim: 80
      dim: 32
      dim: 1
    }
  }
}
layer {
  name: "embed_encoder"
  type: "InnerProduct"
  bottom: "frame_fc7"
  top: "embedded_input_frames"
  param {
    lr_mult: 1
    decay_mult: 1
  }
  param {
    lr_mult: 2
    decay_mult: 0
  }
  inner_product_param {
    num_output: 500
    weight_filler {
      type: "xavier"
    }
    bias_filler {
      type: "constant"
      value: 0.2
    }
    axis: -1
  }
}
layer {
  name: "embedding"
  type: "Embed"
  bottom: "input_sentence"
  top: "embedded_input_sentence"
  param {
    lr_mult: 1
  }
  embed_param {
    num_output: 500
    input_dim: 6068
    bias_term: false
    weight_filler {
      type: "uniform"
      min: -0.08
      max: 0.08
    }
  }
}
layer {
  name: "lstm1"
  type: "LSTM"
  bottom: "embedded_input_frames"
  bottom: "cont_sentence"
  top: "lstm1"
  include {
    stage: "factored"
  }
  recurrent_param {
    num_output: 1000
    weight_filler {
      type: "uniform"
      min: -0.08
      max: 0.08
    }
    bias_filler {
      type: "constant"
      value: 0
    }
  }
}
layer {
  name: "concat"
  type: "Concat"
  bottom: "lstm1"
  bottom: "embedded_input_sentence"
  bottom: "stage_indicator_3axis"
  top: "lstm1_video_sequence"
  include {
    stage: "factored"
  }
  concat_param {
    concat_dim: 2
  }
}
layer {
  name: "lstm2"
  type: "LSTM"
  bottom: "lstm1_video_sequence"
  bottom: "cont_sentence"
  top: "lstm2"
  include {
    stage: "factored"
  }
  recurrent_param {
    num_output: 1000
    weight_filler {
      type: "uniform"
      min: -0.08
      max: 0.08
    }
    bias_filler {
      type: "constant"
      value: 0
    }
  }
}
layer {
  name: "predict"
  type: "InnerProduct"
  bottom: "lstm2"
  top: "predict"
  param {
    lr_mult: 1
    decay_mult: 1
  }
  param {
    lr_mult: 2
    decay_mult: 0
  }
  include {
    stage: "2-layer"
  }
  inner_product_param {
    num_output: 6068
    weight_filler {
      type: "uniform"
      min: -0.08
      max: 0.08
    }
    bias_filler {
      type: "constant"
      value: 0
    }
    axis: 2
  }
}
layer {
  name: "cross_entropy_loss"
  type: "SoftmaxWithLoss"
  bottom: "predict"
  bottom: "target_sentence"
  top: "cross_entropy_loss"
  loss_weight: 20
  loss_param {
    ignore_label: -1
  }
  softmax_param {
    axis: 2
  }
}
layer {
  name: "accuracy"
  type: "Accuracy"
  bottom: "predict"
  bottom: "target_sentence"
  top: "accuracy"
  include {
    phase: TEST
  }
  accuracy_param {
    axis: 2
    ignore_label: -1
  }
}
I0801 15:07:43.072531  3326 layer_factory.hpp:76] Creating layer data
I0801 15:07:43.072551  3326 net.cpp:110] Creating Layer data
I0801 15:07:43.072561  3326 net.cpp:433] data -> cont_sentence
I0801 15:07:43.072577  3326 net.cpp:433] data -> input_sentence
I0801 15:07:43.072592  3326 net.cpp:433] data -> target_sentence
I0801 15:07:43.072618  3326 net.cpp:433] data -> stage_indicator
I0801 15:07:43.072630  3326 net.cpp:433] data -> frame_fc7
I0801 15:07:43.072644  3326 hdf5_data_layer.cpp:80] Loading list of HDF5 filenames from: /data/gengshan/pose_s2vt/hdf5/buffer_32_s2vt_160/HAHAHAHA_batches/hdf5_chunk_list.txt
I0801 15:07:43.073439  3326 hdf5_data_layer.cpp:94] Number of HDF5 files: 3
I0801 15:07:43.084383  3326 net.cpp:155] Setting up data
I0801 15:07:43.084421  3326 net.cpp:163] Top shape: 80 32 (2560)
I0801 15:07:43.084439  3326 net.cpp:163] Top shape: 80 32 (2560)
I0801 15:07:43.084447  3326 net.cpp:163] Top shape: 80 32 (2560)
I0801 15:07:43.084455  3326 net.cpp:163] Top shape: 80 32 (2560)
I0801 15:07:43.084463  3326 net.cpp:163] Top shape: 80 32 32 (81920)
I0801 15:07:43.084473  3326 layer_factory.hpp:76] Creating layer cont_sentence_data_0_split
I0801 15:07:43.084493  3326 net.cpp:110] Creating Layer cont_sentence_data_0_split
I0801 15:07:43.084501  3326 net.cpp:477] cont_sentence_data_0_split <- cont_sentence
I0801 15:07:43.084514  3326 net.cpp:433] cont_sentence_data_0_split -> cont_sentence_data_0_split_0
I0801 15:07:43.084532  3326 net.cpp:433] cont_sentence_data_0_split -> cont_sentence_data_0_split_1
I0801 15:07:43.084545  3326 net.cpp:155] Setting up cont_sentence_data_0_split
I0801 15:07:43.084553  3326 net.cpp:163] Top shape: 80 32 (2560)
I0801 15:07:43.084560  3326 net.cpp:163] Top shape: 80 32 (2560)
I0801 15:07:43.084568  3326 layer_factory.hpp:76] Creating layer target_sentence_data_2_split
I0801 15:07:43.084578  3326 net.cpp:110] Creating Layer target_sentence_data_2_split
I0801 15:07:43.084585  3326 net.cpp:477] target_sentence_data_2_split <- target_sentence
I0801 15:07:43.084594  3326 net.cpp:433] target_sentence_data_2_split -> target_sentence_data_2_split_0
I0801 15:07:43.084605  3326 net.cpp:433] target_sentence_data_2_split -> target_sentence_data_2_split_1
I0801 15:07:43.084619  3326 net.cpp:155] Setting up target_sentence_data_2_split
I0801 15:07:43.084627  3326 net.cpp:163] Top shape: 80 32 (2560)
I0801 15:07:43.084635  3326 net.cpp:163] Top shape: 80 32 (2560)
I0801 15:07:43.084655  3326 layer_factory.hpp:76] Creating layer reshape_stg_indicator
I0801 15:07:43.084667  3326 net.cpp:110] Creating Layer reshape_stg_indicator
I0801 15:07:43.084673  3326 net.cpp:477] reshape_stg_indicator <- stage_indicator
I0801 15:07:43.084682  3326 net.cpp:433] reshape_stg_indicator -> stage_indicator_3axis
I0801 15:07:43.084698  3326 net.cpp:155] Setting up reshape_stg_indicator
I0801 15:07:43.084719  3326 net.cpp:163] Top shape: 80 32 1 (2560)
I0801 15:07:43.084735  3326 layer_factory.hpp:76] Creating layer embed_encoder
I0801 15:07:43.084750  3326 net.cpp:110] Creating Layer embed_encoder
I0801 15:07:43.084756  3326 net.cpp:477] embed_encoder <- frame_fc7
I0801 15:07:43.084766  3326 net.cpp:433] embed_encoder -> embedded_input_frames
I0801 15:07:43.085005  3326 net.cpp:155] Setting up embed_encoder
I0801 15:07:43.085017  3326 net.cpp:163] Top shape: 80 32 500 (1280000)
I0801 15:07:43.085033  3326 layer_factory.hpp:76] Creating layer embedding
I0801 15:07:43.085055  3326 net.cpp:110] Creating Layer embedding
I0801 15:07:43.085062  3326 net.cpp:477] embedding <- input_sentence
I0801 15:07:43.085072  3326 net.cpp:433] embedding -> embedded_input_sentence
I0801 15:07:43.117743  3326 net.cpp:155] Setting up embedding
I0801 15:07:43.117784  3326 net.cpp:163] Top shape: 80 32 500 (1280000)
I0801 15:07:43.117810  3326 layer_factory.hpp:76] Creating layer lstm1
I0801 15:07:43.117862  3326 net.cpp:110] Creating Layer lstm1
I0801 15:07:43.117872  3326 net.cpp:477] lstm1 <- embedded_input_frames
I0801 15:07:43.117882  3326 net.cpp:477] lstm1 <- cont_sentence_data_0_split_0
I0801 15:07:43.117893  3326 net.cpp:433] lstm1 -> lstm1
I0801 15:07:43.117911  3326 recurrent_layer.cpp:27] Initializing recurrent layer: assuming input batch contains 80 timesteps of 32 independent streams.
I0801 15:07:43.122396  3326 net.cpp:50] Initializing net from parameters: 
input: "x"
input: "cont"
input: "c_0"
input: "h_0"
force_backward: true
input_shape {
  dim: 80
  dim: 32
  dim: 500
}
input_shape {
  dim: 80
  dim: 32
}
input_shape {
  dim: 1
  dim: 32
  dim: 1000
}
input_shape {
  dim: 1
  dim: 32
  dim: 1000
}
layer {
  name: "lstm1_cont_slice"
  type: "Slice"
  bottom: "cont"
  top: "cont_1"
  top: "cont_2"
  top: "cont_3"
  top: "cont_4"
  top: "cont_5"
  top: "cont_6"
  top: "cont_7"
  top: "cont_8"
  top: "cont_9"
  top: "cont_10"
  top: "cont_11"
  top: "cont_12"
  top: "cont_13"
  top: "cont_14"
  top: "cont_15"
  top: "cont_16"
  top: "cont_17"
  top: "cont_18"
  top: "cont_19"
  top: "cont_20"
  top: "cont_21"
  top: "cont_22"
  top: "cont_23"
  top: "cont_24"
  top: "cont_25"
  top: "cont_26"
  top: "cont_27"
  top: "cont_28"
  top: "cont_29"
  top: "cont_30"
  top: "cont_31"
  top: "cont_32"
  top: "cont_33"
  top: "cont_34"
  top: "cont_35"
  top: "cont_36"
  top: "cont_37"
  top: "cont_38"
  top: "cont_39"
  top: "cont_40"
  top: "cont_41"
  top: "cont_42"
  top: "cont_43"
  top: "cont_44"
  top: "cont_45"
  top: "cont_46"
  top: "cont_47"
  top: "cont_48"
  top: "cont_49"
  top: "cont_50"
  top: "cont_51"
  top: "cont_52"
  top: "cont_53"
  top: "cont_54"
  top: "cont_55"
  top: "cont_56"
  top: "cont_57"
  top: "cont_58"
  top: "cont_59"
  top: "cont_60"
  top: "cont_61"
  top: "cont_62"
  top: "cont_63"
  top: "cont_64"
  top: "cont_65"
  top: "cont_66"
  top: "cont_67"
  top: "cont_68"
  top: "cont_69"
  top: "cont_70"
  top: "cont_71"
  top: "cont_72"
  top: "cont_73"
  top: "cont_74"
  top: "cont_75"
  top: "cont_76"
  top: "cont_77"
  top: "cont_78"
  top: "cont_79"
  top: "cont_80"
  slice_param {
    axis: 0
  }
}
layer {
  name: "lstm1_x_transform"
  type: "InnerProduct"
  bottom: "x"
  top: "W_xc_x"
  param {
    name: "W_xc"
  }
  param {
    name: "b_c"
  }
  inner_product_param {
    num_output: 4000
    bias_term: true
    weight_filler {
      type: "uniform"
      min: -0.08
      max: 0.08
    }
    bias_filler {
      type: "constant"
      value: 0
    }
    axis: 2
  }
}
layer {
  name: "lstm1_W_xc_x_slice"
  type: "Slice"
  bottom: "W_xc_x"
  top: "W_xc_x_1"
  top: "W_xc_x_2"
  top: "W_xc_x_3"
  top: "W_xc_x_4"
  top: "W_xc_x_5"
  top: "W_xc_x_6"
  top: "W_xc_x_7"
  top: "W_xc_x_8"
  top: "W_xc_x_9"
  top: "W_xc_x_10"
  top: "W_xc_x_11"
  top: "W_xc_x_12"
  top: "W_xc_x_13"
  top: "W_xc_x_14"
  top: "W_xc_x_15"
  top: "W_xc_x_16"
  top: "W_xc_x_17"
  top: "W_xc_x_18"
  top: "W_xc_x_19"
  top: "W_xc_x_20"
  top: "W_xc_x_21"
  top: "W_xc_x_22"
…
